weights/checkpoint_critic_1.pth (torch_old, 190088 bytes, 9 tensors)

bn1.weight f4 [256]
000000 8b 05 3f 3f c3 a7 42 3f f0 d6 bb 3e 2b fe 48 3f
       0.7461783 0.76037234 0.36687422 0.7851283
000010 d6 d3 f2 3e 67 77 f8 3e fd 3f ab 3e a3 d9 3e 3f
       0.47427243 0.48528597 0.33447257 0.7455084
000020 c8 0a 40 3f 76 9a 65 3e 81 6c 41 3f 9f fc 08 3f
       0.7501645 0.22422203 0.7555619 0.5351047
000030 80 ee 4e 3f d3 29 0c 3f bd bf 21 3f 95 83 df 3e
       0.8083267 0.5475132 0.63183194 0.43655077
000040 fe 69 3f 3f c5 36 09 3f 2a b3 9b 3e 04 40 1b 3f
       0.74771106 0.53599197 0.3041013 0.60644555
000050 93 88 8f 3e 54 03 ef 3e 7e 91 a7 3e 67 00 37 3f
       0.28033885 0.46682227 0.3272819 0.7148499
000060 29 c3 c7 3d 52 d3 6b 3e 02 5c cc 3e 82 ca 9d 3e
       0.09754021 0.23029831 0.39913946 0.30818564
000070 c9 70 fa 3e 66 ef 72 bd 3b c8 5e 3f ad 2c 60 3e
       0.48914173 -0.05931034 0.8702428 0.21892042
000080 b0 14 66 3f ed b6 02 3f a3 67 bf 3e a6 18 37 3f
       0.89875317 0.5106037 0.37383756 0.71521986
000090 56 f6 02 3f 22 36 4b 3f d9 42 f9 3e c4 af b6 3e
       0.5115713 0.79379475 0.48683813 0.35680974
0000a0 70 1d 02 3f 21 e4 c4 3e 62 e3 21 3f 81 71 67 3f
       0.5082617 0.384553 0.63237584 0.9040757
0000b0 88 0d 36 3f 28 58 8e 3e 62 33 2d 3f 92 93 0e 3f
       0.711144 0.27801633 0.6765653 0.55693924
0000c0 1c aa 27 3f 60 18 a0 3e f2 7d 2a 3e f3 34 94 3e
       0.6549394 0.31268597 0.16649607 0.28946647
0000d0 22 45 60 3e c4 12 3b 3f 78 ca 09 3f f5 2d 22 3f
       0.21901372 0.7307551 0.5382457 0.63351375
0000e0 3a fb 0e 3f 76 82 f6 3e 86 1c 51 3f bf 0b 3f 3e
       0.5585209 0.4814641 0.8168415 0.18656825
0000f0 ae db ed 3e 7e d2 38 3e 2a 79 21 3f 6f f0 d0 3e
       0.46456665 0.18049046 0.63075507 0.40808436
000100 ea 2e 0c 3f 85 8a b9 3e 06 77 64 3f b7 60 7e 3e
       0.54759085 0.36238495 0.89244115 0.24841581
000110 e7 ef 5e 3e 2d 7c 97 3e 43 81 4b 3f 9d 92 2d 3f
       0.21771203 0.29586926 0.7949411 0.6780184
000120 aa 35 64 3f 4d c0 38 3e e6 f3 ec bd 3c d4 2f 3e
       0.89144385 0.18042107 -0.115699574 0.17170805
000130 81 7c 72 3e a7 c3 27 3f 30 c1 25 3f 0a ae 39 3f
       0.23680307 0.65532917 0.64747906 0.7253119
000140 a0 d3 9d 3e 37 a1 44 3e b6 2f 05 3f d2 70 81 3e
       0.3082552 0.19202124 0.52025926 0.25281388
000150 5e a0 32 3f 7c a7 bf 3e 58 bd 37 3f b3 6f 30 3e
       0.6977595 0.37432468 0.7177329 0.1723011
000160 0f aa 7e 3e d5 63 31 3f 0a f2 18 3f f3 b1 d1 3e
       0.2486956 0.69292957 0.5974432 0.40956077
000170 33 57 3a 3f ea 16 45 3f e3 b3 2f 3e 21 90 95 3e
       0.72789305 0.7698809 0.17158465 0.29211524
000180 fb a6 5b 3f aa 7f 87 3e f3 96 9e 3e 89 83 95 3d
       0.85801667 0.26464587 0.3097454 0.07300479
000190 77 75 75 3e 92 3a 04 3f 31 eb d0 3e ba e2 47 3e
       0.2397059 0.5165187 0.40804437 0.19520083
0001a0 29 48 dc 3e bc 82 79 3e 5b 83 cd 3d 42 60 8c 3e
       0.43023804 0.24366277 0.1003482 0.2741719
0001b0 fc 77 07 3e 56 04 56 3e 78 cf 56 3f 15 6d 26 3f
       0.13229364 0.20900092 0.8391032 0.65010196
0001c0 15 43 1e 3f 18 c2 1b 3e 03 2f 80 3e 85 e1 c2 3e
       0.6182111 0.1521076 0.25035867 0.38062683
0001d0 6c 6d 03 3f 67 2f c4 3e e3 04 9d 3e b2 20 8c 3e
       0.5133884 0.38317415 0.3066779 0.27368695
0001e0 3c 49 c6 3e ae 13 b5 3e 49 71 c5 3e 56 a4 3c 3e
       0.38727748 0.35366577 0.38562992 0.18422064
0001f0 33 2c 7b 3e 0f 2d 90 3e bf 33 b5 3e 10 1d 7c 3e
       0.2452858 0.28159377 0.35391042 0.24620461
000200 9d a1 4c 3f 08 93 b9 3e 89 af 25 3f 69 31 05 3f
       0.799341 0.36244988 0.6472097 0.5202852
000210 a0 fb 17 3e 6e 6c 37 3f e0 4c bc 3e 63 04 92 3e
       0.14842081 0.71649826 0.367774 0.28518972
000220 a6 f4 74 3e e9 24 58 3e b1 08 1d 3f a5 c4 f8 3e
       0.23921451 0.2110783 0.6134139 0.48587528
000230 8a 2f 21 3f 99 bb 1a 3e dd f2 46 3f e9 7b 36 3e
       0.62963164 0.15110625 0.7771433 0.17820705
000240 92 9d da 3e 06 0f 14 3f 1d 08 0e 3f 9c f0 38 3f
       0.42698342 0.57835424 0.5548113 0.7224214
000250 1a 98 5d 3f 9b 3c 1d 3e 83 50 b8 3e fc ce 88 3e
       0.86560214 0.1535515 0.35998926 0.26720417
000260 50 7b fe 3e 63 af 62 3e b9 81 58 3f 26 e0 86 3e
       0.49703455 0.22137217 0.8457294 0.26342887
000270 fa b3 47 3f 48 f9 13 3f d9 8d 1c 3f bb 08 be 3e
       0.78009 0.5780225 0.6115394 0.37116036
000280 13 d7 6a 3f 2b 63 06 3f 42 d2 00 3f 75 d6 00 3e
       0.9173443 0.5249507 0.5032083 0.12581809
000290 65 b4 27 3f 72 db cf 3e 2b 24 8f 3e 32 52 49 3f
       0.65509635 0.4059711 0.2795728 0.78641045
0002a0 10 5a 06 3f 34 25 83 3e 83 83 83 3e a7 83 1a 3f
       0.52481174 0.2561432 0.25686273 0.60357136
0002b0 7d fa 30 3f 95 e1 a1 3e 85 9e 9b 3e 2f d9 a5 3e
       0.69132215 0.31617418 0.30394378 0.3239226
0002c0 6f 3d 0a 3e 3d c3 0f 3f dc 80 3a 3f f4 c3 0b 3e
       0.13499998 0.56157285 0.72852874 0.13648969
0002d0 ff f5 2d 3f c6 80 12 3f 40 63 0d 3f 52 1c 9e 3e
       0.67953485 0.5722774 0.5522957 0.30880982
0002e0 2a 89 2d 3f 79 fc 69 3f e4 4f 0a 3f 58 b7 d8 3e
       0.6778742 0.9140087 0.54028153 0.4232738
0002f0 61 ee b5 3e 3b 04 08 3f 15 25 e0 3e 11 66 bc 3e
       0.3553343 0.53131455 0.4377829 0.3679662
000300 2d 43 3e 3f 5d bb 42 3f 20 2e d2 3e 0f 7a 05 3f
       0.7432125 0.76067144 0.41050816 0.5213937
000310 98 81 f8 3e 0a ad cc 3e 5b ce 0a 3f 8c 73 1b 3f
       0.48536372 0.39975768 0.54221123 0.60723186
000320 a2 4d 94 3d 21 7f 90 3e f8 68 50 3f 06 a1 22 3f
       0.0724137 0.28221992 0.8141017 0.6352695
000330 3c 8a 19 3f 20 68 a3 3e ad 77 9d 3e 31 4f df 3d
       0.59976554 0.3191538 0.30755368 0.109037764
000340 9e 9a e8 3e 12 2e 18 3f 2e c5 4a 3f 42 23 10 3f
       0.45430464 0.594453 0.7920712 0.563038
000350 e1 5d 01 3e bf 93 6f 3e 15 70 d2 3e ca be 5b 3f
       0.12633468 0.23396204 0.41101137 0.85837996
000360 d9 d5 15 3f 76 c2 a9 3e 5e 23 31 3f c3 84 9e 3e
       0.5852943 0.33156174 0.6919459 0.30960664
000370 77 28 81 3e 1d 80 40 3f 2f 17 8f 3e 9d c5 12 3f
       0.25226185 0.75195485 0.27947375 0.57332784
000380 00 36 87 3d 83 f9 3e 3f d5 bd 48 3f db 5f 28 3f
       0.066020966 0.74599475 0.7841466 0.65771264
000390 1c 0d 0d 3e 5d 21 1a 3e 1c 2e 55 3e 15 91 32 3f
       0.13774532 0.1505179 0.2081837 0.6975263
0003a0 03 74 3b 3f b7 5a 3e 3f 02 27 36 3f 8f 66 24 3f
       0.73223895 0.7435717 0.7115327 0.6421899
0003b0 cf fd dc 3e 3c d1 50 3e 74 4c c5 3d a6 8c bc 3d
       0.4316239 0.20392317 0.09633723 0.09206514
0003c0 fa 0e 27 3f 0e f2 77 3e e6 ba c2 3e 81 1e 6b 3e
       0.6525723 0.2421343 0.38033217 0.22960855
0003d0 d7 4d d5 3e ba bc 1d 3e 01 0b 89 3e 4c 7f 1d 3f
       0.4166095 0.15404025 0.26766208 0.61522365
0003e0 b9 e3 c5 3e d0 5c 3e 3f 22 a7 05 3f b5 55 1e 3e
       0.386503 0.7436037 0.5220815 0.15462382
0003f0 81 fa e5 3e dc 98 8f 3e a3 38 ee 3e 42 0a 30 3e
       0.44917682 0.2804631 0.46527585 0.17191413

bn1.bias f4 [256]
000000 9b b4 9a bb d6 7c 95 3d 48 83 82 bd 26 43 e8 3d
       -0.004721237 0.07299201 -0.06372696 0.113409325
000010 62 64 22 bd 75 de 37 3d 94 f4 de 36 88 b3 9f 3b
       -0.039646514 0.044889886 6.644588e-06 0.0048736967
000020 4f 51 1c 3e eb dc e3 3c 40 a5 e0 3d 14 c8 9a bd
       0.15265392 0.027815303 0.10969019 -0.07557693
000030 ad 8f d4 3c 5c cb f6 bc e5 4a c6 bb 69 36 bb 3d
       0.025947416 -0.030126266 -0.0060514086 0.09141237
000040 01 6c d3 bc 91 56 2f 3d 11 de 1e 3a ae 1a 01 bc
       -0.025808336 0.042807166 0.0006060312 -0.007879896
000050 72 1a 63 bc 1a d9 20 bd 90 17 eb 3b fa 4f 85 3d
       -0.0138612855 -0.039269544 0.0071744397 0.06509395
000060 52 e7 c2 3c 13 81 6a bd a1 38 67 3d e3 a3 71 3d
       0.023791943 -0.057252 0.05645049 0.058994185
000070 aa 63 e8 3c 9c c1 50 3d 79 d7 11 bd c6 31 d5 bc
       0.028367836 0.05096589 -0.03560588 -0.02602471
000080 fd a0 87 bd fb 5d 70 bd 18 76 0c bc df 70 89 bc
       -0.06622503 -0.058683377 -0.008573078 -0.016777454
000090 9b 39 e1 bd 9e bb c7 ba 9e a8 6a 3d 49 8b 74 bd
       -0.109973155 -0.0015238409 0.057289712 -0.059703145
0000a0 ce a8 11 3d da 2e 7d bd b7 41 79 bd 6c eb df 3d
       0.035561375 -0.06181226 -0.060853686 0.10933575
0000b0 26 e0 46 3d b8 f6 c0 3c 04 19 6e bd 10 db af bd
       0.04855361 0.023555145 -0.058129326 -0.08586705
0000c0 c8 18 ab 3b ba 0e c4 bc e7 83 83 bd c0 34 2e bd
       0.00522146 -0.023932803 -0.06421643 -0.042530775
0000d0 bb eb 49 bd a2 4f 7a 3d 17 61 4d bd f4 b4 c4 bd
       -0.049297076 0.0611111 -0.05014142 -0.096048266
0000e0 dc 01 96 bc 46 94 e0 3b 22 24 6a 3d 53 50 5c bc
       -0.018311433 0.006853613 0.057163365 -0.013446885
0000f0 38 3f f1 bc 9c de 23 3d 6b e0 66 bd 93 dc ca 3c
       -0.02944909 0.04000722 -0.056366365 0.024763381
000100 65 6a b3 3d 2c fe 1c bd f4 5b e9 3d 1a 3e 55 3d
       0.087605275 -0.038328335 0.11394492 0.052061178
000110 b4 8c a7 bd 75 73 3b bd ff b2 b7 bd 29 f5 0f bc
       -0.08181134 -0.045764405 -0.08969688 -0.008786478
000120 ff 5e bd 3c d8 00 21 3d 8c 8e 3c 3d 33 8d b1 3c
       0.023116587 0.039307445 0.04603438 0.021673774
000130 92 36 1c bd 47 aa dd bc 8c ac 34 bd c4 96 75 bd
       -0.03813798 -0.027058734 -0.044109866 -0.059958234
000140 11 75 89 bc a0 96 1f 3c 7a 26 c0 bc c2 df 04 bd
       -0.016779454 0.009740502 -0.023455847 -0.032439955
000150 03 a2 58 3d 23 66 39 bb 69 db a2 bc 96 14 bb 3d
       0.05288888 -0.0028289638 -0.019880014 0.09134786
000160 90 61 89 3d e2 13 2e 3d 18 61 70 bc cc 51 46 3d
       0.06708062 0.04249943 -0.014671586 0.04841785
000170 6a 1e 99 3d e4 a3 1b bd 40 71 0d 3d c5 c4 e3 bc
       0.07476504 -0.037998095 0.03453183 -0.027803788
000180 7c 9b 3e 3d ff 52 3c 3d 4a 25 f9 3c 26 eb a0 3c
       0.046535 0.04597759 0.030413289 0.019643378
000190 b6 68 41 3d a9 88 8b bc 6e 50 50 3d 66 75 4a bd
       0.047219 -0.017032938 0.050857954 -0.049428366
0001a0 62 1c b9 bc a7 37 1c 3d a4 82 80 bb 9b 1b 9b bd
       -0.022596542 0.03813901 -0.0039218236 -0.07573625
0001b0 40 0b 1d 3c 28 1a 82 3d 73 dc bb 3d 61 08 f2 3c
       0.009585202 0.06352645 0.09172907 0.029545011
0001c0 b7 24 5e 3d 77 3a 8a 3c c0 19 40 3d fc e3 9e bd
       0.054234233 0.016873581 0.046899557 -0.07758328
0001d0 1b da 67 3d 32 cf ad 3d f3 48 9c bc a9 9d e5 bc
       0.056604486 0.08486785 -0.019077754 -0.02802928
0001e0 16 bc 8a bd f0 6e 1a 3d 99 85 03 3d 40 34 95 3d
       -0.06774156 0.037703454 0.03210983 0.072853565
0001f0 6b 60 8b 3c 32 52 89 3d 54 94 3c bd 9c 19 26 bd
       0.01701375 0.06705131 -0.046039894 -0.040551767
000200 e8 d8 01 bc f3 89 b2 3c b9 01 19 3d 7e d5 a5 3d
       -0.00792525 0.021794295 0.03735516 0.08097361
000210 c3 1c 59 3d c4 30 c3 bc df 0e c1 3c ef 77 45 3d
       0.053005945 -0.023826964 0.023566661 0.04821008
000220 9a b7 af 3d 4a 4c 9a 3c b9 20 47 bc 3e ec 66 3a
       0.08579941 0.018835206 -0.012153798 0.00088090065
000230 3b 7b b2 bc 4c 42 63 bd 27 70 b8 bd 56 f3 f1 3c
       -0.021787276 -0.055483148 -0.09005766 0.029534977
000240 6a 55 af 3c 39 b4 65 3d 07 d8 6c 3c 56 1c e5 3c
       0.021403033 0.056080077 0.014455802 0.027967613
000250 67 07 2b 3d 76 df 55 bd 5b 03 3f bb f5 20 b1 bc
       0.041755106 -0.052215062 -0.0029146287 -0.02162216
000260 3b 2f 11 bd 0e 9d 15 3d a5 c7 67 3d 46 24 f3 3c
       -0.035445433 0.036526732 0.05658688 0.029680382
000270 c5 94 2c bd 03 26 2d 3d 11 a6 58 bc 0a 79 9f bc
       -0.042134065 0.04227258 -0.013223187 -0.019466896
000280 9f 1a 88 3d 6c 3a 82 3c 12 7d 3d bd a9 ad a6 3c
       0.066457026 0.015896998 -0.046261854 0.02034648
000290 f7 0b f8 bd ca 3c 79 3d 79 03 89 bb 81 7a ad bc
       -0.12111657 0.06084899 -0.004181322 -0.021176578
0002a0 65 83 d3 3b 44 4d 75 bc 3d 0f 1b 3d 00 0a c5 3d
       0.0064548724 -0.014972035 0.03785633 0.09621048
0002b0 07 5d 26 3d 2c 6d 02 bd 9b d5 9e bc 3e 83 f6 bd
       0.04061606 -0.031842396 -0.019388964 -0.12036751
0002c0 1d 67 29 3d 63 6b 3b 3d bc ed af 3c 96 4e 2a 3d
       0.041358102 0.04575671 0.021475665 0.04157885
0002d0 95 5b b0 3d 66 bd fc 3c 25 5c 61 3d 3a 9a c9 bc
       0.08611218 0.030852031 0.055019516 -0.024609674
0002e0 58 4a 39 bd 3a 82 20 3d 57 1a 04 3e 34 4c 43 bd
       -0.045236915 0.039186694 0.12900673 -0.047680095
0002f0 1b ae 3e 3d 5a 4c 8c 3d dc 04 7d bd 65 ff db bd
       0.04655276 0.068505004 -0.061772212 -0.10742072
000300 b3 c5 94 bd f4 e3 85 bc e3 85 87 bc ab 4a 90 3d
       -0.07264271 -0.016344048 -0.016543334 0.07045492
000310 44 30 88 3c a4 b3 7c 3d 9a a4 c3 3c 1f 1c 2a 3d
       0.016624577 0.061694756 0.0238822 0.041530725
000320 16 37 12 3d 74 b7 3c bd 5f f3 60 3d f7 55 95 bd
       0.035697065 -0.046073392 0.054919597 -0.07291787
000330 ca 17 ab 3d c3 25 3f bb 18 ec 96 3c 93 99 64 3d
       0.08354147 -0.0029166795 0.018423125 0.055810522
000340 4b 7e 50 3d 94 c5 a2 3d 46 13 ad 3d d8 c7 a3 3d
       0.050901692 0.07947841 0.08450942 0.079971015
000350 e0 53 5c bd c8 0b 2f 3c 13 70 a1 3c df c5 36 ba
       -0.053790927 0.010683961 0.019706761 -0.0006972234
000360 7e ff 0b 3d 05 05 9c 3b 68 f8 03 bd cb 48 03 3d
       0.034179203 0.0047613406 -0.03221932 0.032051843
000370 f9 7c 71 bd 24 0e ac 3d df fb fb 3b f1 d1 58 3d
       -0.058957074 0.084011346 0.0076899375 0.05293459
000380 ef 1f 9a 3b a9 cb c2 3d b4 58 52 3d cf 4a 9f bd
       0.004703514 0.09511501 0.051354125 -0.077779405
000390 f7 7b ac bd 39 ca 84 3d e7 79 26 3d 8a 29 bc bc
       -0.08422082 0.064838834 0.0406436 -0.022969026
0003a0 3e 58 c9 bd b5 78 26 bd 98 52 1e bc 8d d0 d8 bd
       -0.09831284 -0.04064246 -0.009663247 -0.10586653
0003b0 51 40 e6 3c 46 7b 49 3d 77 18 f6 3c 13 d2 60 3d
       0.02810684 0.04918983 0.030040963 0.054887842
0003c0 1d 1b 34 bc bc 44 5c 3c 04 08 71 3c e6 34 73 bd
       -0.010992792 0.013444122 0.014711384 -0.05937662
0003d0 11 6a c7 bc 38 ca 8a 3d 8c 59 b5 3c 60 0a 21 3d
       -0.024342569 0.067768514 0.022137426 0.039316535
0003e0 d1 49 0e 3d 33 08 0d 3d c2 2a 4f 3d ed 70 0c 3d
       0.034738366 0.034431648 0.050577886 0.034287382
0003f0 fc e3 c9 3d d9 8d 2a bd 98 b1 8a 3c 08 b7 18 3d
       0.09857938 -0.041639183 0.016930386 0.037283927

bn1.running_mean f4 [256]
000000 1f c1 41 40 43 be 2e 40 a9 2f a4 3e c6 af a5 3e
       3.0274122 2.7303627 0.32067612 0.32360667
000010 7e 98 0c 3e 16 ac 56 3e 8b e5 68 3f f8 ac 8e 3f
       0.13730046 0.20964083 0.90975255 1.1146536
000020 f8 89 1e 3f 26 7f a7 3e 50 36 29 3f 89 f7 d3 3f
       0.61929274 0.32714194 0.660985 1.6559917
000030 39 81 cf 3f 28 87 86 3e 16 4d 60 3f c3 a2 fc 3e
       1.6211311 0.2627499 0.87617624 0.49342927
000040 9a 7c a0 3f 81 43 09 3f e3 67 01 3f 04 c7 17 3f
       1.2538025 0.5361863 0.50549144 0.5928805
000050 cc d1 60 3f 46 af e5 3f ed cf 56 3f b9 46 0d 40
       0.87820125 1.7944114 0.8391102 2.2074416
000060 a6 66 62 40 fa 21 2e 40 7f 4d 95 3e f4 c6 5c 3f
       3.5375152 2.7208238 0.29160687 0.8624108
000070 b1 7c 5d 3f 0b 75 82 3f eb 38 3d 40 3e 1b 1b 3e
       0.8651839 1.0191969 2.956599 0.15147111
000080 90 bb 21 3f 42 62 69 40 2b 41 c2 3e 47 6f 1a 3f
       0.6317682 3.6466222 0.37940344 0.60326046
000090 a1 4c f9 3f 7a 5f 29 40 8f 2a f4 3e 4f a5 56 3f
       1.947651 2.6464524 0.4768872 0.8384599
0000a0 fe 6c 56 3e 9c 98 93 3e 75 1e f7 3f cd 25 b3 3f
       0.20940015 0.2882737 1.930617 1.3995911
0000b0 94 ba 5e 3e fa 0e 43 40 c7 d9 29 40 0d 08 20 3f
       0.21750861 3.047789 2.653917 0.62512285
0000c0 3c fa 65 3f ee 7e af 3e d6 4e 2d 3f 15 01 db 3e
       0.8983495 0.34276527 0.6769842 0.42774263
0000d0 50 74 df 3e d4 83 c9 3e 4f b7 1e 3f 7d 9a 18 40
       0.43643427 0.3935839 0.61998457 2.3844292
0000e0 c0 fa ce 3f ae 6f a3 3e 88 3b f2 3f b4 96 31 3f
       1.6170273 0.31921142 1.8924417 0.6937058
0000f0 5c e3 e3 3d d6 22 7d 3e 9b 1a f9 3f 62 40 30 3f
       0.1112735 0.2472032 1.9461244 0.6884824
000100 8c 97 87 3f 4c 65 30 3f 39 2a ad 3f 92 b1 65 3e
       1.0593123 0.68904567 1.352851 0.22431019
000110 99 c6 f4 3e dc c1 13 3f ee 02 46 40 18 06 4b 3f
       0.47807768 0.5771768 3.0939288 0.79306173
000120 56 14 54 3f 4a aa c4 3d 80 1e 10 3e 72 27 f5 3e
       0.8284353 0.096027926 0.14074135 0.47881657
000130 1f 7e 90 3f 73 42 f3 3f 06 09 5f 3f c3 c5 4e 3e
       1.1288489 1.9004654 0.87123144 0.20192628
000140 29 b2 68 3e 47 87 8a 3f 06 3c c4 3d 2b 17 d2 3f
       0.22724213 1.0822533 0.09581761 1.641332
000150 4b f4 58 3e 5c 40 66 40 ac d7 fe 3e 93 0d 7d 3e
       0.2118694 3.5976782 0.4977392 0.2471221
000160 11 bd 4e 3e 67 32 09 40 62 08 a1 3f ac b2 41 3f
       0.2018931 2.1437013 1.2580683 0.75663257
000170 60 92 11 40 31 83 5c 3f 7e 84 69 3f 5d 6f 10 3f
       2.274559 0.8613768 0.9121779 0.56419927
000180 5c b6 20 40 65 09 a0 3e be 13 fc 3f 88 95 2c 40
       2.5111303 0.31257167 1.9693525 2.6966267
000190 68 d5 da 3e 00 70 0e 3e 81 04 ab 3f e8 7d 49 3e
       0.4274094 0.13909912 1.336075 0.19676936
0001a0 95 a1 f1 3e 68 1f 82 3e 14 2b 8e 3f dc 44 25 3f
       0.4719359 0.25414586 1.1106896 0.64558196
0001b0 9f 96 3e 3e 48 a9 3b 3f de d3 92 3f c1 a4 1e 3f
       0.18612145 0.7330518 1.1470907 0.61970145
0001c0 97 d6 fc 3f 1d 2b aa 3e d0 3c 01 3e 8e 18 23 40
       1.9752988 0.33236018 0.12620854 2.5483737
0001d0 88 77 77 3f 79 c3 3f 3d 17 2c 0d 3f bd cb 3f 3e
       0.96666765 0.046817277 0.551454 0.18730064
0001e0 31 25 30 3e 66 b0 30 3e 97 cd a8 3f 24 8a 95 3f
       0.17201687 0.1725479 1.3187741 1.1682782
0001f0 39 87 d1 3d f7 b1 14 3e 64 e4 ea 3e af cf 25 40
       0.1023087 0.14521013 0.45877373 2.590801
000200 b8 cc 39 3f 0a bf ba 3f 94 a0 bd 3e a6 f1 18 3e
       0.72578 1.458955 0.37036574 0.14935932
000210 d3 ac 89 3e 39 b0 23 40 04 02 c0 3f a4 c9 d7 3f
       0.26889667 2.5576308 1.5000615 1.6858411
000220 31 e8 0d 3f 4b b6 d0 3d 56 1f 95 3f 5c 80 91 3e
       0.5543242 0.101910196 1.1650188 0.28418243
000230 57 7e 8b 3f 0a da ce 3e 52 14 9c 3e b4 6b 85 3e
       1.0897931 0.40400726 0.30484253 0.26058733
000240 93 a8 6a 40 a1 3b b7 3f 2d ca e4 3f bd bf 89 3f
       3.666539 1.4315072 1.7874199 1.0761639
000250 53 73 f0 3f 21 cb 14 40 95 c5 7c 3d 5b 08 3c 3e
       1.8785194 2.324898 0.061711866 0.18362562
000260 a0 0f 9c 3f 34 42 e4 3f b7 f1 49 40 b0 ca 31 3e
       1.2192268 1.7832704 3.155378 0.17362475
000270 16 37 cf 3f 91 30 53 3f 9d 66 12 40 ee 55 0a 3f
       1.6188686 0.8249598 2.287513 0.5403737
000280 e2 b3 ee 3f 4a 37 be 3e 5a 83 2f 3f 74 7d ed 3c
       1.8648646 0.37151557 0.685598 0.028990485
000290 3b 05 54 40 c2 74 d7 3f 4a 53 e5 3e 12 5a 3c 40
       3.3128192 1.6832507 0.44790107 2.9429975
0002a0 59 a6 39 3f d7 fe 08 3f fe 64 6e 3e 08 69 57 3f
       0.7251945 0.53513855 0.23280713 0.8414464
0002b0 b6 b9 4f 3f 5d ac 4d 40 e0 b6 07 3f fe f8 95 3e
       0.8114275 3.2136452 0.5301342 0.29291528
0002c0 14 22 15 3f 3e b6 5a 3f 4c af cf 3e f6 c5 ef 3e
       0.58255124 0.8543433 0.40563428 0.4683072
0002d0 06 d0 90 3e 9f c0 75 3f 7d c5 a8 3e 39 ef 61 3f
       0.2828371 0.9599704 0.32963172 0.8825565
0002e0 61 42 68 3f 8b 72 1a 40 9a d1 3a 3f b6 7d 0a 3f
       0.90726286 2.4132411 0.72976077 0.5409807
0002f0 49 90 f0 3e 15 87 9c 3f 73 21 6b 3e b2 3d 96 3e
       0.4698508 1.2228724 0.22961979 0.29343945
000300 04 83 fc 3e 31 74 07 3f f4 ab ea 3e 4e 05 20 3f
       0.49318707 0.5291167 0.45834315 0.62508094
000310 ef d6 2a 3e d2 d9 9a 3e 05 d3 58 3f ad 47 7a 3f
       0.16683553 0.3024431 0.8469699 0.9776562
000320 b8 21 04 3f 8c 88 c9 3f 6c b2 1c 40 ba 2f 84 3f
       0.5161395 1.5744796 2.44839 1.0327065
000330 8f 92 a8 3d b2 e6 e5 3d a6 62 32 3e 2f 74 f1 3d
       0.08231079 0.11225642 0.17420444 0.117897384
000340 d0 08 b1 3e ce f9 27 3e fc b2 fd 3f 50 a0 32 3e
       0.34577036 0.16403887 1.9820247 0.17443967
000350 a2 c1 26 3f 29 fe c9 3f f2 c0 46 40 9a 12 43 3f
       0.6513921 1.5780689 3.1055264 0.7620026
000360 da 5e ec 3e d8 d4 12 3f d2 c1 8a 3f a6 32 80 3f
       0.46166116 0.57356024 1.0840399 1.0015457
000370 11 54 a5 3e 4e 93 32 3f 62 32 af 3e de 7b 77 3f
       0.322907 0.6975602 0.34218127 0.9667338
000380 ac 49 01 3f a4 0d ff 3f ff 37 a4 40 41 dc f0 3f
       0.5050304 1.9926038 5.1318355 1.8817216
000390 8a 74 eb 3f ff f0 82 3e 05 e4 8e 3d cb 66 50 3f
       1.839494 0.2557449 0.06977085 0.8140685
0003a0 77 a5 13 3f 0f f6 22 3f ee 46 8c 40 99 5c 3a 3f
       0.57674354 0.63656706 4.3836584 0.7279754
0003b0 b4 c8 30 3f 6c f0 46 3f 05 fd 0d 3f 2b 07 cc 3f
       0.6905625 0.77710605 0.554642 1.5939687
0003c0 a1 e9 a9 3f 51 1a 18 40 f5 69 16 40 2a 86 27 3f
       1.3274423 2.3766062 2.350217 0.65439093
0003d0 2b e6 3c 3f c8 49 29 3f 09 a6 aa 3e 8a d6 a9 40
       0.7378871 0.66128206 0.333298 5.307439
0003e0 57 f6 81 3f 00 a9 d6 3f c5 13 e7 3e 3e ca 5f 3f
       1.0153302 1.6770325 0.4513227 0.8741797
0003f0 f4 98 81 3f 16 f4 23 3f fb d7 a4 3e a2 1d 4d 3e
       1.0124803 0.6404432 0.3219603 0.20030835

bn1.running_var f4 [256]
000000 c4 ee c6 40 f1 3f 3b 40 53 2e 5b 3f 2a cf 45 3f
       6.216646 2.9257777 0.8561756 0.7726923
000010 00 d6 d3 3d 54 cf c4 3e a3 03 46 3f d8 b5 96 3f
       0.10343552 0.3843943 0.773493 1.1774244
000020 08 ee 0b 40 e1 5d c1 3e ba b5 c7 3f d8 e0 8e 40
       2.1864033 0.37766936 1.5602334 4.4649467
000030 a1 d8 31 40 22 90 de 3e ed 79 38 40 33 a8 85 3f
       2.778847 0.4346934 2.8824418 1.0441955
000040 b2 4b 08 40 70 fe bf 3f 32 30 69 3f 84 24 93 3f
       2.12962 1.4999523 0.91089165 1.1495519
000050 16 5e f9 3f 61 5d 34 40 08 3f a3 3f 08 dc 9a 40
       1.9481838 2.8181994 1.2753611 4.8393593
000060 8e 54 e9 40 a6 fa 4a 40 e8 de 5d 3f 27 38 07 40
       7.2915716 3.1715484 0.8666825 2.1128023
000070 a9 6a 1a 40 95 96 c7 3f 92 44 9c 40 08 e4 a8 3d
       2.41276 1.5592829 4.8833704 0.082466185
000080 5b 0b 33 3f 07 77 0b 41 ed 82 6d 3f 53 d7 cc 3f
       0.699392 8.716559 0.927779 1.6003212
000090 b4 51 a4 40 96 6f 41 40 c2 a5 a7 3f cc e2 c2 3f
       5.1349735 3.0224357 1.309746 1.5225463
0000a0 f7 28 de 3e b7 1c b5 3e f8 aa 5c 40 c9 ec f1 3f
       0.4339063 0.3537347 3.447935 1.8900386
0000b0 f0 ac 92 3e 91 8c e9 40 65 2b c3 40 45 0f 3a 3f
       0.28647566 7.298409 6.099047 0.7267955
0000c0 0b 24 0d 40 a7 6b 90 3e b0 cf a6 3f f4 11 8e 3f
       2.205325 0.28207132 1.3032131 1.1099229
0000d0 2f 17 e5 3e 8c 5e 83 3f fc 56 d8 3f 40 4f 93 40
       0.4474425 1.0263228 1.6901546 4.603424
0000e0 e1 09 91 40 e3 36 b3 3e 33 24 80 40 ac 08 3d 3f
       4.532456 0.35002813 4.004419 0.7384136
0000f0 8d 52 1c 3e e6 21 c4 3e b7 5d 5a 40 de d0 28 3f
       0.15265866 0.38307112 3.41197 0.65943706
000100 a6 ae 8d 40 a4 85 99 3f e7 98 34 40 b8 d9 a0 3e
       4.4275694 1.1993909 2.8218324 0.31416106
000110 db 69 a2 3f 0c d7 4f 3f ae da a6 40 54 d4 c0 3f
       1.2688555 0.8118751 5.2141943 1.5064797
000120 ee a0 2d 40 fa f6 2d 3e b3 7e 85 3e 33 cc 86 3f
       2.7129474 0.16988745 0.26073226 1.0531067
000130 ab bd a7 3f dc 17 04 40 26 a3 fd 3f a7 fb b5 3e
       1.3104757 2.0639563 1.9815414 0.35543558
000140 ae e9 b4 3e b3 4b ac 3f 12 e5 39 3e 44 f4 52 40
       0.35334533 1.3460602 0.1815379 3.2961588
000150 b6 4d 8a 3e c6 32 bd 40 b8 19 8c 3f ce ec d7 3e
       0.27012414 5.912448 1.0945349 0.42172855
000160 7a e8 fb 3e 36 95 dc 40 56 31 36 3f 51 03 d1 3f
       0.49200803 6.893214 0.7116903 1.6329137
000170 76 a8 f5 3f f0 bd 6d 3f 38 37 c7 3f ff 0d 67 3f
       1.9192035 0.92867947 1.5563726 0.9025573
000180 be cf a1 40 a1 7b 86 3f 1b d9 37 40 2d e4 73 40
       5.056609 1.0506479 2.872626 3.8108017
000190 26 84 9d 3f b5 da 36 3e 84 b4 da 3f ce 87 5b 3e
       1.2305954 0.17856868 1.7086339 0.21438524
0001a0 e4 58 a6 3f 9a e7 ce 3e 51 54 0c 40 64 6c d2 3f
       1.2995877 0.40411073 2.1926463 1.6439328
0001b0 75 65 99 3e 57 51 0e 40 9b 41 86 40 e7 82 8e 3f
       0.29960218 2.2237146 4.1955085 1.1133698
0001c0 a0 6e f9 40 55 d2 60 3f 79 9e 5c 3e 2f 11 08 41
       7.794754 0.8782094 0.21544828 8.504195
0001d0 75 f7 ff 3f d4 38 59 3c 25 60 ff 3f 4d ff 8b 3e
       1.9997393 0.013258178 1.9951216 0.27343217
0001e0 17 c0 a2 3e eb 77 70 3e bc 7a 56 40 50 62 95 40
       0.31787178 0.23483245 3.351241 4.668251
0001f0 c5 25 10 3e be d8 83 3e 9b 7e 58 3f bb d4 0f 41
       0.14076908 0.257513 0.84568185 8.989436
000200 8d 7d 65 3f 2b 0c 56 40 fa 71 94 3f 51 df 89 3e
       0.896447 3.3444927 1.1597283 0.2692819
000210 ae 35 0d 3f 35 46 6e 40 37 8e f6 3f dc ba 3c 40
       0.55160034 3.723035 1.926215 2.948905
000220 1f cf a8 3f 9d 5b 82 3d 20 c2 8e 40 ac be bb 3e
       1.3188208 0.0636513 4.461197 0.3666891
000230 fc 93 e0 3f 99 d6 b2 3f 45 12 24 3f 9b 12 6a 3f
       1.7545161 1.397174 0.6409038 0.9143464
000240 59 6f 0a 41 13 d4 82 40 82 46 9b 40 08 0c 05 40
       8.6521845 4.088388 4.852357 2.0788593
000250 61 2c 5d 40 cd 2a cc 40 39 da 00 3e 27 f3 00 3f
       3.4558337 6.3802247 0.12583245 0.5037102
000260 83 0d e1 3f bd 05 bf 40 3c 31 bd 40 21 90 6b 3e
       1.7582248 5.9694505 5.91226 0.230042
000270 3b 1f 7d 40 74 2b 91 3f 5b 7b 0c 40 97 95 88 3f
       3.9550312 1.1341386 2.195029 1.0670651
000280 9f 13 90 40 a8 fd 81 3f 08 23 2a 40 71 12 fc 3c
       4.502395 1.0155535 2.6583881 0.030770512
000290 08 3a 05 41 58 e4 13 40 b3 c4 a7 3f bd 96 dc 40
       8.326668 2.310812 1.3106903 6.8934007
0002a0 f4 ee 0a 40 d8 f4 68 3f 7b 25 07 3f 4a d3 b1 3f
       2.1708345 0.909986 0.52791566 1.3892605
0002b0 6f 21 07 40 5e 7f 9e 40 91 5b 89 3f 6e 57 2a 3f
       2.1114156 4.9530478 1.0731069 0.6653966
0002c0 b8 82 45 3f 9b 28 0e 40 b2 6b 83 3f 55 86 6f 3f
       0.77152586 2.2212284 1.0267241 0.9356435
0002d0 26 80 c1 3e a1 9f 3a 40 0b 46 02 3f 1c 51 de 3f
       0.37793082 2.915993 0.5088813 1.7368503
0002e0 0a c7 fd 3f 75 a1 ee 40 8c a9 06 40 c7 64 be 3f
       1.9826367 7.457209 2.1040983 1.4874505
0002f0 ac 0f 97 3f b1 d9 07 40 76 1c 35 3e 56 84 1d 3f
       1.1801658 2.1226618 0.17686638 0.61530054
000300 c7 7e 63 3f 29 60 0a 40 e7 ca 89 3f 21 80 42 3f
       0.8886532 2.1621192 1.0765046 0.7597676
000310 4d 6d 85 3e f1 ad f2 3e 5d 86 0e 40 34 a2 d4 3f
       0.26059952 0.47398332 2.226951 1.6612
000320 8e 4f e5 3f 12 85 13 40 a6 46 95 40 38 63 85 3f
       1.7914903 2.304997 4.664874 1.0420904
000330 f2 18 d3 3d 5f 2b 00 3e bf c7 27 3e a2 38 84 3e
       0.10307492 0.12516545 0.16384791 0.25824457
000340 fa 7f a4 3e 89 99 9a 3e e0 de 54 40 da cb 9a 3e
       0.32128888 0.30195263 3.3261032 0.3023365
000350 5e 97 c0 3f 8c 42 39 40 ae 77 a5 40 8f 61 3e 3f
       1.5046194 2.8946867 5.1708593 0.7436761
000360 6a f2 52 3f dc cc d0 3f ab b0 02 40 2b 16 36 40
       0.82401145 1.6312518 2.042033 2.845103
000370 da 9b 8a 3e f7 97 2a 3f 84 f2 4c 3f 9f a6 ed 3f
       0.2707203 0.6663813 0.8005755 1.8566474
000380 07 fa 43 3f 58 6a 4b 40 86 72 ad 40 24 ba 89 40
       0.76553386 3.1783657 5.42023 4.3039722
000390 23 5b 47 40 53 2c 83 3e 5b 36 cf 3d bb a5 ff 3f
       3.1149375 0.25619754 0.10117789 1.9972452
0003a0 a0 b6 0f 3f b4 bf a8 3f 11 66 14 41 28 25 b9 3f
       0.5613804 1.3183503 9.274919 1.4464464
0003b0 bc dc ef 3f b0 c2 a7 3f 3c cc c4 3f a8 05 65 40
       1.8739238 1.3106289 1.5374827 3.5784702
0003c0 14 26 0a 40 f7 3a 8c 40 4a 34 6e 40 2f 40 e8 3f
       2.158574 4.382198 3.7219415 1.8144587
0003d0 11 2c e8 3f fe 67 c8 3f 6e ca 4f 3f 1b 5e 30 41
       1.8138448 1.5656736 0.8116826 11.022975
0003e0 4b 09 f3 3f d8 40 c9 3f f1 a6 00 3f e0 a7 91 3f
       1.8987211 1.5722914 0.5025473 1.1379356
0003f0 bd 57 18 40 71 f7 d7 3f 8d 34 a7 3e f3 19 88 3e
       2.3803551 1.6872388 0.3265728 0.26582298

fcs1.weight f4 [256, 48]
000000 56 e6 b2 bc 08 6a 0b bd 6d fc 7e 3d f6 90 1b 3d
       -0.021838348 -0.034036666 0.06225245 0.037980042
000010 c8 f3 47 bc a7 67 3f 3d 60 31 b8 3b f7 e0 ef 3c
       -0.012204118 0.04672971 0.0056211203 0.029282076
000020 c7 95 b2 bb f1 1d 84 bd 39 82 99 3d 88 3e 1f 3d
       -0.0054499838 -0.06451023 0.07495541 0.038877994
000030 6d 60 4e bd 69 5a 4e bd 94 13 eb 3c ee 0f 15 3b
       -0.050384928 -0.05037919 0.028695859 0.002274509
000040 c8 2d 50 bd c5 be 73 3d 49 02 66 bc d9 ea cf bb
       -0.05082491 0.059508104 -0.014038631 -0.0063451347
000050 b9 16 63 3c 19 6f 4b bd 6a cf 03 3a f1 eb b9 3d
       0.013860398 -0.049666498 0.00050281605 0.090782054
000060 cd d7 b5 bc 27 e6 8b bc 03 6a 84 3d de 48 66 bd
       -0.022197628 -0.017077519 0.06465533 -0.056221835
000070 97 87 e3 3c 51 8b 51 3d 05 cf 3e bd 10 c7 f4 bb
       0.027774615 0.051158253 -0.046584148 -0.007470019
000080 24 79 63 bd a8 12 e8 bc 42 9c 6d 3c 47 3b 12 3d
       -0.05553545 -0.028329208 0.014502587 0.035701063
000090 59 e6 6e 3d 3f d6 aa bc ee e1 02 3d 8d d2 fd 3d
       0.058325145 -0.020854114 0.031953745 0.12393675
0000a0 87 b4 1b bb 21 98 ce bc a6 ad a1 3b 30 0f bf 3d
       -0.0023758726 -0.025219025 0.0049340306 0.09329069
0000b0 df ab 5e 3c bc a1 8b bd 01 4c 67 3d 0d 77 5d 3d
       0.013590782 -0.06817958 0.056468967 0.054068614
0000c0 43 bd e8 bd 0f 33 4c 3d 1c 22 51 3c fa 0e 8d bd
       -0.11364224 0.04985338 0.01276448 -0.06887622
0000d0 18 50 8a 3d 78 d7 5b 3d 7d d5 e5 bc d6 be 62 bd
       0.06753558 0.053672284 -0.0280559 -0.055357777
0000e0 8e 0f ca 3a e9 0b 45 3d 17 90 8d 3d 6d 8d 52 bd
       0.0015416013 0.04810706 0.069122486 -0.051404405
0000f0 3f 46 73 bc 2a 44 5c 3d d9 25 66 3c 48 14 91 bd
       -0.014848291 0.053775944 0.0140471095 -0.070839465
000100 cc 6c f3 38 22 26 e7 bc 98 9c d6 bc 7f 94 b0 bd
       0.00011607408 -0.028216425 -0.026197717 -0.086220734
000110 81 04 a7 3c de f4 a7 bd f5 df 49 3c 22 a3 a3 bb
       0.02038789 -0.082010016 0.012321462 -0.004993812
000120 8f f6 b9 bc 66 9a b4 bc 7e b7 e3 bc b7 03 96 3c
       -0.022700576 -0.02204628 -0.027797457 0.018312318
000130 5c a4 dc 3c bd 20 e1 3b 37 9a 2f 3d eb a4 bd 3c
       0.026933841 0.006870358 0.04287168 0.023149928
000140 7c 5d 3c bd 87 2a a3 3d d7 f4 18 3d e2 49 88 3c
       -0.04598759 0.07967096 0.037342872 0.016636793
000150 e1 32 c1 3c b2 3e a5 3d 79 46 21 bd ee 67 a6 bc
       0.023583831 0.08068599 -0.03937385 -0.02031323
000160 df 62 f7 bb 76 8b 9a 3d 83 95 29 3c f6 72 dd 3d
       -0.007549628 0.07546131 0.010350588 0.10812943
000170 45 75 b9 bb 5d 06 60 3b 76 66 02 3d 46 e8 ec 3d
       -0.0056597316 0.003418348 0.031835996 0.1156774
000180 10 9c 01 3d 40 3b 34 3d 92 89 8e bc 19 d6 ea bc
       0.031642973 0.044001818 -0.017399583 -0.028666543
000190 bc 54 5b 3d 34 91 5f bd e1 ee 8b 3b de 55 31 bd
       0.053547606 -0.054581836 0.00427042 -0.04329478
0001a0 16 7f 8d 3d 51 27 42 3c 61 ff 71 bd 24 ab c5 bd
       0.06909005 0.011850194 -0.05908144 -0.09651783
0001b0 60 5f e9 3c 6c 5e bb bc e4 19 4a bd ba 87 96 bd
       0.028487861 -0.022872172 -0.049341097 -0.073501065
0001c0 22 a6 0d 3d 9c 4c 8d bd a0 18 48 3d 07 9c 51 bd
       0.034582265 -0.06899378 0.04885161 -0.05117419
0001d0 5a 8d c9 bd 1d 9a d2 3d b5 81 2e bb 96 7c 98 bd
       -0.09841414 0.10283301 -0.0026627604 -0.07445638
0001e0 38 10 96 3d 3d f3 a9 3c ea f0 ae 3b a3 05 b6 3d
       0.07327312 0.020745868 0.005338778 0.08887794
0001f0 b8 94 db bb 46 1b 25 3b 72 bf 94 bd dd 59 97 3d
       -0.0067010783 0.0025193258 -0.07263078 0.07390187
000200 7f 96 2b 3b 34 42 98 3d bb 3f db bc 68 12 cc 3d
       0.0026182232 0.07434502 -0.026763787 0.09964448
000210 3d 35 1f 3d 82 61 8d bd 15 f4 02 bd a7 3b 24 3d
       0.03886913 -0.06903364 -0.031971056 0.04009595
000220 08 17 1c bd 7b f3 5b bb 08 52 cd bc 6c 38 33 3d
       -0.0381079 -0.0033561874 -0.02506353 0.04375498
000230 ad 2e 60 3d 23 92 6f 3c 08 d3 d1 3c f4 65 c9 bc
       0.054732013 0.014622244 0.025613323 -0.024584748
000240 63 8b 2a 3d 03 94 09 bd 1e 04 71 3c dc e2 57 bd
       0.041636836 -0.03358842 0.014710454 -0.052706584
000250 1e 4e e3 3c 12 03 3c bd 42 54 b3 bc 89 40 0c bc
       0.02774721 -0.045901366 -0.021890763 -0.008560308
000260 fb 29 92 3c d3 fc 04 3c 6f 25 13 3d a7 4c 6a bd
       0.017842283 0.008116919 0.03592437 -0.057202008
000270 ca c8 b5 bc 39 ae 44 bd 5a cd 85 3c 52 37 9a bd
       -0.02219047 -0.048017714 0.01633327 -0.07530083
000280 fd 1a 8d 3d 42 b9 31 bd 68 b5 3a 3c 69 cd 81 bb
       0.06889913 -0.043389566 0.01139579 -0.0039612544
000290 e0 8f e8 3b ae d5 17 3d 1b b4 19 bd e5 7e ab bd
       0.0070972294 0.037069015 -0.037525278 -0.083738126
0002a0 3f 58 45 3d 73 93 90 3d b1 99 40 3c 43 53 17 bd
       0.04817986 0.07059374 0.011755393 -0.03694464
0002b0 73 f6 2a bb d9 52 d0 bd 1b b9 30 bc 7e 68 ad bd
       -0.0026086837 -0.10172052 -0.01078632 -0.08467196
0002c0 03 f0 01 bb 5e 23 3b 3d 9e ca fe 3c a3 4f 53 3d
       -0.0019826896 0.045688026 0.031102475 0.05158962
0002d0 ec 1c 3e 3d f1 eb 37 bd ff 5e 02 bd f0 ee 8b bb
       0.0464143 -0.044902746 -0.031828877 -0.004270427
0002e0 92 a2 19 be 06 9d 12 bd fb 53 92 bd d2 e3 54 bd
       -0.15003422 -0.03579428 -0.07144924 -0.05197508
0002f0 82 f4 7a bd 1c e9 1f bd 38 ed 2f bd a3 aa e0 3b
       -0.061268337 -0.03904067 -0.04295084 0.006856279
000300 ce 7e ae bc 96 a8 78 3d 4c a9 e9 3c 82 ea 8f bc
       -0.0213007 0.06070765 0.02852311 -0.017567877
000310 21 d2 92 3c 28 63 a7 bb 09 0d 08 bd c7 7d 42 bc
       0.017922463 -0.005108256 -0.033215556 -0.011870808
000320 53 87 0b 3d 26 ad 7c 3d 91 43 3a bd ca f8 12 3d
       0.034064602 0.061688565 -0.045474593 0.035881795
000330 5d 2d 8c bc c8 c3 a5 3d e3 08 0b 3d da 20 26 bd
       -0.017111475 0.08093983 0.033944022 -0.040558673
000340 18 f8 c8 3d e7 81 0c 3c 28 a4 18 3c 08 3a 45 3d
       0.09812945 0.008575893 0.009316482 0.048151046
000350 86 2b 70 bc 3d ac 4a 3d 9f b8 b6 bc 68 68 3c bd
       -0.014658814 0.049480665 -0.022304831 -0.045998007
000360 a0 c0 54 bd f5 2d 31 3e e8 ce 48 bc 27 1b f2 bb
       -0.051941514 0.17302687 -0.012256362 -0.0073884907
000370 2a d2 67 bb 71 4f 12 3c ba 25 15 3c b6 d3 2c 3d
       -0.003537307 0.008930073 0.009103233 0.04219409
000380 3a 4e 05 3c 86 6a c1 3d 3b ae 32 3d 89 8d fb 3c
       0.008136326 0.09444146 0.04362319 0.030707138
000390 f7 c2 3f bd bb ac 2c 3d 07 46 64 bd 4a e2 cc 3d
       -0.046816792 0.042156916 -0.055730846 0.10004099
0003a0 d0 4d 17 3d eb 29 59 3e 4a 9c 36 3b 72 df 08 bd
       0.036939442 0.21207397 0.0027864152 -0.03341622
0003b0 6e d8 94 bd 4f d6 53 3d 04 48 94 3a 83 ac b4 b9
       -0.07267843 0.051718052 0.0011312966 -0.00034460807
0003c0 3e ef bf 3d 3f 7e 34 be 27 bc 5b 3d 19 97 85 bd
       0.09371804 -0.17626284 0.053646233 -0.0652296
0003d0 13 94 57 3c c7 c5 16 3d 55 b7 8a bc 57 13 49 bd
       0.013157862 0.03680971 -0.016933123 -0.04909071
0003e0 fa 22 1d 3d 2b 8a 2d be c6 29 38 bd a9 c9 f2 3b
       0.038363434 -0.16947238 -0.044961713 0.0074092937
0003f0 0e a8 04 bd a0 96 d0 3a 0a 5c 49 bc 8e 49 7c 3c
       -0.032386832 0.001591403 -0.01229001 0.015398396

fcs1.bias f4 [256]
000000 80 5b db 3c 54 fd 29 3e ad f4 14 3d d0 02 ef 3d
       0.026777029 0.16600543 0.036366154 0.11670458
000010 ea 79 a0 be e2 4f 4a be 9f 40 99 be 2b f9 bd 3c
       -0.31343013 -0.19757035 -0.29932114 0.023190102
000020 47 ef c6 bd f3 28 69 be 57 9f a8 bc a2 62 a4 bd
       -0.09713607 -0.22769527 -0.020583792 -0.08026625
000030 55 3e 23 3e e6 9c 2b bd cf ff d8 3d f1 d8 34 bd
       0.15941747 -0.041897677 0.105956666 -0.044152204
000040 d4 84 3d bd 17 fd 1c 3e 84 ce 58 be ac a6 80 bd
       -0.046269253 0.15330921 -0.2117253 -0.0628179
000050 9b db 0a be 0e ac 13 3e 05 9a d9 bc ba ea 13 bd
       -0.13560335 0.14421102 -0.0265627 -0.036112525
000060 9c 9c eb bd 6c be be 3d a6 40 88 3c b5 d4 ea bd
       -0.1150448 0.09313664 0.01663239 -0.11466352
000070 81 b1 a6 bd e7 49 d3 bd 94 7f c7 3d 67 d7 4e be
       -0.08139325 -0.1031683 0.097411305 -0.20199357
000080 6a fd de bd d5 51 c3 3d 07 30 24 3b 9a af b6 bc
       -0.10888179 0.095370926 0.002505304 -0.02230053
000090 f2 44 48 3d 43 4c 77 3c a2 a2 80 3d 4d dc d9 3d
       0.048893876 0.015093866 0.0628102 0.10637722
0000a0 e7 01 15 bd d2 47 bd 3d cc 16 74 3d c3 70 11 be
       -0.036378767 0.09242214 0.059592053 -0.14203171
0000b0 7d 55 e7 bc 1e b5 b3 3d 16 67 32 bd 03 90 35 be
       -0.028239006 0.0877478 -0.04355534 -0.17730717
0000c0 69 14 70 3d 1a 5d 8c be 61 9d ec bd e7 12 cc 3d
       0.058613215 -0.2741478 -0.11553455 0.09964543
0000d0 c0 30 82 bd 4b 95 ab bd 00 6c 0f 3e 13 e8 92 3d
       -0.063569546 -0.08378085 0.14006042 0.07173171
0000e0 d4 b1 b3 bc 09 b5 2e be 3b 36 13 bd 16 97 56 bd
       -0.021935381 -0.17061247 -0.03594039 -0.05239018
0000f0 ac 3d 7f bd 41 c4 a6 bd 7b 11 13 be a5 37 0a 3d
       -0.062314674 -0.08142901 -0.14362137 0.033744473
000100 fb 9c 0e 3e 08 90 d2 ba 70 69 30 bd 32 7a 09 be
       0.13927071 -0.0016064653 -0.043069303 -0.1342552
000110 88 66 25 be e5 e6 5e bc e2 23 12 be 69 08 e5 3d
       -0.16152394 -0.013604854 -0.142715 0.11183245
000120 d9 e2 b7 bd 04 cf 2b 3d e8 17 68 be 24 13 0f be
       -0.08978815 0.041945472 -0.2266537 -0.13972145
000130 94 38 3a bd 42 7c 8b bd db 51 1d be 87 75 0b 3e
       -0.045464113 -0.0681081 -0.15363257 0.13619052
000140 46 2a 66 3d d0 8d a5 bd 2b 4f 49 3e 8a 3f 45 be
       0.05619266 -0.08083689 0.19659106 -0.1926252
000150 32 e7 7c be 4d 82 82 3c 68 32 d9 3c 3f c9 9c 3d
       -0.24697569 0.015931273 0.026513293 0.07655572
000160 a1 91 65 bd 0a f7 55 3d c4 9d f8 bd 6c 34 aa bd
       -0.056047086 0.052237548 -0.121394664 -0.0831078
000170 a3 c8 92 3c f6 62 51 3d f7 a5 7e 3c 17 71 b9 bd
       0.017917937 0.051119767 0.015542499 -0.09054773
000180 b3 01 bb 3b 99 7f f7 bd da a4 5d 3a c8 5f 17 be
       0.0057069897 -0.12084884 0.0008455046 -0.14782631
000190 c9 2d 64 3d f2 fa bf bb 87 6d 39 be d4 5e 8a be
       0.055707727 -0.0058587724 -0.18108188 -0.27025473
0001a0 69 af c2 3d dd 75 08 be 2a 27 d6 3b 95 13 6c bd
       0.09506113 -0.13326211 0.0065354304 -0.057635862
0001b0 a8 79 5c bd 0f 76 61 3d d7 87 be 3d b8 b0 26 bc
       -0.053826958 0.05504423 0.09303253 -0.010173969
0001c0 1a e7 f3 3c d8 e8 e1 bd 27 42 ba bc c1 2e 1a 3d
       0.029773284 -0.110307395 -0.022736622 0.037642244
0001d0 a9 b1 8d bb 20 7e 66 be 81 42 5e 3c b0 75 16 3d
       -0.0043241573 -0.2250905 0.01356566 0.03673333
0001e0 cf 51 8b 3d a7 9f 65 bd 2d 27 bb bd 9e 77 c7 3d
       0.06802713 -0.05606046 -0.091383316 0.09739612
0001f0 9f ce d6 bd ec ba fb bd 4d 92 53 3b 9b 07 2f be
       -0.104886286 -0.12291512 0.0032283247 -0.17092745
000200 54 c3 e9 bd 33 90 17 be cd c8 ea 3c 46 ec 87 bc
       -0.11414209 -0.14801101 0.028660202 -0.016592156
000210 d8 ef e6 3d a6 bf ba bc 2f 28 15 be 00 24 21 bd
       0.11276215 -0.022796463 -0.1456611 -0.039340973
000220 07 66 9b bd 1b 8c 18 3d 7d 0a a9 bd 61 e5 d9 bd
       -0.075878195 0.03724299 -0.082539536 -0.10639454
000230 fd 23 69 bd b1 cf 60 3c 37 04 5e bd 18 30 a3 bd
       -0.056919087 0.0137213925 -0.05420324 -0.079681575
000240 fe 71 7f 3d 6a da 5a bd fd 39 cc 3d 11 78 df bd
       0.06236457 -0.053430952 0.09971998 -0.10911573
000250 02 85 45 bd a9 5a 42 be f3 6b bd 3d 79 ff bb 3c
       -0.04822255 -0.18979897 0.09249105 0.022948967
000260 bc 30 fc bc ae 00 e7 bc 96 7b a8 bc 05 d6 c9 bb
       -0.030784957 -0.028198566 -0.020566743 -0.0061595463
000270 fc 53 e6 3c c5 2e 21 3e 24 3f a6 bd a7 2d 29 bd
       0.028116219 0.15740497 -0.08117512 -0.041303303
000280 37 d3 3d 3c 75 de 00 be 2f 31 50 3d 8d af bc bd
       0.011586002 -0.1258486 0.050828155 -0.09213171
000290 ca 48 54 3d cd 23 84 bd e7 66 03 3d cc 4c 82 3c
       0.05182723 -0.06452141 0.032080557 0.01590576
0002a0 07 d4 0e bc 25 c4 16 bd 95 2e 07 be 75 59 ab bd
       -0.008717543 -0.03680815 -0.13201363 -0.08366672
0002b0 b5 bf 18 3e 58 82 d8 3d 31 92 cb bd b8 56 4b bd
       0.1491688 0.10571736 -0.09939993 -0.04964325
0002c0 06 38 1e 3d 8c 65 98 bd 24 de b9 bd 95 23 a4 3d
       0.038627647 -0.074412435 -0.09075573 0.08014599
0002d0 5b a4 a8 bd cb c8 9e 3d bc b8 90 bd 0a 93 c1 bd
       -0.08234473 0.07753142 -0.07066485 -0.094518736
0002e0 b9 1f ca 3c 26 38 65 39 64 fc 0f be 9c 0b 48 be
       0.02467333 0.00021860059 -0.14061123 -0.19535679
0002f0 50 94 db bd 9d a6 ff 3d 18 bd a4 be bb ea b5 bc
       -0.10721648 0.12482951 -0.32175517 -0.022206655
000300 55 8c e8 3d 96 39 ee 3b 24 21 46 bc c4 94 ae bd
       0.11354891 0.0072700484 -0.012092862 -0.085244685
000310 13 d2 24 3e fa 0b 3f 3d 97 b7 93 bd 09 3b 81 bd
       0.16095762 0.04664228 -0.07212751 -0.06310088
000320 b7 91 30 bc 96 42 c8 bd e0 24 29 3c f3 0d 2e be
       -0.010776929 -0.09778325 0.010323733 -0.16997509
000330 ff 2c f2 3a 7c ee 7c bc 86 13 63 be eb a5 29 bc
       0.0018476545 -0.0154377185 -0.22175416 -0.010354499
000340 8a 13 6a bd 3c 3c 67 3d 6e 69 c0 3d 38 77 29 3c
       -0.05714754 0.05645393 0.09395109 0.010343365
000350 49 e8 21 3d 93 dd 2b 3d 43 3c f7 3d 47 c7 0d bc
       0.039528165 0.041959357 0.12072041 -0.008653468
000360 ca c8 3a 3e 48 ed d2 bb 20 fa 1a 3d 66 61 0d 3d
       0.18240657 -0.0064369775 0.037836194 0.034516715
000370 62 04 86 be 4b a3 ae bd 74 40 f7 bd 62 9e 17 be
       -0.2617522 -0.085272394 -0.1207284 -0.14806512
000380 b3 d1 51 3a 2c 55 45 3d 21 93 08 3e bc 09 30 be
       0.0008003965 0.04817693 0.13337375 -0.17191213
000390 ad be e0 3c 4f 52 e1 3c c4 7c e5 bd 33 1c 69 bd
       0.027434671 0.027505068 -0.11205438 -0.05691166
0003a0 aa 86 35 be 3a 04 97 bd 7e db 0f 3b 1c 51 bf bd
       -0.17727152 -0.07373853 0.0021950896 -0.09341642
0003b0 ab 34 19 bc 93 d7 37 be f7 bb 9f 3d 7e 8b ec bd
       -0.009350936 -0.17953329 0.07799523 -0.115500435
0003c0 2b c3 3e be d3 be 6d bd ff cf 23 3d f3 59 af 3d
       -0.18629138 -0.058043312 0.039993282 0.08562078
0003d0 44 7f 5f 3d 2e 29 2e bd 9c 24 c9 bd 43 75 6e bc
       0.05456473 -0.04251974 -0.09821436 -0.014554325
0003e0 30 eb d5 3b ed 67 01 be 9f f6 3d be a7 a7 8b 3a
       0.0065282807 -0.12637301 -0.1855111 0.0010654823
0003f0 55 91 7b 3d 62 6a cb bd 74 55 82 be 89 c0 94 3c
       0.061417896 -0.099324 -0.2545582 0.018158214

fc2.weight f4 [128, 260]
000000 ce 3c 0b bd 68 82 6b 3d cd 61 7b bc 64 ea 44 bd
       -0.033993535 0.057497412 -0.015343142 -0.048075095
000010 f1 ad 25 bd 12 24 75 bd f9 54 cc bb 8d 87 1a 3c
       -0.040449087 -0.059848852 -0.0062357155 0.009431732
000020 83 bf 3e bd 7f 98 c9 bd a4 7e 8e 3d bf 55 b6 bc
       -0.04656936 -0.098435394 0.069577485 -0.022257684
000030 7c a0 04 bd 3c 4e a0 ba 33 9e e3 b9 07 c4 9a bb
       -0.032379612 -0.0012230347 -0.00043414682 -0.0047230753
000040 08 45 55 bd f9 53 4d bd bb 61 6e bb 97 fe b4 bd
       -0.052067786 -0.05012891 -0.003637417 -0.08837622
000050 45 3b f4 3d 1f 51 78 3b 89 a1 62 3d 08 91 25 bd
       0.11925367 0.0037890149 0.055329833 -0.040421516
000060 e9 84 9b bd 14 6f b8 3d ee 83 c3 bd 39 68 56 3d
       -0.0759371 0.090055615 -0.09546648 0.05234549
000070 9f 10 10 bd 81 52 57 bc 7c 2f 29 bd d6 b8 f7 3c
       -0.0351721 -0.013142229 -0.04130505 0.030239504
000080 29 e1 53 3c ba e5 47 bd 47 e7 7e 3d 90 ea 9a bd
       0.0129321 -0.04880307 0.062232282 -0.075642705
000090 79 51 46 bd eb 62 b7 3c 52 f9 3c 3d 77 68 2d bd
       -0.048417542 0.022386035 0.046136208 -0.042335954
0000a0 75 0c 81 3c 51 b3 98 bc 79 36 8b 3c df 32 25 3d
       0.01575301 -0.018640192 0.016993748 0.040331718
0000b0 eb ce 13 bd d0 e2 bc 3d 0c 74 ec bc e7 8e 94 3d
       -0.036086004 0.092229486 -0.02886393 0.07253819
0000c0 3b 2d 2f bc d4 2d a4 bd 1a eb 84 bd 92 d4 ea bc
       -0.010691936 -0.080165535 -0.064901546 -0.028665815
0000d0 4e fe d7 3c 15 f2 be 3d e9 1d 50 3d 85 63 48 3c
       0.02636638 0.09323517 0.050809775 0.012230759
0000e0 ef 83 bf bd 38 99 6b bd 95 5b 16 3d 74 b8 1d bd
       -0.09351336 -0.057519168 0.036708433 -0.038505986
0000f0 4e b3 0f be e7 bc d9 3c 40 d2 0e 3d 23 38 e3 3c
       -0.14033243 0.026579333 0.03486848 0.027736729
000100 72 95 a1 bd 0f 1b 9d 3d 5a 58 ad bd 59 4a 39 3c
       -0.078898326 0.07671177 -0.08464117 0.01130923
000110 91 64 e6 3c c2 d4 04 3c ae 8d a5 3d 9c 53 1c 3d
       0.028124126 0.008107366 0.08083664 0.038165674
000120 25 cf 13 bd 88 ff 08 3e 69 45 96 bd 43 b2 37 bd
       -0.03608622 0.13378727 -0.07337458 -0.044847738
000130 b7 f4 21 bd 61 91 3c 3d af 91 81 bd 27 58 8e bd
       -0.03954002 0.04603708 -0.06326615 -0.069504075
000140 7c 94 d1 bd 93 04 ef bc 34 f2 a2 bd cb 4a 98 3c
       -0.10233399 -0.029176986 -0.07956353 0.018590352
000150 1f 8d 09 3d 06 22 08 3d f1 2c b6 3d 23 95 76 3b
       0.03358185 0.033235572 0.08895291 0.0037625514
000160 1f ae c3 bd ef d7 94 bd 58 e1 0c 3d e3 7b 19 bd
       -0.09554695 -0.072677486 0.034394592 -0.037471663
000170 ab 02 24 bd ee 2a 2b bd 36 2b 1a bc e2 cf ed bc
       -0.040041607 -0.041788988 -0.009409716 -0.02902979
000180 34 3c 0b bd 8e 78 6a bd eb a0 b4 3d 60 9e fe bb
       -0.03399296 -0.057243876 0.08819755 -0.0077703446
000190 6f 3e 5a 3b 98 7d 7d bb 47 c6 70 bd 1f 65 79 bd
       0.0033301373 -0.0038679596 -0.058782842 -0.060887452
0001a0 df 0e 8d bc 6c 41 ee 3c 0d e5 f5 bc 52 eb 6a 3c
       -0.017219005 0.02908393 -0.030016446 0.014338331
0001b0 08 94 c4 3d ce cd 69 3b 17 4a 89 ba a5 59 5d 3d
       0.09598547 0.0035675648 -0.0010474351 0.05404057
0001c0 96 e2 94 bd 85 b7 02 3c 77 dc 3b 3c db 0d 8b bd
       -0.0726978 0.007978325 0.011466137 -0.06789752
0001d0 fa b1 be 3d 91 ed 5a 3e f4 ac c7 bd b6 00 ef 3d
       0.0931129 0.21379687 -0.09749785 0.116700575
0001e0 32 04 50 bd 05 20 c1 3d 7e a1 95 bd 87 44 e8 3d
       -0.05078525 0.09429935 -0.07306193 0.113411956
0001f0 a1 db b2 3c ec 35 eb 3d fb 3b 31 bd e6 9c b4 3d
       0.021833243 0.11484894 -0.043270092 0.088189885
000200 2c 79 32 3b c4 f1 c5 bd 55 d3 cc 3c cb 12 8b bc
       0.0027232869 -0.09665254 0.025003115 -0.016976735
000210 1c 46 0d be f4 48 cb bc 6c c9 29 bd d0 49 39 bd
       -0.13796276 -0.02481506 -0.041451856 -0.04523641
000220 11 ac 85 bc f2 cf 2d bd c0 66 4f 3c b6 19 81 3d
       -0.0163174 -0.04243464 0.012658775 0.06303732
000230 fd 9f 8e bb c2 04 f0 bc 84 16 7d 3d 40 11 e3 bd
       -0.004352568 -0.029299144 0.06178905 -0.110872746
000240 fb 59 40 3c aa e1 9d 3d 5a e6 a5 3c 17 e2 5f 3d
       0.011740203 0.07709058 0.020251442 0.054658975
000250 e5 06 57 bd c8 37 5f bd 96 37 a8 bb e7 a3 31 3d
       -0.05249681 -0.054496557 -0.0051335795 0.0433692
000260 e6 75 ab 3d 8a bb 3e 3d 4e 06 a1 3d 2e a2 11 be
       0.08372097 0.04656557 0.07862531 -0.14222023
000270 e5 c5 69 3c ea 02 de bb 7a fc 41 3d 5d 66 9c 3d
       0.014268373 -0.0067752497 0.04735992 0.07636712
000280 0c 05 f4 3d cf db 0b 3d 57 8a 93 3c f3 e8 24 bc
       0.11915025 0.034145173 0.018010302 -0.010065305
000290 80 82 a6 3d 89 de 5a 3d 5e d3 80 3d 1e 70 d1 bc
       0.0813036 0.053434882 0.06290315 -0.025566157
0002a0 95 1a c5 bc 5d e9 2f bc b0 ac 5f bd 2f 48 e9 bc
       -0.024060527 -0.0107367905 -0.054608047 -0.028476803
0002b0 79 31 3b bb 80 6a 9b 3a a5 aa 1a 3c ab b3 23 bb
       -0.0028563424 0.0011857301 0.009440099 -0.0024978917
0002c0 dd e6 1b 3d e6 69 86 3c 12 d1 f3 bc e1 85 4f 3c
       0.038061965 0.016407918 -0.029762778 0.012666197
0002d0 48 e9 33 3d c5 ea 48 3d ef 2a 8e 3d ba aa be bd
       0.043923646 0.04905202 0.06941783 -0.09309907
0002e0 73 77 e4 3b d8 c1 be 3b 93 7b ca bb b6 48 b8 bd
       0.0069722473 0.005821448 -0.006179282 -0.089982435
0002f0 57 7c a7 3d b7 1a 8a bc 2a 0a 2a 3d d0 a2 b2 bd
       0.08178013 -0.016858442 0.0415136 -0.0872246
000300 45 2d c4 bd 45 eb a4 3d d0 a6 f2 3c 9e 1d 41 3d
       -0.09578947 0.080526866 0.029620558 0.047147386
000310 69 56 8b bb 38 f2 9b 3d d2 b8 73 bd 75 c7 6c bd
       -0.0042522443 0.07614559 -0.05950243 -0.057807405
000320 7e 51 04 3e f1 63 c8 bb 11 fb 83 bd 86 dc b8 3c
       0.12921712 -0.0061154296 -0.064443715 0.022566091
000330 67 63 a9 3d 91 51 bc bc d8 04 03 be fd 6c 64 bd
       0.082709126 -0.022988113 -0.12794816 -0.055768
000340 4f e1 9e 3d e2 3e 61 3c 7f ea 8e bd 4d f5 ce 3b
       0.07757818 0.013747903 -0.0697832 0.006315863
000350 82 26 80 3c ad 1d c4 3c 3b ad c4 bc 34 84 37 3d
       0.015643362 0.023939932 -0.024008384 0.044803813
000360 8d 20 26 bc 93 2e 32 3c a3 a3 a3 bd 71 c8 d0 bd
       -0.010139597 0.010875362 -0.079901956 -0.10194481
000370 83 53 4a 3d 78 fe 4a bc 61 c2 5a bd 82 72 dd bc
       0.04939605 -0.012389772 -0.05340803 -0.02703214
000380 ab 33 6c 3d 6e 2c 52 3d cc 49 71 bc 15 4b 75 3d
       0.057666462 0.051311903 -0.014727067 0.059886057
000390 ce af c0 bc de 11 c2 3d 96 0b 29 3e a9 40 a6 3b
       -0.02352133 0.09476064 0.16508326 0.005073626
0003a0 60 ce db 3d 89 4a 51 bc 6b 85 22 3d dc 33 a9 3c
       0.10732722 -0.012774118 0.03967802 0.020654611
0003b0 3f 52 c8 bd 7c 7c dd 3d 33 15 02 be a9 01 c0 bd
       -0.09781312 0.10814759 -0.127034 -0.09375317
0003c0 8f 9c 27 3d 2c 5f 25 bc cb 6b 86 3d fd 4e 3e 3b
       0.04092079 -0.0100934915 0.065635286 0.002903878
0003d0 d0 8b 1b 3d 7b 8d 5f 3c 89 67 bd 3b 39 7f 01 3d
       0.037975132 0.013644571 0.0057801646 0.03161547
0003e0 7c 32 66 3d 21 88 80 3d 2d 52 4d 3c 62 b4 ce 3d
       0.05620049 0.062759645 0.012531799 0.10092999
0003f0 f1 5e 81 3b b9 92 a3 3a e2 37 87 3c 2d aa af bd
       0.0039480855 0.001247964 0.01650614 -0.0857738
