weights/checkpoint_actor_0.pth (torch_old, 163978 bytes, 10 tensors)

bn1.weight f4 [256]
00000000: 281a 813f 8e74 7b3f 354d 133f 7540 8e3f
00000010: 7ffd 063f f6c7 2a3f 823f be3e 85f9 613f
00000020: 3677 8b3f 3f56 883e 26f4 813f 9982 2b3f
00000030: 15a5 7b3f 6e10 323f c122 5d3f 2b3d 1f3f
00000040: 4fd2 823f b8be 533f 2584 013f 3fcd 493f
00000050: 3709 ba3e d8e0 1b3f 1eba 083f bb88 783f
00000060: 45aa b83e 5847 dd3e 68a7 013f 4fb4 bd3e
00000070: 4425 2f3f ff0a 963e 06d6 8f3f a3a8 9d3e
00000080: bdb9 7a3f 9923 343f b662 fe3e be9f 7d3f
00000090: 97dd 543f 2956 833f 8d18 493f 2ff9 e53e
000000a0: b2fc 433f ee7e 003f f28e 663f 4e0e 823f
000000b0: cf5c 623f 7a3a d83e 1c3d 653f c86b 383f
000000c0: 44a4 753f 959e c73e 3a34 73be 3da2 c93e
000000d0: 3bd3 8b3e 4a98 853f 9e43 473f 8947 7f3f
000000e0: 57f4 4e3f b91f 2d3f 0ccc 7c3f ed80 c63e
000000f0: 2ffe 313f e4d2 cb3e eddd 413f 9063 003f
00000100: 5363 553f 90c2 0d3f 2029 8f3f 8d1d a93e
00000110: d493 d83e 3f04 c73e 709e 923f 0a60 6c3f
00000120: 5dd4 903f 3031 bc3e 7f0f 873e 2f2e af3e
00000130: 7123 dd3e 0b06 593f 7437 563f b4a1 833f
00000140: 15eb f63e 0792 c43e d6c8 623f 930c f33e
00000150: cef0 5c3f f1c8 113f 587b 6c3f e8f2 ae3e
00000160: 1ade cf3e 9977 5e3f 6cc9 4e3f 54e2 f73e
00000170: ed55 903f 9009 763f 6c55 ab3e fed3 f13e
00000180: e951 833f 9805 0b3f 3ad8 f33e 17e6 ae3e
00000190: b6ea bf3e 7976 493f 20ef 073f a7de b83e
000001a0: c060 2f3f d672 ba3e 42ec 8e3e e806 fc3e
000001b0: e9db 353e 4a5d c23e 6a66 8c3f c635 2a3f
000001c0: d012 453f 2bfb 9b3e 4f12 b83e ae9e 043f
000001d0: 9773 373f 5a95 853e aca6 0e3f e620 b23e
000001e0: 8e9d 3b3f f028 073f 7106 143f fd0e 023f
000001f0: c346 953e 799d ba3e e162 0d3f aea0 a63e
00000200: c3bc 803f 366b 2f3f eca2 8a3f 721f 533f
00000210: 1e61 a13e 5f4e 6e3f 3d27 083f c2d6 fb3e
00000220: 1ca0 a23e f7e6 673e 29fa 523f 826f fb3e
00000230: 22fb 5c3f 9710 803e 2a46 853f 3271 e63e
00000240: b333 123f 202a 3b3f f17d 6d3f 6d8e 823f
00000250: e175 893f a6c4 9e3e 7e01 4f3f 2507 fb3e
00000260: 6308 233f 532c 9b3e da33 8f3f ea19 ca3e
00000270: f05c 673f 989b 513f 6358 493f 5683 dd3e
00000280: 6285 883f c550 463f 8ab9 3b3f 08b0 813e
00000290: efd6 453f 169d 1a3f 5850 f23e 1a58 863f
000002a0: 9308 403f 38b7 933e ba5e db3e c492 1b3f
000002b0: 607e 7b3f 48e0 073f 83b5 d03e 803c 023f
000002c0: 4fc1 9a3e d9b9 7b3f 3ab9 7d3f ace3 a83e
000002d0: 994d 393f 6fbf 623f d8df 463f e9d9 ea3e
000002e0: 4e1c 6d3f ebd1 533f b838 5c3f 4b67 293f
000002f0: 1393 1b3f 7d82 2d3f 07e7 f63e a3f0 0d3f
00000300: 12a1 5f3f e8b4 813f 0cab 273f 0e2b 0b3f
00000310: 4aa1 263f aafd 313f d3bb 483f 8ca0 4d3f
00000320: a8cf b33e 3482 1a3f b0bb 8b3f 150b 5b3f
00000330: 73da 193f 4e8c d53e c291 bb3e 31cf 2f3e
00000340: bff8 ff3e fa83 403f a1d1 703f ca1b 6d3f
00000350: eaf3 e93e f36d c83e 9369 2f3f 1f35 8d3f
00000360: 23c6 1a3f cd74 0a3f 945f 663f 6269 f43e
00000370: 3c26 ca3e ee10 7c3f eb3e 003f e29d 073f
00000380: 6e77 56be bab1 7e3f 8737 8b3f 1c01 4c3f
00000390: 620c 643e a979 1a3e 9a08 973e a76a 833f
000003a0: 36e7 5b3f 9371 883f dcf9 633f 404a 423f
000003b0: b06d 273f 83e1 b43e 2566 933e cadd 9a3e
000003c0: 9bce 5e3f 7d47 d93e 9125 003f 0dcd c43e
000003d0: 0e18 073f 86b7 d63e eef1 be3e 1f2a 4c3f
000003e0: 82f5 093f 0894 6b3f 514c 033f 6651 bc3e
000003f0: bae9 263f abe0 f23e 58eb 2f3f e68d a13e
1.0086107 0.98224723 0.57539684 1.1113421 0.52730554 0.66711366 0.37157828 0.8827136
1.0895755 0.266283 1.0152633 0.6699615 0.9829877 0.6955632 0.86381155 0.6220271
1.0220431 0.8271289 0.5059226 0.78828806 0.36335155 0.6088996 0.5340899 0.97083634
0.36067405 0.43218493 0.50646067 0.37051627 0.6841624 0.29305264 1.123719 0.30792722
0.97939664 0.7036682 0.49684685 0.9907187 0.8315062 1.0260669 0.78553087 0.44916674
0.7655746 0.5019368 0.9006187 1.0160615 0.88422865 0.42232114 0.8954637 0.7203946
0.95953774 0.38988176 -0.23750392 0.3938159 0.27309594 1.04371 0.7783755 0.9971853
0.80841583 0.6762653 0.9874885 0.38770238 0.6952848 0.39809334 0.75729257 0.5015192
0.8335468 0.55375004 1.1184425 0.33030358 0.42300284 0.38870427 1.1454601 0.92334044
1.1314808 0.36756277 0.2637901 0.34214923 0.43191102 0.84774846 0.83678365 1.0283723
0.48226228 0.3839266 0.885877 0.4747053 0.8630494 0.5694724 0.9237571 0.34169698
0.40599138 0.8690124 0.80776095 0.48414862 1.1276222 0.9610834 0.3346361 0.4723205
1.0259372 0.5430541 0.47625905 0.3415992 0.37483758 0.786964 0.5309925 0.3610737
0.68507004 0.36415738 0.27914625 0.4922402 0.1775967 0.379618 1.0968754 0.664883
0.7698183 0.30465063 0.35951468 0.51804626 0.7166075 0.2609051 0.5572307 0.34790725
0.73287284 0.5279684 0.5782233 0.5080412 0.2915555 0.36448267 0.55229 0.32544464
1.0057606 0.68522966 1.083097 0.82469857 0.31519407 0.93088335 0.5318487 0.49187285
0.3176278 0.226467 0.82412964 0.4910851 0.863207 0.25012657 1.0412037 0.45008236
0.57110137 0.7311115 0.92770296 1.0199715 1.0739099 0.31009406 0.8086165 0.49028888
0.6368467 0.30307254 1.1187699 0.39472896 0.90376186 0.8187804 0.7865049 0.43264264
1.0665705 0.77466995 0.73329985 0.25329614 0.7728109 0.60395944 0.47326922 1.0495636
0.75013083 0.28850722 0.42845708 0.6077082 0.9823971 0.530766 0.40763482 0.50873566
0.30225608 0.98330456 0.9911076 0.329862 0.7238403 0.88573354 0.7768531 0.45869377
0.92621315 0.82742184 0.86024046 0.6617324 0.6077129 0.67777234 0.48223135 0.5544531
0.8735515 1.0133333 0.6549537 0.5436257 0.6508986 0.69527686 0.78411597 0.803231
0.35119367 0.60354924 1.0916653 0.85563785 0.6009895 0.41708606 0.36634642 0.17168881
0.49994466 0.7520138 0.9406987 0.9262053 0.45693904 0.39146385 0.6852047 1.1031836
0.6045858 0.54084474 0.8998959 0.4773665 0.39482296 0.9846333 0.50096005 0.52975285
-0.20943996 0.9948994 1.0876321 0.7968919 0.22270349 0.15085472 0.2949875 1.0266923
0.85899675 1.065966 0.8905313 0.75894547 0.65401745 0.35328302 0.28788868 0.30247337
0.87034005 0.42437354 0.5005732 0.3843769 0.5277108 0.41936892 0.37293953 0.7975177
0.5389024 0.9202275 0.51288325 0.36780852 0.6520039 0.47437033 0.6871848 0.31553572

bn1.bias f4 [256]
00000000: f253 8dbd 7cb5 e9bd ea0c f13c db36 463c
00000010: ef4e 5fbd 2667 a73d b2bc d33d 58f1 203d
00000020: 81eb 47bd b1ec d7bd ef87 ebbd 74d9 71be
00000030: 84c4 3dbd 488f 043d 108a 09be f825 e7bc
00000040: 4a08 18bd 55b1 44bd 0a61 ccbd 7335 8c3d
00000050: ffd3 043d efa2 a6bd af5d 20bb 9432 8abd
00000060: 0e96 e2bd 19d2 c5bb 7d72 8f3d 499d 4e3e
00000070: 8234 88bd 0aa9 adbd 667c 80bd e186 e6bd
00000080: ba6e 2fbe 62d8 21be 2fe6 7d3d 7929 ecbd
00000090: d1fb 893b f680 23be bd36 4ebc 8ce4 643d
000000a0: 5343 623c 6e54 cfbd 4e32 813d 206e a7bd
000000b0: 12d8 afbd 449e 40be ccbe 63bd 524a 93bd
000000c0: d2ca 1abe b1d0 8e3c 2fb6 8c3d aec0 423c
000000d0: c3a2 3ebe 75c2 89bd ed56 933c f62e 0fbd
000000e0: 9c29 d83b e0a2 1abe 74fb 94bd 94fe 13bd
000000f0: 2b54 cbbc d0c8 38bd 12f0 f939 50c8 e6bc
00000100: 013c 15be 46b4 19be a1e5 2cbd 6f35 18bd
00000110: 0248 f0bc 5ef4 283c 6e25 8dbd a8b4 38bd
00000120: ee90 49bd aba2 033e 1085 4b3d d12c fbbc
00000130: 2e5f 3abd 50e6 963c 404d 1e3d b1da 853d
00000140: 6d69 ecbd 9e9b 563c 70c1 5fbd aec5 b9bd
00000150: 1611 c5bc 6d4d d6bd 9d95 52bd 9d19 93bd
00000160: caf4 203b e732 133e 7fb1 33be c307 fbbd
00000170: 79f7 10be a09c afbd 431d 503e 84ca dabd
00000180: 4b05 3c3c 0c07 bb3d 678b 4cbe 8b3d dcbd
00000190: de8d b0bd fb76 a9bd f2c0 8c3d 1a52 32bd
000001a0: 8d75 e93c d38a a4bc 1d2d 023e d01d 893d
000001b0: 4970 8dbc cd0f 09be 7084 ddbd 03df b13b
000001c0: 120c bcbd 1ff0 39bd 58e3 15be 0026 89bd
000001d0: ef83 b1bd 77a5 063d 3072 afbd 2b0a e33a
000001e0: cf6f 8f3c 724f 273d 4e8b 233c d882 cb3d
000001f0: 6681 5bbe 7549 e0bd 48ae 9e3b 4104 023c
00000200: 471b d3bd 8e7d 6dbd 6f90 d0bd cc0f 64bc
00000210: ff10 b8bd e8ea 0cbe 0efa 04be 0b95 a13d
00000220: caf4 53bd 6732 b4bd 5bf8 9abd fcde 4bbe
00000230: cfac 053c 607c 903d 4f5a e8bd e4d0 a5bd
00000240: df0f a5bb 21b8 853d 6dbf 0a3e adc2 52bb
00000250: 4ab1 be3c 2a6e 173e 591a ac3d 5641 683d
00000260: 82d8 0cbe 6331 f0bc 3819 6cbd 751b 9bbd
00000270: 1ec7 a63c 3fea b5bd 19c1 c5bd 35b2 f4bd
00000280: c01a 013d f438 6d3b 64ad 5fbd 3619 b9bc
00000290: 6ff5 edbc bebd b53d f3b0 10be 9f43 513d
000002a0: b470 4dbd d0d2 28ba cd45 113d 8a39 2fbe
000002b0: 4df5 fabd 9eb1 c93c da94 30bd 0bf8 12be
000002c0: 4525 ebbc 1728 0dbe 4657 3ebd b572 0cbe
000002d0: 7012 6c3c cd85 57be bef9 3bbe 1627 d5bd
000002e0: a335 cb3c c7fb 3dbe 7d31 a7bd 0f70 3bbc
000002f0: c5ba 8d3b b184 a33d 16c0 44bd bb29 22be
00000300: 8dc4 efbd c4a3 bb3c 52c4 42bd 35df 0bbe
00000310: 4b43 b3bd 4e6e 02bb 8396 723d 6313 e33c
00000320: 3d90 22bc 9380 b7bd c75e 963d e134 053e
00000330: 3eb2 333d c5de d43d 841a f6bc 9c13 fdbb
00000340: 623b 1b3d ccd2 bcbb 65d5 0fbd e817 0ebc
00000350: 56f0 2bbe ee31 f7bd e09b 2fbe 9de8 d7ba
00000360: b66c 08be 0294 9cbd 0c51 5fbd 26be debd
00000370: 885d 213d dbbb 4b3b 450b cbbd 36c1 d6bd
00000380: 93ce 7e3d dc20 c33c b5ed e0bd 3994 40be
00000390: f678 e23d 76ad ad3e fb3e 07bd 7766 203d
000003a0: c49c c2bd b410 16be c2d9 b33a 7271 dfbc
000003b0: 0441 b1bd 87a7 debd 2d15 b2bd 51fa 703c
000003c0: 1790 1b3d 5e26 ea3d 0ec3 1f3c 08aa 36bd
000003d0: 6093 13bd 4303 f3bd 3e9e 11bd a3cc 713d
000003e0: 342b 89bd 1d98 d2bc cd81 bfbd cbb4 9bbd
000003f0: 7222 36be 89fa 723c 74ee 35be 9e1a c63d
-0.06900777 -0.114115685 0.029425103 0.0120980395 -0.054518636 0.08173971 0.10338725 0.039292663
-0.04880858 -0.10543192 -0.11500537 -0.23618108 -0.04632999 0.032363206 -0.13431573 -0.028216347
-0.03711728 -0.04802068 -0.09979446 0.06846132 0.032428738 -0.08136546 -0.0024469902 -0.06747928
-0.11063777 -0.0060370085 0.07004259 0.20177187 -0.0665064 -0.08479507 -0.06273727 -0.11256195
-0.17132083 -0.158052 0.0619871 -0.11531348 0.004210927 -0.15967163 -0.012586293 0.05588202
0.013809997 -0.101235256 0.06308423 -0.081753016 -0.08586134 -0.18810374 -0.05560188 -0.0719191
-0.15116432 0.017433496 0.06870686 0.011886759 -0.18616776 -0.06726543 0.017985785 -0.034956895
0.006596757 -0.15101194 -0.072745234 -0.036131456 -0.024820408 -0.045113385 0.00047671847 -0.028171688
-0.14573671 -0.15010175 -0.04221118 -0.037160333 -0.029331211 0.010312168 -0.06891905 -0.045094162
-0.04921048 0.12855022 0.049687445 -0.030661019 -0.045500927 0.018420368 0.03864789 0.06535853
-0.11543546 0.0130986255 -0.054627836 -0.090709075 -0.024055999 -0.104639865 -0.051412214 -0.0718262
0.0024559968 0.14374886 -0.17548178 -0.1225734 -0.14156903 -0.08574796 0.20323662 -0.10683158
0.011475871 0.091322035 -0.19975053 -0.10753926 -0.08620809 -0.08274647 0.06872739 -0.04353533
0.028498435 -0.020085728 0.12712522 0.066951394 -0.017265456 -0.13384934 -0.10816276 0.0054281964
-0.0918199 -0.045395013 -0.14637506 -0.06696701 -0.086677425 0.032872643 -0.085667014 0.0017321756
0.01750937 0.04084725 0.009981943 0.09937066 -0.2143608 -0.10951511 0.0048425533 0.0079355845
-0.10307937 -0.057981066 -0.101837985 -0.013919782 -0.08987617 -0.13761485 -0.12986013 0.07889756
-0.05174712 -0.08798676 -0.07566901 -0.1990928 0.008158877 0.07054973 -0.1134535 -0.08096483
-0.0050372924 0.065292604 0.13549586 -0.0032159493 0.023277897 0.14788118 0.08403463 0.056702934
-0.13754466 -0.029320424 -0.057641238 -0.075735964 0.020358618 -0.088825695 -0.09655971 -0.11948053
0.03151965 0.0036197277 -0.054608718 -0.02259503 -0.029047696 0.08874081 -0.14130001 0.05108988
-0.05015631 -0.0006440105 0.035466958 -0.17111793 -0.12253819 0.024620827 -0.043110706 -0.14352433
-0.028704295 -0.13784824 -0.04646995 -0.13715632 0.014408693 -0.21047135 -0.18356988 -0.10407846
0.02480585 -0.18553077 -0.08163736 -0.011440291 0.004325243 0.07984293 -0.04803475 -0.15836231
-0.11707411 0.022905238 -0.047550507 -0.13659365 -0.087530695 -0.0019902172 0.05922557 0.027719205
-0.009922084 -0.089600705 0.07342296 0.13008453 0.043871157 0.103940524 -0.03004194 -0.007723285
0.03789843 -0.0057624336 -0.03511562 -0.008672692 -0.167909 -0.1207007 -0.17149305 -0.0016472522
-0.1332272 -0.07645418 -0.05452065 -0.10876112 0.03939584 0.0031087312 -0.09914259 -0.10486071
0.062208723 0.02381938 -0.10982839 -0.18806542 0.11058228 0.33921403 -0.033019047 0.039160218
-0.09502557 -0.14654809 0.0013721513 -0.027275775 -0.08654979 -0.10871797 -0.08695445 0.014708118
0.03797921 0.11433099 0.0097510945 -0.04459575 -0.03602922 -0.118658565 -0.035551302 0.059033047
-0.066976935 -0.025707299 -0.093509294 -0.07602843 -0.17786577 0.01483024 -0.17766744 0.096730456

bn1.running_mean f4 [256]
00000000: dd8d 463f ef46 d43c 8a64 ec3f a3cf 7a3e
00000010: 3bb4 393d b3bb 2f3f 5143 c53f c4d4 e13e
00000020: 336e e83d 0400 0000 f82c 5c3d 8d76 8f3e
00000030: adb7 823c 863a a13e 0400 0000 0400 0000
00000040: 7dbf 8a3c 39aa 593e eac3 be3e aba8 4f3e
00000050: 7556 953f 7f43 243f 1038 ad3c 3399 043f
00000060: 616d b33e bc4f a03e 2b5a 2f40 cf39 933f
00000070: da17 823e 0e90 383d 9dd0 023d 497a 9d3e
00000080: 6e2f 953d 0400 0000 9f63 1b3f a6f3 e93e
00000090: 2a27 5d3e 0400 0000 0164 403f 59fd 173b
000000a0: aef3 623f afef 7e3e a4f5 9f3d e654 bf3f
000000b0: 59de d43d 3bcb 2a3f 51b9 f83e 93dd 563e
000000c0: f3b4 503f 0968 073e 8f64 1c3c 5bc3 943f
000000d0: a221 a63c 3050 083d 8624 8a3e 5116 603e
000000e0: 3532 e63c 265e 113e d398 503f 8748 693a
000000f0: e873 203f 9b25 2a3e 2503 673e b0dd 213f
00000100: a586 5c3e ae46 163e 760b 1b3d ffa2 733f
00000110: cdd8 0a3d 0188 1c3f dacf 403f 0cea db3f
00000120: 51b1 453f 92a1 063f 0400 0000 0400 0000
00000130: 4fcb 153f bc76 f33d 130a d63e a397 383f
00000140: f269 cc3d 7e01 453f 4fbd 583f cfd7 d93e
00000150: e39c b63f bc16 d13d 0400 0000 5e84 213f
00000160: 2307 8e3e bb46 e33f 0400 0000 b5d2 063e
00000170: e658 983e abcf 6d3f 27de 1640 8b65 be3c
00000180: 4cb9 8340 9b05 423d 4322 853d 498f 2d3e
00000190: b07b 7b3f 7da6 143f b670 e43f 0400 0000
000001a0: 7687 893d 92a8 a93e babd 163f 20db 383f
000001b0: db9e 7b3f 0400 0000 4471 de3c ba78 823f
000001c0: ca13 413e 0400 0000 9598 d43e 74da 2c3d
000001d0: 5ca0 a43f fb42 293e 0400 0000 d608 1538
000001e0: 91a6 073e 5267 f93d f676 0c40 a67c 3e3f
000001f0: e278 103d 7f3a 1d3f 80c7 df3e 440a 893e
00000200: 48ec 063f e994 a33d 3268 0a3e 69b0 183d
00000210: e4d4 203c 469d fe3d 9a03 a13e 68d0 303f
00000220: f8a5 633e 03a8 983e d7f5 523d a648 ab3e
00000230: 64c3 1d3f cc12 a63f 5be3 563d 5cec d93d
00000240: 1467 a23d 2d59 5f3f 1dfa ae3f 5d2e 723f
00000250: 3954 f53e 0650 8f3d df77 823e c767 693e
00000260: fd5d 973e 082b 8f3f 7b50 553d b65c 9b3e
00000270: 8bb9 a83f 9232 6f3f 2dbf ef3e d0a8 b53b
00000280: abe5 2540 68f0 d93d d807 b73e 4885 cc3e
00000290: 4065 353f 8b29 d63f f9d9 0e3e 38af 4740
000002a0: 8563 d03c d8c7 1a3f 61c7 183f a463 303e
000002b0: f64f c53d 329c 4d3e 73ce 4f3e e5d2 ad3e
000002c0: d5bd 123a 333e 223f 2baf 203f 0c14 253e
000002d0: e432 923c 6f56 643d 022f d53c 224a 843e
000002e0: 8ae3 b13e e628 1e3a 7ecc 963e 9e3e 923e
000002f0: 517e bf3e e847 673f a54a 163e 0400 0000
00000300: 2b4b e23e 2725 3340 039d 1d3f 7c81 383d
00000310: ef16 0b3e 41c3 653d 2d50 da3e 4f5a f33f
00000320: 34d5 903d ec51 dc3e d0b0 9a3e 555e 293c
00000330: c788 193f 0a58 d33f 1d82 a53e 38a1 bb3f
00000340: 1dc0 fd3d 1b9d c73d 4e1f 843f e878 243f
00000350: 0b5d 643f 756f 463d ba51 e03d d596 4a3f
00000360: 438f 113a 8e75 603f e480 4f3f 0a40 273d
00000370: 5fa0 ec3d a338 173e fdec 193e 866e fc3e
00000380: bc4c b03f 8146 123e 78d9 2b3f 0e2b 0c3f
00000390: df72 ee3f 8a4e 8e3f 01b3 063d 4947 843e
000003a0: 7cc6 623d 73ee 783c 3237 8a3d a9f6 ca3d
000003b0: 4a25 1f3d 7ff7 553f ca26 c43d efff 643e
000003c0: 3052 e83d f52a 383b 4d96 a73f f196 483f
000003d0: 83dd 743e 3bd4 8a2a 30ed 633e 295b 083f
000003e0: eba5 063e 1070 b53e dbf0 cf3d 58ad 333f
000003f0: e9ff 0c3d 8971 e73e 19d5 e43d 583e b93e
0.77560216 0.02591273 1.8468182 0.2449327 0.045337897 0.6864578 1.5411168 0.4410764
0.11349144 6e-45 0.053753823 0.28020135 0.015956724 0.31489962 6e-45 6e-45
0.016937012 0.21256341 0.37258846 0.20279185 1.166701 0.6416549 0.021144897 0.51796263
0.35044387 0.31310833 2.7398784 1.1502017 0.25408822 0.045059256 0.03193723 0.3075736
0.07284437 6e-45 0.60698885 0.45693702 0.21596971 6e-45 0.75152594 0.0023191778
0.88653076 0.2489612 0.07810524 1.4947784 0.10393972 0.66716355 0.48578885 0.20982961
0.81526107 0.1322328 0.009545459 1.1622118 0.02027971 0.033279598 0.2698099 0.21883513
0.028100112 0.14196071 0.8148319 0.0008899052 0.6267686 0.16615908 0.22559793 0.63228893
0.21535738 0.146754 0.037852727 0.9517059 0.033898164 0.61145025 0.75317156 1.71808
0.7722369 0.52590287 6e-45 6e-45 0.5851335 0.11887881 0.4180456 0.7210638
0.09981145 0.769554 0.8466386 0.4254746 1.4266628 0.10209414 6e-45 0.630926
0.2773982 1.775596 6e-45 0.13166316 0.29755324 0.92895 2.357309 0.023241779
4.1163692 0.047368627 0.065006755 0.1694919 0.9823561 0.5806654 1.7846897 6e-45
0.0671529 0.3313642 0.5888325 0.7220936 0.9828927 6e-45 0.027153619 1.0193093
0.18855205 6e-45 0.4152266 0.04220052 1.2861438 0.16529457 6e-45 3.5532597e-05
0.13247134 0.1217791 2.1947608 0.7440895 0.035271533 0.6141738 0.43706894 0.26765645
0.52704287 0.07987387 0.1351631 0.037277613 0.009816382 0.12432341 0.3144806 0.69068
0.22231281 0.29815683 0.051503982 0.33453864 0.6162627 1.2974486 0.052462917 0.10640785
0.07929817 0.87245446 1.3670079 0.94601995 0.4791582 0.06997685 0.2548208 0.22793494
0.29563895 1.1185007 0.052078705 0.3034417 1.3181623 0.9343654 0.46825543 0.0055438057
2.5921428 0.10641557 0.35748172 0.39945436 0.7085762 1.6731428 0.13950337 3.1200695
0.02543808 0.6046119 0.5967923 0.1722551 0.09634392 0.20079115 0.20293598 0.33949962
0.0005597745 0.6337616 0.62767285 0.16120929 0.017846532 0.055746492 0.026023392 0.2583781
0.3474391 0.0006033316 0.2945289 0.28563398 0.3740106 0.90344095 0.14676912 6e-45
0.44197974 2.7991426 0.61567706 0.04504536 0.13582967 0.05609441 0.42639294 1.9011935
0.07071915 0.4303125 0.30213022 0.010337432 0.5997433 1.6511242 0.3232583 1.4658575
0.12390158 0.09746762 1.0322053 0.6424699 0.8920447 0.048446137 0.10953088 0.791364
0.00055526587 0.87679374 0.81056046 0.040832557 0.11554026 0.14767699 0.1503181 0.49303073
1.3773417 0.14284708 0.67128706 0.54753196 1.8628806 1.1117718 0.032885555 0.25835636
0.05536507 0.0151935695 0.06748809 0.09910328 0.03885392 0.83580774 0.09577711 0.22363256
0.11343801 0.0028101776 1.3092743 0.7835532 0.23912625 2.466099e-13 0.22258449 0.532641
0.1314923 0.3543706 0.101533614 0.70186377 0.034423742 0.45203808 0.11173458 0.36180377

bn1.running_var f4 [256]
00000000: 4eae a33f c1a5 cd3c 372d cd3f 6cb2 723e
00000010: 68d6 713d 7a4e 0240 f394 ce3f 7c1b c63e
00000020: ce9c 113e 0400 0000 f572 be3d dd78 203f
00000030: dce5 903c 667c a13e 0400 0000 0400 0000
00000040: f07a 6c3c a580 6d3e f15f d73e 666f 183f
00000050: e265 a53f 44a1 5e3f 1393 b13c 2d79 0c3f
00000060: 82e3 883f b219 383f b971 1f40 adf1 c43f
00000070: c38d 073f 8cea 743d 4f21 2c3d d589 2a3f
00000080: bca1 163e 0400 0000 fae7 413f d4f0 073f
00000090: 3f5a 343e 0400 0000 6dc2 6b3f 29a8 023b
000000a0: e18c 0140 43bb 053f a53d cb3d e10f f33f
000000b0: 3dca 0b3e 836e 983f 1fcb 313f f515 af3e
000000c0: 100b 903f 120e 0f3e 6178 dd3b 86c4 fe3f
000000d0: b39c aa3c 79d5 e73c 32b2 233f bd9a 1a3e
000000e0: 8c2d b53c 4558 5a3e 7f5c b23f 8a3b ea39
000000f0: 8932 083f 12d6 503e 8368 2d3f ffd0 143f
00000100: 96e4 183f 1a73 bf3e 8714 0f3d fe31 7540
00000110: bcd7 f43c 2672 b93f dd6c 973f 93e3 423f
00000120: a9a6 663f 7d55 133f 0400 0000 0400 0000
00000130: 2694 043f 6182 783e 9484 9c3f e407 4a3f
00000140: 8c04 b73d f359 853f 13fa d13f bec9 213f
00000150: 22d4 4d40 4ce1 5f3e 0400 0000 8474 403f
00000160: 2e36 f53e e51e bc3f 0400 0000 2b1b 903e
00000170: b436 473e 1b97 b73f 306c 2840 29d7 803c
00000180: 1951 0040 b9ee 153d 59cb 323d b9ff 623e
00000190: a6f4 8a3f 441b 143f afe5 4740 0400 0000
000001a0: 21d8 bd3d c430 bd3e 44d9 5e3f 7410 e03e
000001b0: 6739 d53f 0400 0000 669d 113d e88a 9040
000001c0: 9047 963e 0400 0000 ac92 343f 9cd3 e13c
000001d0: c4c7 623f b91b 143e 0400 0000 3600 4037
000001e0: 11aa e63d cee9 6c3e d308 cc3f fe5d d93e
000001f0: 57e6 073d 9dc6 383f 12c1 983e 2e08 013f
00000200: 5144 713f 2a84 933d fc5b 903e 62fe 0e3d
00000210: 2d6b fc3b 9397 b23d 7e6e 803f 6916 1a3f
00000220: 5e37 983e 35b0 023f 1e69 143d 5baa 773f
00000230: c6c1 793f 54f3 e13f cb0b 603d d9e1 2d3e
00000240: 6686 bc3d 7959 c03f f062 ee3f 9eb1 973f
00000250: c3a5 373f cfef ee3d 0400 1f3e 1bad 383e
00000260: b9a5 a63e 4db6 b13f f493 833d 3438 ee3e
00000270: bae1 d13f 4cf5 c63f b274 403f 063e 823b
00000280: bf65 1640 7cc8 213e 1e36 1b3f 93a0 7b3f
00000290: aafd 9f3f ef18 7e3f 56ab 8c3e b152 d23f
000002a0: d54e 5e3c 2cdd 693f c3df 213f 588d c33e
000002b0: e414 553e b8a5 ae3e bb5a 4e3e 6f27 723f
000002c0: 52a5 5239 e3b6 223f baa0 a73f b15d e23d
000002d0: 411d 8a3c 92d4 9a3d 165a d73c 8cd4 573e
000002e0: d3e7 863f ddef f239 a34a 9f3e f09a c83e
000002f0: f9e6 653f 2b96 4f3f 196b 843e 0400 0000
00000300: c48b 683f 5cdd 2140 9566 593f ac5f 3a3d
00000310: 4082 923e 038f 223d 90ac fd3e 4535 943f
00000320: a5db c33d 724c 0b3f e47a 553e a031 2e3c
00000330: 42d8 893f 66e0 d63f 47ee 2e3f e1c2 ee3f
00000340: 0e24 573e e450 393e f8c6 e33f 86e5 143f
00000350: 611e f73e 03d8 2b3d 09cd b23d 58c4 a13f
00000360: ce6a 4b39 3cf2 403f 6f35 733f 8cc8 5f3d
00000370: 35e0 063e 7aba 7f3e c0e2 a63e 4504 633f
00000380: 100a 1c40 4f63 e23d 1fb2 293f a602 a93f
00000390: 0924 f73f c8a9 8a40 6ffa 203d de86 1e3e
000003a0: 057f 3d3d 3ddd 413c cfc8 e13d 7b8f 3e3e
000003b0: c2ce 4e3d 9930 563f f82e 213e ea59 dc3e
000003c0: b902 3f3e 0e2f 393b 28ee cc3f 7303 9a3f
000003d0: 72bc f93e 74e2 bf28 40bd f43e 6b7d 823f
000003e0: 0838 7b3e 11e2 db3e 7ce6 4a3e 6cdf cb3e
000003f0: 4e97 d93c cff8 2b3f 3e48 d43d 21cb 923e
1.2787569 0.025103452 1.6029423 0.23700875 0.059042364 2.0360398 1.6139206 0.38692844
0.14219972 6e-45 0.0929927 0.6268442 0.01768773 0.3154022 6e-45 6e-45
0.014433607 0.23193605 0.42065385 0.5954498 1.2921717 0.8696482 0.021676576 0.548724
1.069443 0.7191421 2.491316 1.5386254 0.52950686 0.059793994 0.042023953 0.66616565
0.14710134 6e-45 0.75744593 0.5310185 0.17612551 6e-45 0.92093545 0.0019936657
2.0242236 0.52238864 0.09923867 1.8989221 0.13651367 1.1908726 0.69450563 0.3419644
1.1253376 0.13970211 0.006758735 1.9903724 0.020826673 0.028300034 0.6394378 0.1509809
0.022116445 0.21322735 1.3934478 0.00044676318 0.5320211 0.20394161 0.677376 0.581314
0.59723794 0.37392503 0.034931686 3.8311763 0.029888026 1.448796 1.1830097 0.761285
0.90098053 0.5755232 6e-45 6e-45 0.51788557 0.24268486 1.222796 0.7891829
0.08936414 1.0418075 1.6404442 0.6319846 3.2160726 0.21863288 6e-45 0.7517779
0.47892898 1.4696928 6e-45 0.28145728 0.19454461 1.4342989 2.6316032 0.015727596
2.0049498 0.036604617 0.04365096 0.22167863 1.0855911 0.57854104 3.1233938 6e-45
0.09269739 0.36951268 0.8705027 0.43762553 1.6658143 6e-45 0.035550497 4.5169563
0.29351473 6e-45 0.70536304 0.027566724 0.8858607 0.144637 6e-45 1.1444141e-05
0.11262906 0.23136064 1.5940193 0.42454523 0.033178654 0.7217806 0.298348 0.50403106
0.9424487 0.07202943 0.28195179 0.034910567 0.007703206 0.08720317 1.003372 0.60190445
0.29729742 0.5105012 0.03623306 0.96744317 0.975613 1.7652383 0.054698747 0.16980685
0.09205322 1.5027305 1.8623943 1.185108 0.7173731 0.116668336 0.1552735 0.18034784
0.3254831 1.3883759 0.06424704 0.46527255 1.6397011 1.5543609 0.7517806 0.003974679
2.34996 0.15799135 0.6062945 0.9829189 1.2499287 0.99256796 0.2747447 1.6431485
0.0135686 0.91353106 0.6323206 0.38193774 0.2080875 0.34110808 0.20151798 0.9459142
0.00020088747 0.63560313 1.3095925 0.110530265 0.016859652 0.07560076 0.026288074 0.21077174
1.0539497 0.0004633655 0.3111163 0.39180708 0.8980556 0.81088513 0.2586296 6e-45
0.90838265 2.5291357 0.8492215 0.045501396 0.28614998 0.039687168 0.49545717 1.1578757
0.09563378 0.5441352 0.2084766 0.010631949 1.0769122 1.6787231 0.6833233 1.8653222
0.21009848 0.18097264 1.7795095 0.58162725 0.48265365 0.04195405 0.087305136 1.2638044
0.00019399376 0.7536962 0.9500341 0.054634616 0.13171466 0.24973479 0.32594872 0.8867839
2.4381142 0.11054098 0.66287416 1.3203933 1.9307872 4.3332253 0.039301332 0.15481135
0.046263713 0.0118325325 0.11024629 0.18609421 0.05049015 0.83667904 0.15740573 0.4303735
0.18653382 0.0028256807 1.601018 1.2032303 0.48776585 2.1303468e-14 0.47800636 1.0194525
0.24533093 0.42945912 0.19814485 0.39818895 0.026561406 0.67176527 0.103653416 0.286706

fc1.weight f4 [256, 24]
00000000: 8a9a 82bc e64c bc3d 5344 6fbd 7993 c9ba
00000010: 5ef3 8c3b cff1 f3bc 2b40 b13c 4218 afbc
00000020: 79a0 0b3b 92d4 953d a776 243c 131f adbd
00000030: f84f aebd 169a 0f3d 4b9d ffbb 2fa3 9fbd
00000040: 9f62 e83b 222a 083d 1750 243d 893d cebd
00000050: dd12 66bd 2da7 613d 3776 35bb e76a babd
00000060: fdbd 1d3e 8b3d d4bc 440a febc 62de a0bb
00000070: 137a fc3d ca96 083c 2f99 5f3d 08dd 1fbd
00000080: bdff f53d 1cad 75bc 1d90 0d3c 5238 fcbc
00000090: 6cec a13d 3457 1dbd b62c 99bc 79ef 913b
000000a0: ea6e 093e b2c1 a23c 7e45 e53b 6af3 dd3c
000000b0: 9f71 f7ba c02a 873c b824 d3bc 9e30 38bd
000000c0: 60d8 07be d7f0 2ebd 18e6 8f3b ea4c b4bb
000000d0: 1718 53bd 143a 9fbd aee6 bdbd 591f 133c
000000e0: 29ab d8bc 6a04 55bd eb78 12bd 3b8b a63c
000000f0: 588b 80bc a91e d33a 38e6 a6bc 0597 99bd
00000100: 3efc a7bc 299b 203c 6d35 8e3c d863 553c
00000110: ab5e b43d 81ac ad3d 3d44 6abc 2130 a0bd
00000120: b79a b13b f01a 303d 5389 c6bb 541b 903d
00000130: 6703 67bd ec7f ed3d f78e 883c 73ec a6bc
00000140: 537c 403d dcab b13d c0e6 a03b 7d62 2a3c
00000150: 17c8 41bd db31 063d 0e4d 5bbc d43d e5bc
00000160: e660 823d 61b2 893d f088 45bc f375 103c
00000170: 89ed 0fbd 1081 d23d 9016 68bc 71fc ccbb
00000180: 3dd9 913d 44b3 ea3c 1cf8 6f3c 983b e73c
00000190: dda0 96bd 5e1c 73bd 89ba c33c e8f4 a03d
000001a0: 1847 1c3e 7717 be3d 6483 28bd 7ef6 92bd
000001b0: 0586 d5bc 3451 28bd e4de 063d 9e6a 923c
000001c0: 37e6 fb3d f172 123d 30d4 25bd 2ba5 0a3d
000001d0: 06b6 9dbd 19a9 aa3c 8bc8 1a3c 756d 90bc
000001e0: fde8 4bbc f0e9 8a3b 4f63 843d d062 873d
000001f0: 61c9 0abc a61d 3bbd 37b9 f73c 6230 563d
00000200: e8b8 8aba 36de 313d a7d6 343c bf49 8e3c
00000210: abf1 f8bc 1196 bbbd ade0 733d a501 343d
00000220: e14b 8cbc 36c5 04bd b18d 03bd 0e48 503d
00000230: 251f 72bd 48b3 02bd d25f 7fbd cd38 d53c
00000240: 8573 acbd 09e9 1ebd 0055 babd a7df 4a3c
00000250: 2fc7 e7bd 878e a1bd 7b5c f53b 79b9 a5ba
00000260: df04 acbc 42ac 64bd 6424 babc b130 e93b
00000270: 675a f7bb 3dd8 c5bd e6ef e23c 3967 52bd
00000280: e5a2 9cbd c517 05be 8750 00bd fc81 963b
00000290: a96e 4dbd 7ada 5f3d a852 243d 8ff7 04bb
000002a0: e60e 553c d9f3 47be f6c3 32bd b377 743b
000002b0: 11ea 98bc 4c56 aebd b41d 733d 3078 1b3c
000002c0: a622 b2bd b08a e6bd b477 6e3b c9e1 d63b
000002d0: 3a07 953b c8c7 b7bc d9fb 313d a985 babb
000002e0: a516 3a3c 8520 28be a6fb cebc 8fc5 e73d
000002f0: 90ad 09bd 5617 d5bd d203 c03c 036f ae3d
00000300: 7381 9fbc 938f 61bd f13b 44bc b005 5c3c
00000310: 4011 4f3d 646c 4c3d 0867 57bd 04ae 693d
00000320: eff9 abbc c5ad 11bd bb6b 3fbd 06a6 fabc
00000330: f074 e23c 7f78 a2bc 5031 d33c ac96 193d
00000340: 3110 bf3d 9f33 fabd d998 4bbd 34ff a7bd
00000350: b538 8fbd 5b6e 1bbd 13c3 133d b6d7 97bc
00000360: 6c07 943d 3705 7c3d 71c7 0bbd 202d df3b
00000370: b24b 08bc b51a 8ebd e06f 293c 7684 c43c
00000380: 0a8f b73d b123 803d f56a 1dbd 2a07 613d
00000390: 5485 6b3d d5f7 0cbd 3af6 d63c 4192 2bbd
000003a0: 2856 bc3d e56b c43d 2a49 d9bc 554e c9bc
000003b0: 8eba e1bc 85e9 cdbd 6699 3c3c 5940 813d
000003c0: 99ae e83d 28cf 1d3e 2a85 353c fcda 9e3c
000003d0: c9bd 5a3d 9693 e4bc c821 e8bb 16f8 ca3b
000003e0: f78f 253e f1b2 0b3e 10d1 92bc 7d19 233b
000003f0: b284 5b3d 81ee 4abd 7d91 bd3c 566d 133c
-0.01594283 0.09194355 -0.05841477 -0.0015379033 0.0043014726 -0.02977839 0.021637043 -0.021373872
0.0021305366 0.07315935 0.010038055 -0.084531926 -0.085113466 0.035059057 -0.007800733 -0.07794797
0.0070918347 0.033243306 0.040115442 -0.10070331 -0.056170333 0.055091072 -0.002768887 -0.09102421
0.15404506 -0.025908252 -0.031010754 -0.0049093226 0.12327971 0.008336732 0.054589447 -0.03902915
0.12011669 -0.014994886 0.008640316 -0.030788574 0.07906422 -0.03841324 -0.018698078 0.004453596
0.13421217 0.019867752 0.0069968095 0.027093608 -0.0018878466 0.016499877 -0.025774345 -0.04496824
-0.13266134 -0.04271015 0.004391443 -0.005502333 -0.051536646 -0.077747494 -0.09272514 0.008979642
-0.026448803 -0.052006163 -0.035759848 0.020330062 -0.015691444 0.001610716 -0.020373449 -0.07499508
-0.02050602 0.009802618 0.01735946 0.013024293 0.08807119 0.08480168 -0.014298496 -0.0782168
0.005420055 0.04299444 -0.006058851 0.070364624 -0.05639973 0.11596665 0.016669733 -0.02037642
0.046993565 0.08675358 0.00491032 0.010399458 -0.04730996 0.03276239 -0.0133850705 -0.027983584
0.06366138 0.06723476 -0.012056574 0.008817184 -0.03513864 0.10278523 -0.014165536 -0.0062556793
0.07121513 0.028649934 0.014646556 0.028226659 -0.07354901 -0.059353225 0.023892658 0.07859212
0.15261495 0.09281819 -0.04114093 -0.07175921 -0.026064882 -0.041093066 0.03292741 0.017873105
0.12299769 0.035754148 -0.04048556 0.033848923 -0.07700734 0.020832585 0.009447227 -0.017630318
-0.012445685 0.0042393133 0.06464254 0.06610644 -0.008470864 -0.04568257 0.030239685 0.052292235
-0.0010583671 0.043424807 0.011037505 0.01736915 -0.030388674 -0.09159482 0.05954044 0.04394688
-0.017126026 -0.032414638 -0.03211755 0.050849967 -0.059111733 -0.031909257 -0.06234724 0.026028061
-0.08420471 -0.03879646 -0.09098244 0.012382424 -0.11317288 -0.07888513 0.007487831 -0.0012643776
-0.020998416 -0.05582834 -0.02272243 0.0071164 -0.0075486186 -0.09660385 0.027702283 -0.051367972
-0.07648257 -0.12997349 -0.031326797 0.004593132 -0.050154362 0.054651715 0.04011789 -0.0020289158
0.01300404 -0.19526614 -0.043643914 0.0037302792 -0.018666299 -0.085125536 0.0593545 0.009489104
-0.08698015 -0.11256921 0.0036387267 0.0065576774 0.0045479806 -0.02243413 0.04345307 -0.005692203
0.011357938 -0.16418655 -0.02526648 0.11316978 -0.033612788 -0.104048416 0.023439322 0.085172676
-0.019470906 -0.055068564 -0.011977182 0.01342909 0.05055356 0.049908057 -0.052588493 0.05705072
-0.020993201 -0.03556611 -0.0467336 -0.030596744 0.02764365 -0.019832848 0.02578035 0.037497208
0.0932926 -0.12216877 -0.049706314 -0.08202973 -0.06993238 -0.03794704 0.03607471 -0.018535476
0.07227978 0.06152841 -0.03412575 0.0068107992 -0.008318828 -0.06938688 0.0103416145 0.023988944
0.089628294 0.062568076 -0.03843208 0.054938473 0.0575002 -0.03441604 0.026240457 -0.041887525
0.091961205 0.09590892 -0.026524145 -0.024573484 -0.027554777 -0.10054306 0.011511182 0.063111015
0.11361427 0.15411055 0.011079112 0.01939153 0.05340365 -0.027902406 -0.007084105 0.006194125
0.161682 0.1364248 -0.017921954 0.0024887018 0.053593345 -0.04954386 0.023140663 0.008998236

fc1.bias f4 [256]
00000000: 14b3 a33d e043 47be e862 a13d c816 19be
00000010: 8278 223d b3c6 a23b 7d2e f73d 104b b8bd
00000020: bdc9 3abe 89a3 1bbe 8305 06be 2be0 2abe
00000030: 5572 103e a529 f0bd db48 31bd 6886 48be
00000040: 6f22 a9bd 2dd5 33bd aeff b1bd 897b 473d
00000050: 9eb2 5ebe 9f63 71bd 51ec 80bd f9df f1bd
00000060: a950 ba3d 85ca 183c 52b1 eb3d 99fd 983d
00000070: 3be8 0f3e 16a8 44be 9c97 3cbe 7956 d13d
00000080: 9aa9 0abe 192a 3dbd 819b 68bd 3661 403d
00000090: d7bc 1b3e 778a 70be 5dac 21be 93de 69be
000000a0: 17bd 9d3d 0e51 d83d 8fa6 0dbe ad5b d23d
000000b0: b3b0 f1bd d1b9 46be b7a2 723d f96b 76be
000000c0: be3a 88bd 2fe7 2dbe 9d0a 97be a06d ab3d
000000d0: afed 563d c2e1 77be 205c ef3d 7713 09be
000000e0: e31a 073e 3d91 6bbe 8b32 293e 426f 0fbe
000000f0: 6f61 2c3e e9df 3ebe e73f 0ebd 2707 473c
00000100: b64c 603d a33c c73d 8545 cb3c 1e4b 5cbd
00000110: 1a3b 91be f91b 9cbd 3784 043e dc49 38bd
00000120: 2eb0 29be 9235 8fbc 9460 563d 3a68 00be
00000130: 789d c13d 72c4 b1bd cfc2 29bc 3e83 e5bd
00000140: 6218 06bd 1895 093e 2480 ac3d 5e9b 56be
00000150: 40f7 4cbd 5dc4 41bd c525 fdbd 38ef e6bd
00000160: b418 df3b 8e20 363e fde8 e53d fe58 6dbe
00000170: 22b1 85be 0e34 a13d 7d03 a43c d00f dc3d
00000180: 8bb3 183e 49eb 05be c140 fdba f49a 8cba
00000190: b522 e3bd 255d 6a3e d3f3 0e3d 4a5a 24be
000001a0: 2aae 80be 72c5 543d c36d 68be 205c a03d
000001b0: 9ad8 28be 563e 4cbd f9e0 78bd 9869 4e3e
000001c0: 77de 2fbe a02e 42be 69eb da3d edb7 02be
000001d0: 1b6b a5bd dcc9 b73d 335e 30be c96d 473d
000001e0: da72 34be a3c4 62bd 2434 433e 1170 f9bd
000001f0: 0d15 cbbd 1d9e 3e3d ae2c 93bd 6379 a03c
00000200: c4c2 793e 81d2 07be 5572 8aba 614e f1bc
00000210: 7d6f 89bd 36ad debd 5186 0fbd 2850 793d
00000220: 4a25 003e d5fd fb3d bdec 15be 91c8 5f3d
00000230: 60f5 e93d 004f 463d f88b 75bd be82 39be
00000240: bbd6 83be d756 aebc 1bab 31be 89b6 df3d
00000250: 4579 30be 21d4 60be 0acb 24be c68f 8a3d
00000260: 3777 e13d 9ac1 0dbe 9178 7ebe 1ce7 ebbb
00000270: c8e3 283d fa63 58be 95ea ac3c dfb6 99be
00000280: 59ae f03d c259 9e3c 5454 b03d a80e 9abe
00000290: 9145 053e 92f0 04bc 8146 9cb9 f338 5f3e
000002a0: a5a9 cdbd e204 0cbe 7178 ddbd a3b3 ab3d
000002b0: 813e dbbd d58c 973d f687 4d3d f44d 083e
000002c0: 4989 123b 0455 223e 3749 58be 4873 22be
000002d0: aea2 4cbe ce19 803d 7c75 783d f3a6 173d
000002e0: 1408 a23d ec01 d1bd 671c 0c3c 1bac 1ebe
000002f0: 3424 603d c44a 4abe 31dc 42be 8cf4 9bbd
00000300: 3725 153e f1bc 02be 6717 3d3e 124a 2abe
00000310: 9a95 42be 87e8 39be 7584 023e 3d46 62be
00000320: 119e e53d 5ff1 33bd 3a75 07be 8d41 f7bd
00000330: 0992 26be 8687 563d af9f 47be 6846 0fbe
00000340: 701e aebd c1d3 003d 70a9 883c 762a ae3d
00000350: 6e93 a6be ea5c c03d a6e4 88bc ddef d93d
00000360: d184 67bd 081d cc3d af9b a53d 0f9d 46bd
00000370: 0724 2cbe a13e 343c bb4d 88be 1c11 a23d
00000380: 6249 04bd ab75 db3d d664 24be b09a 28be
00000390: ef1c 943c b7d9 a53d b000 13be 7643 153b
000003a0: d22d fd3c 3439 39bd 61dd c1bd 1f9e 7f3d
000003b0: 6ab4 b73d a711 13be 45a0 c93d a971 a03d
000003c0: 0d27 cdbd 0404 e2bd 9a0e 85be 63fd b13d
000003d0: 25c9 12be 2093 86be 205d 42be a1df 00be
000003e0: 9453 39be f8c3 efbd e797 d0bd f5fe 7b3d
000003f0: 6476 95bd deb4 e8bd e9b2 a73a 0bd0 48be
0.07993141 -0.19459486 0.07880193 -0.14950097 0.039665706 0.0049675344 0.12069414 -0.08998692
-0.1824102 -0.15199102 -0.1308804 -0.16687076 0.14106114 -0.11726693 -0.04328237 -0.19582522
-0.08258521 -0.043904472 -0.08691345 0.048701797 -0.21747825 -0.058932897 -0.06295074 -0.118102975
0.09097416 0.009325628 0.115084305 0.07470245 0.14053433 -0.19204745 -0.1841721 0.102215715
-0.1354126 -0.046182726 -0.056788925 0.046967708 0.15208755 -0.2349032 -0.15788408 -0.22838812
0.07702082 0.10562335 -0.13833068 0.10271392 -0.11801281 -0.19406821 0.05923721 -0.24064626
-0.06651829 -0.16982721 -0.29500285 0.08370519 0.052472766 -0.24207214 0.11687493 -0.13386331
0.1319385 -0.23004623 0.16523187 -0.14007285 0.16834043 -0.18640102 -0.03472891 0.012147701
0.054760657 0.097283624 0.024813423 -0.053782575 -0.28365403 -0.07622523 0.12941061 -0.044992313
-0.16571113 -0.017481599 0.052338198 -0.1253976 0.09453863 -0.08680047 -0.010361387 -0.11206673
-0.032738097 0.13435781 0.084228784 -0.20957705 -0.050040483 -0.047306407 -0.123607196 -0.11276096
0.0068083648 0.17785856 0.112260796 -0.23178479 -0.26111704 0.07871257 0.020021195 0.107452035
0.1491224 -0.13078035 -0.0019321666 -0.0010727332 -0.11090604 0.22887094 0.034900498 -0.16050068
-0.25132877 0.05194611 -0.22698121 0.078300714 -0.16488877 -0.049864136 -0.060761426 0.20157468
-0.17174707 -0.18963099 0.10689432 -0.12765475 -0.08077069 0.089740485 -0.17223434 0.048688684
-0.17621937 -0.05536331 0.19062859 -0.12179578 -0.099161245 0.046537507 -0.07186256 0.019589132
0.24390703 -0.13263895 -0.0010562638 -0.02945632 -0.06710718 -0.10872881 -0.035040203 0.06086746
0.12514225 0.12304274 -0.1464109 0.054634634 0.11423755 0.048415184 -0.059947938 -0.1811628
-0.25749764 -0.021281643 -0.17350428 0.10923488 -0.1723376 -0.21955921 -0.16093078 0.06765704
0.110090666 -0.13843384 -0.2485068 -0.0071991812 0.041232854 -0.21131888 0.021107951 -0.30022332
0.11752004 0.01932991 0.08609834 -0.30089307 0.13014819 -0.008113997 -0.00029807168 0.21799068
-0.10042123 -0.13673738 -0.10813988 0.08383872 -0.10705281 0.073999085 0.05017849 0.13310987
0.002235966 0.15852743 -0.21121679 -0.15864289 -0.19983932 0.06254922 0.060658917 0.03702445
0.07911697 -0.10205445 0.0085516935 -0.1549534 0.054722026 -0.19755083 -0.19029309 -0.07615003
0.14564978 -0.12767388 0.18465959 -0.16629818 -0.19002381 -0.18155108 0.12745841 -0.22097106
0.112117894 -0.04393136 -0.13228312 -0.1207305 -0.16266645 0.05237534 -0.19494508 -0.13991702
-0.08501899 0.031451944 0.016682357 0.085041925 -0.32534355 0.09392722 -0.01671059 0.106414534
-0.056523148 0.09966475 0.08086335 -0.048489626 -0.16810618 0.01100126 -0.26621804 0.079134196
-0.032296546 0.10715803 -0.16054091 -0.16465259 0.018080203 0.080981664 -0.14355731 0.0022775806
0.030905638 -0.04522057 -0.09466053 0.062406655 0.08969958 -0.14362203 0.09845022 0.07834179
-0.10017214 -0.11035922 -0.25987703 0.08690908 -0.14334543 -0.26284122 -0.18980837 -0.12585308
-0.18098289 -0.117073 -0.10185223 0.061522443 -0.07297972 -0.11362623 0.0012794408 -0.19610612

fc2.weight f4 [128, 256]
00000000: cb44 99bc c0e7 edbd 556c 80bd f788 03be
00000010: 2742 793d fb13 8fbd 3913 cc3d 67cf 5dbd
00000020: 7929 9e3d f797 a73c ae84 b6bc 1b49 d7bd
00000030: 8520 773c 635b 4abd ed69 893d 329f 2fbe
00000040: b2d5 4d3c 8e05 bebd 38e8 783c 18f4 0abe
00000050: e190 9f3d 88be bd3d cfdf 6fbe 190e ebbc
00000060: abc1 0c3d 838f f73b 60d0 aabd b665 ae3c
00000070: 9956 4c3d 56ad 1cbe f1d4 543d 23f1 9dbd
00000080: 2e14 f5bd 25c4 ee3b 49cd 483d 528c 203e
00000090: eeff 96bd 5a52 f93d e215 2d3d e024 a4bd
000000a0: 0527 753c 3089 4abc 04b4 81bd fc9a 1ebe
000000b0: f4c2 f0bd 1387 93bc 7c2c ce3d 6e9e ffbc
000000c0: 27d3 8dbd e17d 383d 0485 ee3c d20b b1bd
000000d0: a523 8cbd 6da0 2c3c 623b 54be 5dc4 a53d
000000e0: b9a0 cfbd fe9f ab3c e724 f93d b777 a3bd
000000f0: 0f3a 53bd 4d2e cf3d 9dc8 5e3d d4c3 993d
00000100: 4a2f c23d 885c 98bd 104d 35bd df68 07bc
00000110: 0078 bb3d f445 11be 2cc6 043d 1575 473d
00000120: 1f17 393b 37a3 db3b ed5c 173e 5be5 d1bd
00000130: dec4 09be cded 86bd 0fce 183d 64e8 71bd
00000140: 4f66 c2bd cbed 09be 2ab7 2f3d 658f ccbd
00000150: e50b a23d 4f08 0fbd ef41 663d 4074 0bbe
00000160: d131 bfbd 0472 ea3d b255 193d efe6 c03d
00000170: 182b 513c 9ad1 25bc 435b 073d a807 3dbe
00000180: 5d0e a8bb a70a f6bd 1b3b 4e3d d601 4dbe
00000190: bc6c a83c fcff d0bd 7f34 cd3c d115 de3d
000001a0: 0548 503d 65f0 cabd 5afa a63b 2ef3 6fbd
000001b0: 58eb 48bd bc48 2f3e 5082 5dbd 1368 b3bd
000001c0: c442 96bd 5b86 88bc 537c dbbd 2f92 0abe
000001d0: 6e11 17be c7b8 203e a27d 7c3d 675e 5cbd
000001e0: 99bb 68bd 555e 64bd c1b8 a53d fa63 af3d
000001f0: 1edd e33d 4fb3 6bbd c6bd 753d 318c 72be
00000200: f282 9e3d 3a91 b43d da7d f9bd 0da5 f4bd
00000210: 7f40 54be 9f84 5a3d bf18 64bd 92fe a0bc
00000220: 5af4 80bd af73 6abe 00ca 73bd acb1 4a3d
00000230: 37cf fbbd 0eb4 e3bd 9284 c03c 2bb7 92bc
00000240: f142 1bbd 1914 a53d a5f9 15bd dd26 22bd
00000250: d72d 883d b1d5 86bb aebf 2d3e 8338 133d
00000260: 68ab a239 48be 10bd 4c4f 353d b5d6 a2bd
00000270: 7a60 42bd ed9c 2a3d 3d60 193e 4047 80bd
00000280: 99f4 bebc d7f9 02be e8c6 0fbe 8141 35be
00000290: b956 4bbd 9a0d 9e3d 504b f5bc 8f8b 0bbd
000002a0: d6e5 e7bc e0f4 b8bd 323c 8d3d 052f 30be
000002b0: df35 36be fbf1 913d e2e6 143e 149d ae3c
000002c0: 870c 4dbe 71cf bd3c 9982 a43d 3d1a 57be
000002d0: 5dea 923b 2db8 e7bc 2856 a33d 9776 b3bd
000002e0: 66ed 25be 628d 083e 06b1 093d e67d f4bd
000002f0: 31fb 2fbd 31a3 0a3e 9e4e 83bd 6a51 62bd
00000300: 63f7 af3d d804 323c fd42 78bd 9d00 b03d
00000310: 0dfe 253e 9096 853d bc1b 1bbd 691c 8a3d
00000320: b622 ecbd 4722 473d ac55 5d3d ad77 11bd
00000330: 90b6 a2bd aa21 1eba a0e0 ecbd 768a 7e3d
00000340: 5cff 71be f0db 7b3d 8afe e0bc 22fb 08bd
00000350: 87af 64bc 0875 9dbd 3d59 b4bb 4b9a fd3c
00000360: be30 9dbd b9fb 443d 101f 073c dbf7 963c
00000370: e8de 7d3d bbfd 7ebd 7e23 933d 514e 2abd
00000380: 0bd5 b13d 79c4 10be 251f 793d c278 dbbb
00000390: 7ae7 9e3d 40b7 0b3e 6c00 af3d 3d31 dbbd
000003a0: 0d53 063e 36cb 8bbc 78fa b63c 1208 bbbd
000003b0: 76de 06be 38e6 cb3d ac04 ff3d 4d46 7a3e
000003c0: 37d7 3cbe 0c52 30bd 8222 78bd ac0a 303e
000003d0: b099 1abd b271 0fbe d4c3 b6bd 0c2b 99bc
000003e0: ecd3 e1bb e993 4cbd e4cf bcbd 3a5e 83bd
000003f0: aec4 a9bd a26f ea3d 13a9 51be cae9 653e
-0.01870956 -0.116164684 -0.06270663 -0.12845217 0.060854103 -0.06986233 0.09964604 -0.054152872
0.07722754 0.020458205 -0.022280063 -0.10511991 0.015083437 -0.04940356 0.06709657 -0.17150572
0.012563156 -0.09278403 0.015192084 -0.13569677 0.07791305 0.092648566 -0.2342522 -0.028693246
0.034364384 0.0075549497 -0.083405256 0.021288734 0.049887273 -0.15300497 0.05196089 -0.07712009
-0.119667396 0.007286566 0.0490239 0.15678528 -0.073730335 0.121739104 0.042257197 -0.08014846
0.014962916 -0.01236181 -0.063331634 -0.1548881 -0.11755934 -0.018008744 0.100670785 -0.031203475
-0.0692504 0.045041922 0.029116161 -0.08644833 -0.06842736 0.010536295 -0.20725778 0.08094094
-0.10138077 0.020950314 0.12165242 -0.07981818 -0.05156904 0.10116253 0.05439054 0.075080544
0.09481676 -0.07439524 -0.044262946 -0.008264749 0.091537476 -0.14186841 0.032415554 0.048695643
0.002824254 0.0067028063 0.14781542 -0.10248824 -0.13454005 -0.06588326 0.037305888 -0.059059516
-0.0949217 -0.13469617 0.04289929 -0.09988288 0.07912425 -0.034920033 0.056215223 -0.13618565
-0.093356736 0.11447528 0.03743524 0.09419047 0.012766622 -0.010120774 0.03304602 -0.18459952
-0.0051286654 -0.120137505 0.050349336 -0.20020232 0.020559661 -0.10205075 0.025049446 0.10844005
0.050849933 -0.09909133 0.005095762 -0.058581524 -0.049052566 0.1711759 -0.054079354 -0.08760085
-0.07336953 -0.016665628 -0.10717072 -0.13532327 -0.14752743 0.15695487 0.06164325 -0.053800967
-0.056819532 -0.055754025 0.0809188 0.08563991 0.11126159 -0.05754405 0.059995435 -0.23686291
0.077398196 0.08816762 -0.121822074 -0.119455434 -0.20727728 0.053349134 -0.055687662 -0.019652639
-0.06296606 -0.22895692 -0.059518814 0.049485847 -0.122953825 -0.11118327 0.023500714 -0.017909607
-0.037905637 0.08060474 -0.036615033 -0.039587844 0.06649368 -0.0041148295 0.16967651 0.035942566
0.00031026755 -0.035337716 0.044265077 -0.07951108 -0.04745529 0.041653562 0.14978118 -0.0626359
-0.023309993 -0.12790619 -0.1404072 -0.17700769 -0.049643252 0.07717438 -0.029943138 -0.03406864
-0.028307837 -0.09031081 0.06896247 -0.17205437 -0.17793988 0.07126232 0.145412 0.021315135
-0.2002431 0.023170205 0.08032722 -0.21006103 0.0044835047 -0.028286064 0.079754174 -0.087628536
-0.16203842 0.13335183 0.03361609 -0.11938076 -0.042964164 0.13538815 -0.064114794 -0.055253424
0.08592107 0.010865413 -0.06061076 0.08593867 0.16210194 0.06522858 -0.037868246 0.067437
-0.11530058 0.048616674 0.05403678 -0.035514522 -0.07944977 -0.0006032238 -0.11566281 0.062143765
-0.23632568 0.061489046 -0.027465124 -0.033442624 -0.013957865 -0.076883376 -0.005503802 0.030957362
-0.076753125 0.048091624 0.008247152 0.018428734 0.061980158 -0.062253695 0.07184504 -0.041578595
0.08683213 -0.14137448 0.060820717 -0.006697745 0.077589944 0.13644123 0.08545002 -0.10702751
0.13117619 -0.017064672 0.02233623 -0.09132399 -0.131708 0.0995602 0.12452063 0.2444088
-0.18441473 -0.043046996 -0.060579784 0.17191571 -0.037744224 -0.14008215 -0.0892407 -0.018697284
-0.006891718 -0.049945746 -0.092193395 -0.06414457 -0.08289467 0.114470735 -0.20474653 0.22452465

fc2.bias f4 [128]
00000000: 6ab8 8a3c f291 cabc 2f98 683e 6856 c53d
00000010: 460d 97bc 84b9 8c3d a1fe 87bc 7047 103e
00000020: 6c89 b53d 7dbc a2bc 2e92 103d e286 f83d
00000030: 06dc 853d 4c53 2a3e 7aaa 14bd 8e55 063c
00000040: 152f c4bd f39d e53c 641e 54bd ff4a 0d3d
00000050: 0f23 a63c 5cc2 87bc 3991 243c 6586 293d
00000060: 610f b83c 2bb7 f4bc e394 3d3c e6fd 9d3d
00000070: 0c20 a9bd e45a 2a3d 683c c1bc 1577 f83d
00000080: 6c5d 5e3d a3e3 eebb 77ca 26bc 3873 303c
00000090: d31b 873d 789f 443c 33f4 d53d 5378 5a3e
000000a0: 8ba8 e2bd 4bba 1c3d cf4f 963d e937 c1ba
000000b0: a8f3 333e 2fe4 cf3d b96b e83d 568b 10bd
000000c0: 65a5 893d 8451 38bd 1462 90ba a5b1 d5bc
000000d0: 27a0 d73d 5fe6 123d cb21 513e 161b cf3d
000000e0: 3d67 fa3d bdf5 a6bc 2c8b a53c 69df 073e
000000f0: 4ae5 ba3c 376a 303d 5327 413d 910d f83d
00000100: f4cf be3d 7a19 4d3c 532a 82ba 3037 713e
00000110: 58aa 99bb 5f5e 7a3d fdad 3a3e c025 193c
00000120: e7b9 7bbc 30af 433c bc57 0b3d be90 0539
00000130: acb8 ba3d 7ca2 8d3d 4a14 6c3c e0b3 5dbd
00000140: 6b83 7f3d 87cd 3c3d 540e c43d e9b3 773d
00000150: 4225 433c d3d3 0e3e bfce eb3d ddf4 bcbb
00000160: d1d0 f7bc 2dd4 933c 60d9 19bc 946b 0ebc
00000170: 5ffc 9cbd 661f 6a39 c5d1 893d 69e7 f23c
00000180: 0c0d 2b3d 507c 6a3d 0517 923d fb2c 7d3d
00000190: d96a cf3c 25eb 603c c403 5a3b 2071 3d3b
000001a0: 9d4d 583d 22fb efbc 4cec 2fbd 2ab6 e1bd
000001b0: 5d57 e73d 5e7f e03d 533f e3bc a4d1 1b3c
000001c0: 8b22 e3bc f857 51bc 0579 6abd 9a25 62bd
000001d0: 0096 c2bc e16b dc3d eafb 76bd 58b4 ac3a
000001e0: 725d aabc 7191 f43d eed2 bdbd 8097 bd3b
000001f0: 0587 083c c0eb f33d abd3 cabc bd28 e13d
0.016933639 -0.024727795 0.22714303 0.09635621 -0.018438946 0.06871322 -0.016600909 0.14089751
0.08864102 -0.019865269 0.035295658 0.12135102 0.06536107 0.16633338 -0.03629539 0.008199109
-0.09579293 0.028029418 -0.051786795 0.03449535 0.02028039 -0.01657217 0.010044389 0.041387934
0.02246827 -0.029872498 0.011571142 0.07714443 -0.082580656 0.041590586 -0.023588374 0.12132088
0.054288313 -0.00729032 -0.010180107 0.010769658 0.06597104 0.012000911 0.10446968 0.21334963
-0.11067303 0.0382636 0.07339441 -0.0014741394 0.17573416 0.101509444 0.113486715 -0.03528913
0.06721 -0.044999614 -0.0011015558 -0.026085684 0.105285935 0.03586423 0.20423047 0.10112588
0.122267224 -0.020380849 0.020207964 0.13268818 0.022814412 0.043070044 0.047156643 0.121119626
0.09317008 0.012518281 -0.0009930826 0.23556209 -0.004689496 0.061125156 0.18230434 0.009347379
-0.015364147 0.011943623 0.034019217 0.00012737789 0.091172546 0.06915757 0.014409134 -0.05412662
0.06238119 0.046094444 0.095730454 0.06047431 0.011910738 0.13947992 0.11514043 -0.0057664947
-0.030250939 0.01804551 -0.009390205 -0.008692641 -0.076653235 0.00022327676 0.067294635 0.02965136
0.04176049 0.05724746 0.07133297 0.061810475 0.025319504 0.013727938 0.0033266405 0.002890654
0.052808393 -0.029294554 -0.04294996 -0.11021073 0.1129596 0.10961793 -0.027740156 0.009510431
-0.027726432 -0.012777321 -0.05724432 -0.05521164 -0.023753166 0.10762764 -0.060298838 0.0013176305
-0.020796511 0.11941803 -0.09268747 0.0057858825 0.008332972 0.119102 -0.024759134 0.10994098
