weights/checkpoint_actor_1.pth (torch_old, 87203 bytes, 18 tensors)

bn0.weight f4 [24]
0.88226926 0.91500396 0.38286376 0.95930564 0.3904482 0.60089535 0.25657248 0.7936413
0.94077146 0.13318592 0.9345981 0.59357965 0.86940444 0.5677153 0.74109405 0.4294045
0.8854429 0.57390445 0.26658005 0.62744915 0.26963168 0.44136357 0.29692084 0.8316855
00000000: 66dc 613f b33d 6a3f b806 c43e 0e95 753f
00000010: d4e8 c73e 47d4 193f 785d 833e 142c 4b3f
00000020: 66d6 703f e461 083e d241 6f3f d6f4 173f
00000030: 4a91 5e3f ca55 113f 57b8 3d3f e8da db3e
00000040: 63ac 623f 67eb 123f 2e7d 883e 82a0 203f
00000050: 2a0d 8a3e 68fa e13e 0206 983e 57e9 543f

bn0.bias f4 [24]
0.0 0.0 0.0 0.0 0.0 0.0 0.0 0.0
0.0 0.0 0.0 0.0 0.0 0.0 0.0 0.0
0.0 0.0 0.0 0.0 0.0 0.0 0.0 0.0
00000000: 0000 0000 0000 0000 0000 0000 0000 0000
00000010: 0000 0000 0000 0000 0000 0000 0000 0000
00000020: 0000 0000 0000 0000 0000 0000 0000 0000
00000030: 0000 0000 0000 0000 0000 0000 0000 0000
00000040: 0000 0000 0000 0000 0000 0000 0000 0000
00000050: 0000 0000 0000 0000 0000 0000 0000 0000

bn0.running_mean f4 [24]
-4.9036736 -0.47557837 5.293395 0.82089055 -0.29259056 3.0858123 5.293395 0.82089055
-5.292858 -0.4788399 5.4798455 0.7514843 -0.28353986 3.0239398 5.4798455 0.7514843
-5.601718 -0.47483018 6.1555147 0.64100206 -0.31045637 2.8494651 6.1555147 0.64100206
00000000: e5ea 9cc0 027f f3be 7e63 a940 e225 523f
00000010: 6ece 95be f37d 4540 7e63 a940 e225 523f
00000020: 185f a9c0 812a f5be e55a af40 4661 403f
00000030: 232c 91be 3b88 4140 e55a af40 4661 403f
00000040: 4641 b3c0 f11c f3be faf9 c440 b618 243f
00000050: 23f4 9ebe a35d 3640 faf9 c440 b618 243f

bn0.running_var f4 [24]
17.451311 1.0239816 258.48474 7.75814 40.9288 5.021959 258.48474 7.75814
16.844023 1.0636697 279.88382 8.173538 44.54514 5.63243 279.88382 8.173538
16.48173 1.0816629 298.95084 9.399473 47.723076 6.751604 298.95084 9.399473
00000000: 499c 8b41 d411 833f 0c3e 8143 af42 f840
00000010: 17b7 2342 e3b3 a040 0c3e 8143 af42 f840
00000020: 8fc0 8641 5426 883f 21f1 8b43 d0c6 0241
00000030: 392e 3242 de3c b440 21f1 8b43 d0c6 0241
00000040: 95da 8341 ee73 8a3f b579 9543 3e64 1641
00000050: 6ee4 3e42 240d d840 b579 9543 3e64 1641

bn1.weight f4 [128]
0.42684034 0.35083562 0.39638993 0.24621047 0.44002944 0.12266451 0.81721884 0.18423721
0.5913327 0.44384456 0.28023055 0.7939587 0.47761232 0.66312754 0.58530086 0.38462555
0.79600424 0.4128217 0.6756025 0.85286826 1.0278683 0.4877258 0.83983994 0.4550112
0.595173 0.40457752 0.004210191 0.19184762 0.329318 0.68103 0.5829313 0.6160278
0.42218813 0.3503427 0.6355333 0.18985477 0.46346202 0.20660831 0.57543766 0.40054122
0.46899724 0.44238725 0.87302774 0.3594128 0.30305126 0.1880429 0.6944965 0.46260697
0.7494414 0.20750807 -0.002601705 0.13388611 0.31865302 0.6532333 0.60068643 0.7803812
0.16090839 0.18402955 0.77885944 0.44880083 0.5876034 0.31320438 0.6532012 0.22669747
0.60637593 0.7474416 0.7294008 0.36077484 0.639807 0.74148095 0.32266322 0.38891536
0.80319333 0.41105875 0.27510244 0.0005785875 0.19876294 0.47631213 0.49204063 0.27634966
0.40274614 0.17526922 0.4011359 0.30588672 0.17111814 0.24718197 0.87534904 0.5610827
0.6067202 0.2240258 0.21076107 0.37591842 0.47821555 0.20235765 0.24385385 0.31994215
0.7034348 0.27493972 0.39420256 0.45596796 0.114704035 0.19447303 0.24396718 0.38905823
0.5626523 0.49904215 0.73875093 0.6151827 0.32703632 0.6579038 0.5811328 0.5629554
0.2323871 0.113287166 0.5314754 0.40579715 0.61666125 0.26493797 0.7204104 0.25511184
0.32164735 0.6392235 0.57603574 0.6591123 0.699229 0.19471677 0.5923797 0.21699391
00000000: d18a da3e baa0 b33e 9ff3 ca3e 991e 7c3e
00000010: 8a4b e13e 8837 fb3d 4135 513f aea8 3c3e
00000020: 9461 173f 983f e33e 617a 8f3e e140 4b3f
00000030: 9a89 f43e bac2 293f 47d6 153f a4ed c43e
00000040: efc6 4b3f 5e5d d33e 49f4 2c3f 9355 5a3f
00000050: 3091 833f 32b7 f93e c0ff 563f 3af7 e83e
00000060: 425d 183f c924 cf3e a4f5 893b b473 443e
00000070: 5e9c a83e fb57 2e3f fc3a 153f ffb3 1d3f
00000080: 0b29 d83e 1e60 b33e 4fb2 223f 4a69 423e
00000090: e54a ed3e 2191 533e e24f 133f bd13 cd3e
000000a0: 6820 f03e 9580 e23e bf7e 5f3f f404 b83e
000000b0: 8929 9b3e 518e 403e 86ca 313f d2da ec3e
000000c0: 64db 3f3f ff7c 543e 5e81 2abb 7119 093e
000000d0: 7d26 a33e 4c3a 273f 96c6 193f 10c7 473f
000000e0: 2bc5 243e 3e72 3c3e 5563 473f 39c9 e53e
000000f0: 2d6d 163f 535c a03e 3238 273f 6223 683e
00000100: 743b 1b3f 5558 3f3f 03ba 3a3f 7bb7 b83e
00000110: 64ca 233f b2d1 3d3f 1d34 a53e ea1f c73e
00000120: 149e 4d3f 4b76 d23e 3ada 8c3e 5aac 173a
00000130: 8388 4b3e 2fdf f33e c0ec fb3e b47d 8d3e
00000140: be34 ce3e c679 333e af61 cd3e 2f9d 9c3e
00000150: 9839 2f3e 451d 7d3e e016 603f 1ea3 0f3f
00000160: 0452 1b3f 0567 653e c0d1 573e 6178 c03e
00000170: abd8 f43e d836 4f3e d3b4 793e 75cf a33e
00000180: 4e14 343f e6c4 8c3e ebd4 c93e a274 e93e
00000190: f3e9 ea3d f023 473e 88d2 793e a432 c73e
000001a0: fb09 103f 7482 ff3e c81e 3d3f 9d7c 1d3f
000001b0: 4e71 a73e 626c 283f 1fc5 143f d81d 103f
000001c0: e2f6 6d3e 1a03 e83d c60e 083f a5c4 cf3e
000001d0: 83dd 1d3f f3a5 873e d16c 383f 059e 823e
000001e0: f6ae a43e 27a4 233f 1477 133f 95bb 283f
000001f0: ac00 333f d563 473e 32a6 173f a733 5e3e

bn1.bias f4 [128]
-0.12927632 -0.16827013 -0.1685137 -0.29384208 -0.062995836 -0.07295223 -0.29261962 -0.15028597
-0.118335105 -0.040165354 -0.42892992 -0.5138698 -0.2785404 -0.24563174 -0.21463963 -0.19921985
-0.20219247 -0.009969965 -0.071469516 -0.2628004 -0.13320187 -0.116847835 -0.12765506 -0.36527425
-0.32912716 -0.15838027 0.04808564 -0.005642491 -0.19488639 -0.4788257 -0.27907726 -0.22895011
-0.13985613 -0.5046123 -0.49405804 0.08550801 -0.5307076 -0.17164782 -0.36901268 -0.08946229
-0.42909512 -0.24955648 0.09922844 -0.03593606 -0.07966441 -0.08412196 -0.22423986 -0.15729348
-0.36537778 -0.09750316 -0.011367842 -0.17406173 -0.21974105 -0.21670309 -0.13899301 -0.37482807
-0.17245807 -0.16735753 -0.008260749 -0.21056673 -0.46216735 -0.10981263 -0.04913818 -0.21716246
-0.07073121 -0.08383268 -0.32397792 -0.18575361 -0.39337814 -0.19288717 -0.15108539 -0.038749848
-0.40030918 -0.30046633 -0.27957156 -0.025295557 -0.21584809 -0.09886336 -0.055479903 -0.23657908
-0.39115584 0.028251328 -0.114562064 -0.19984603 -0.16845095 -0.28054982 -0.27683982 -0.12848282
-0.24274333 -0.2715357 -0.20136155 -0.21003574 -0.24289016 -0.17704706 -0.031627554 -0.23738217
-0.109523 -0.26150987 0.009644487 -0.025585221 -0.015279729 -0.2822493 -0.26013902 -0.22498924
-0.23304385 -0.15862258 -0.28043768 -0.1124931 -0.16862841 -0.0904983 -0.30561972 -0.115450576
-0.11003024 -0.2556346 -0.12063235 -0.14019546 -0.44173223 -0.21569574 -0.3807737 -0.004607907
-0.12508483 -0.23235625 -0.26612905 -0.33819738 -0.44044474 -0.06653218 -0.2204108 -0.13182639
00000000: 0361 04be 014f 2cbe db8e 2cbe 7872 96be
00000010: f603 81bd fb67 95bd 3dd2 95be 91e4 19be
00000020: ad59 f2bd 6d84 24bd b49c dbbe f98c 03bf
00000030: d99c 8ebe e386 7bbe 7eca 5bbe 4a00 4cbe
00000040: 8b0b 4fbe 1059 23bc 9c5e 92bd c68d 86be
00000050: 1266 08be eb4d efbd 02b8 02be 3a05 bbbe
00000060: 5b83 a8be 702e 22be 73f5 443d a5e4 b8bb
00000070: 4c90 47be a428 f5be 37e3 8ebe e671 6abe
00000080: 7236 0fbe 462e 01bf 2df5 fcbe d31e af3d
00000090: 74dc 07bf 72c4 2fbe 3bef bcbe 0138 b7bd
000000a0: 5bb2 dbbe bc8b 7fbe 4838 cb3d b131 13bd
000000b0: 1827 a3bd 2248 acbd 229f 65be 8b11 21be
000000c0: cc12 bbbe bdaf c7bd 2f40 3abc 3d3d 32be
000000d0: cc03 61be 6ae7 5dbe 2f54 0ebe 77e9 bfbe
000000e0: d998 30be c65f 2bbe 1858 07bc ce9e 57be
000000f0: 33a1 ecbe 72e5 e0bd 1e45 49bd d65f 5ebe
00000100: 86db 90bd 78b0 abbd 6fe0 a5be 3236 3ebe
00000110: dc68 c9be 3784 45be 21b6 1abe 29b8 1ebd
00000120: 53f5 ccbe b9d6 99be 0124 8fbe a138 cfbc
00000130: 4807 5dbe e078 cabd e53e 63bd c941 72be
00000140: 9445 c8be 546f e73c 849f eabd 70a4 4cbe
00000150: 687e 2cbe 3aa4 8fbe f3bd 8dbe 0091 03be
00000160: b591 78be ba06 8bbe b931 4ebe 9c13 57be
00000170: 33b8 78be d34b 35be e58b 01bd 5014 73be
00000180: 984d e0bd 9fe4 85be e903 1e3c 1998 d1bc
00000190: d457 7abc fb82 90be f130 85be 9463 66be
000001a0: 0ca3 6ebe f56d 22be 8795 8fbe c862 e6bd
000001b0: edac 2cbe 2c57 b9bd 307a 9cbe 5a71 ecbd
000001c0: 8957 e1bd 8ae2 82be 180e f7bd 668f 0fbe
000001d0: ba2a e2be 58df 5cbe c5f4 c2be edfd 96bb
000001e0: 3d16 00be ccee 6dbe 1142 88be 3528 adbe
000001f0: f981 e1be 0642 88bd 5eb3 61be 7ffd 06be

bn1.running_mean f4 [128]
5.13841 4.012998 3.1088228 6.4227967 -1.3846633 -4.4407783 -1.3771088 2.8159633
1.2946968 5.611876 -1.9104503 3.1427238 -1.6514229 2.107655 3.118764 -2.3948722
-4.715096 0.5759828 -4.4919276 -0.9546353 -4.0841208 -4.872841 -2.1649163 1.9390181
2.7082038 0.26417416 -1.3133321 -2.3728244 4.5142393 -2.7221863 -4.641872 3.9734282
0.68387324 -0.3726241 0.20967978 -0.07271006 -4.5755596 2.641723 2.2557328 7.1240582
0.010987035 3.8856401 2.3517435 -3.7598941 2.7488308 -5.022327 -3.8592427 -2.8563695
-2.2666988 6.870464 0.16372417 -1.0702133 -0.13709496 -1.1473708 -0.61661875 -0.28950804
0.8994386 1.181206 -3.1305342 -3.1028624 -1.0737524 -2.2467182 4.44987 3.3150716
1.3084521 -3.3587456 -5.6799045 -0.5516639 2.0292234 0.7340444 -2.340066 -2.7954159
3.7664318 -4.4469833 3.2214231 0.2970357 -4.3075886 -5.2895713 6.077531 -3.3246741
0.20542568 -2.7430604 7.9983463 8.826673 -2.820793 6.274392 -0.31653053 -0.7691326
-4.7572093 4.7482057 -3.1869426 -2.619394 0.7133203 0.14087231 -3.38812 6.9875474
-2.39127 0.24869919 -1.6308657 3.3026454 -5.5024004 -7.185726 -3.1114469 0.64384556
3.6292105 3.9778893 2.8005826 0.1565955 1.8777943 -2.831595 -4.368706 -2.6760406
-5.0108943 0.54151696 -2.1244571 3.2712743 -1.8853569 1.241065 2.386141 -2.1538002
-0.0062604193 -1.7373358 -2.0361946 -1.3157088 3.0348718 4.086273 0.738784 3.617195
00000000: db6d a440 7b6a 8040 f4f6 4640 8d87 cd40
00000010: a63c b1bf db1a 8ec0 1a45 b0bf be38 3440
00000020: a0b8 a53f 7d94 b340 a389 f4bf 6322 4940
00000030: d361 d3bf d2e3 0640 d499 4740 9645 19c0
00000040: 11e2 96c0 9c73 133f dfbd 8fc0 fb62 74bf
00000050: 1eb1 82c0 50ee 9bc0 fd8d 0ac0 bf31 f83f
00000060: 3653 2d40 d641 873e 441b a8bf 5bdc 17c0
00000070: a674 9040 4d38 2ec0 378a 94c0 a64c 7e40
00000080: 5112 2f3f 96c8 bebe 4cb6 563e 03e9 94bd
00000090: fc6a 92c0 fd11 2940 ed5d 1040 49f8 e340
000000a0: f702 343c 54ae 7840 f782 1640 1ba2 70c0
000000b0: d8ec 2f40 e7b6 a0c0 d5fd 76c0 c2ce 36c0
000000c0: 9811 11c0 d7da db40 4fa7 273e c0fc 88bf
000000d0: 9f62 0cbe 0cdd 92bf bada 1dbf 663a 94be
000000e0: 9c41 663f c231 973f ac5a 48c0 4c95 46c0
000000f0: b870 89bf 3bca 0fc0 5665 8e40 222a 5440
00000100: 5c7b a73f b0f5 56c0 c7c1 b5c0 d839 0dbf
00000110: ccde 0140 55ea 3b3f a4c3 15c0 18e8 32c0
00000120: 380d 7140 b04d 8ec0 cc2b 4e40 1015 983e
00000130: c4d7 89c0 2b44 a9c0 227b c240 76c7 54c0
00000140: 1c5b 523e 4d8e 2fc0 74f2 ff40 0d3a 0d41
00000150: df87 34c0 d2c7 c840 4a10 a2be e0e5 44bf
00000160: 0f3b 98c0 4df1 9740 def6 4bc0 27a4 27c0
00000170: 299c 363f d540 103e f5d6 58c0 fd99 df40
00000180: 910a 19c0 00ab 7e3e 35c0 d0bf 8b5e 5340
00000190: aa13 b0c0 78f1 e5c0 f221 47c0 10d3 243f
000001a0: fc44 6840 bd95 7e40 bf3c 3340 925a 203e
000001b0: 905b f03f da38 35c0 71cc 8bc0 4044 2bc0
000001c0: 3f59 a0c0 dba0 0a3f 1bf7 07c0 8f5c 5140
000001d0: 6053 f1bf 38db 9e3f 89b6 1840 ddd7 09c0
000001e0: 3424 cdbb 0561 debf 0351 02c0 2569 a8bf
000001f0: 573b 4240 c0c2 8240 f320 3d3f 1f80 6740

bn1.running_var f4 [128]
23.144245 16.695705 13.329601 27.380838 23.11424 13.776276 30.838001 26.05942
43.53143 11.293542 28.828499 10.000959 11.767966 73.59783 17.47741 17.533592
13.90049 11.690876 15.0156975 31.079315 15.200616 33.632256 36.632248 18.89099
35.571136 24.42646 58.154675 42.66884 26.256683 27.914883 32.21397 15.9597845
19.192883 15.373769 12.594143 26.310692 19.161684 53.289913 7.2610927 45.4687
29.657972 6.0669384 15.116408 19.360577 16.640064 29.853683 30.456167 40.037575
56.123478 64.55031 2.636695 10.523428 13.291045 15.044352 8.4020605 6.8352532
76.61597 14.109847 18.967999 15.071639 24.63781 32.811943 49.98149 29.085482
10.089833 11.69231 14.895129 21.411987 23.29048 17.025616 34.08975 10.368997
35.188602 18.250828 20.880102 2.212192 58.115105 35.191715 18.434887 22.2756
16.633158 33.730865 19.255816 36.635796 24.492409 21.55508 6.9420357 25.519842
16.924036 13.809447 42.9541 14.773424 15.749679 24.642895 49.82924 15.287695
13.491859 33.211876 77.96446 14.705274 38.983845 22.65735 19.617973 13.647711
9.169981 15.079169 13.641464 26.507269 48.736073 28.14982 12.460673 25.274946
27.104183 15.121661 13.742395 11.968985 18.51247 19.343563 37.69935 31.829138
22.333014 38.088585 16.37228 21.958942 23.127123 22.918453 46.61701 34.31904
00000000: 6a27 b941 ce90 8541 0c46 5541 f50b db41
00000010: f7e9 b841 a06b 5c41 3ab4 f641 b179 d041
00000020: 2f20 2e42 59b2 3441 c4a0 e641 ee03 2041
00000030: 9749 3c41 1732 9342 bcd1 8b41 cc44 8c41
00000040: 6868 5e41 d40d 3b41 4c40 7041 70a2 f841
00000050: b935 7341 6e87 0642 6c87 1242 bf20 9741
00000060: d848 0e42 6469 c341 639e 6842 e4ac 2a42
00000070: b00d d241 ae51 df41 1bdb 0042 475b 7f41
00000080: 068b 9941 f5fa 7541 9c81 4941 4c7c d241
00000090: 214b 9941 df28 5542 df5a e840 f3df 3542
000000a0: 8743 ed41 5c24 c240 cfdc 7141 76e2 9a41
000000b0: da1e 8541 58d4 ee41 3ba6 f341 7a26 2042
000000c0: 717e 6042 c219 8142 9cbf 2840 f65f 2841
000000d0: 1fa8 5441 aab5 7041 d76e 0641 65ba da40
000000e0: 603b 9942 efc1 6141 76be 9741 6f25 7141
000000f0: 3c1a c541 6e3f 0342 0ced 4742 11af e841
00000100: f56f 2141 b413 3b41 7352 6e41 c04b ab41
00000110: e752 ba41 7634 8841 e75b 0842 69e7 2541
00000120: 21c1 0c42 b201 9241 730a a741 8e94 0d40
00000130: de75 6842 51c4 0c42 a67a 9341 6e34 b241
00000140: b510 8541 68ec 0642 e90b 9a41 0e8b 1242
00000150: 74f0 c341 ce70 ac41 2825 de40 a328 cc41
00000160: 6d64 8741 7ff3 5c41 00d1 2b42 f25f 6c41
00000170: affe 7b41 a624 c541 2451 4742 669a 7441
00000180: a8de 5741 f6d8 0442 ceed 9b42 cd48 6b41
00000190: 75ef 1b42 4142 b541 9cf1 9c41 065d 5a41
000001a0: 3eb8 1241 4744 7141 7043 5a41 e30e d441
000001b0: bdf1 4242 d532 e141 eb5e 4741 1733 ca41
000001c0: 5ed5 d841 53f2 7141 dae0 5b41 f680 3f41
000001d0: 8a19 9441 9ebf 9a41 22cc 1642 13a2 fe41
000001e0: 03aa b241 b65a 1842 6efa 8241 eaab af41
000001f0: 5904 b941 fe58 b741 d177 3a42 b246 0942

bn2.weight f4 [128]
0.8242486 0.5977472 1.218149 0.77678144 1.0567272 0.9348371 0.9210352 0.6167382
1.6208718 0.9347015 1.1462448 0.60892206 1.0337399 0.9751411 0.85057145 1.2544168
0.9511522 0.8244523 0.9227023 0.97622305 0.97160304 0.8562865 0.75051814 0.68991196
0.4509622 1.105768 1.1348486 0.5093207 1.038198 1.1618025 1.136216 0.7140075
1.1184205 1.0666769 1.1270353 0.5922291 0.8423005 0.89786285 0.93504953 0.8720876
1.202297 1.3676618 1.0609058 0.9535759 0.95495456 0.82866675 0.82196856 0.8557583
0.34197393 0.6018442 1.3712853 1.2032505 0.9398977 0.9408181 0.8840652 0.3669546
0.70102215 0.9554317 1.3022394 1.0219305 0.6351661 0.68907434 0.8487614 1.1756953
1.1204243 0.6909862 1.0437554 0.7013828 0.64107084 1.221577 0.83540887 0.90358365
0.3863743 1.1835921 1.2578382 1.0608978 0.8074061 0.5587135 0.6287345 1.383157
1.1217034 1.2375293 1.2008778 1.506048 1.1128513 0.45955685 0.8711534 0.551241
1.0610794 1.0515988 0.8518904 0.9755709 0.8013592 0.49775907 0.56511515 1.1843629
0.7257167 1.0972162 0.8240987 0.73142624 0.9123983 1.15799 1.0581757 0.42599362
1.1846149 0.75850993 0.998901 1.0968041 1.2166924 1.0412925 1.2297349 0.5321399
1.113269 1.4872786 0.72353375 0.943575 0.7333912 0.5154289 1.1047044 0.63115674
1.1748194 1.1883303 1.4234653 0.68482274 0.574765 1.0206429 1.3983419 0.6845947
00000000: f501 533f f605 193f 4eec 9b3f 26db 463f
00000010: d642 873f 7c51 6f3f f6c8 6b3f 8ee2 1d3f
00000020: ba78 cf3f 9948 6f3f 26b8 923f 51e2 1b3f
00000030: 9751 843f d9a2 793f 0dbf 593f bb90 a03f
00000040: b67e 733f 4e0f 533f 3836 6c3f c1e9 793f
00000050: faba 783f 9835 5b3f f521 403f 129e 303f
00000060: 84e4 e63e ce89 8d3f b842 913f d762 023f
00000070: ace3 843f f2b5 943f 876f 913f 32c9 363f
00000080: 6728 8f3f de88 883f b142 903f 549c 173f
00000090: 01a1 573f 57da 653f 685f 6f3f 2241 5f3f
000000a0: dee4 993f 8b0f af3f c3cb 873f 8d1d 743f
000000b0: e777 743f 8123 543f 886c 523f fa12 5b3f
000000c0: 3517 af3e 7612 1a3f 4786 af3f 1d04 9a3f
000000d0: 239d 703f 74d9 703f 1952 623f 79e1 bb3e
000000e0: 3076 333f 2c97 743f c8af a63f 9ece 823f
000000f0: 3f9a 223f 2d67 303f 6d48 593f 2f7d 963f
00000100: 106a 8f3f 79e4 303f c799 853f d38d 333f
00000110: 381d 243f a35c 9c3f 5bdd 553f 4251 673f
00000120: dad2 c53e f27f 973f d800 a13f 80cb 873f
00000130: 2bb2 4e3f d907 0f3f bff4 203f 4a0b b13f
00000140: fa93 8f3f 5c67 9e3f 5db6 993f 2ec6 c03f
00000150: e971 8e3f 094b eb3e e903 5f3f 211e 0d3f
00000160: 73d1 873f ca9a 863f 7d15 5a3f 04bf 793f
00000170: e025 4d3f 47da fe3e 63ab 103f 3499 973f
00000180: 92c8 393f 9571 8c3f 22f8 523f c03e 3b3f
00000190: ef92 693f 0439 943f 4d72 873f d61b da3e
000001a0: 76a1 973f b52d 423f fab7 7f3f 1464 8c3f
000001b0: 94bc 9b3f 1349 853f f467 9d3f 523a 083f
000001c0: 997f 8e3f 255f be3f 8239 393f 228e 713f
000001d0: 87bf 3b3f 26f3 033f f466 8d3f 7d93 213f
000001e0: 7b60 963f 351b 983f 1c34 b63f 8b50 2f3f
000001f0: cd23 133f 6da4 823f defc b23f 9941 2f3f

bn2.bias f4 [128]
-0.0035241854 -0.013472873 0.15642026 -0.19683653 0.0436983 0.104116604 -0.21070203 -0.048173975
-0.059146583 -0.08479172 -0.047577094 -0.11746746 -0.02923585 -0.32356286 -0.13995744 -0.53988093
-0.077239655 0.030603595 -0.18704273 -0.29420048 -0.03092681 -0.40528458 -0.1818509 -0.09879011
-0.055308376 -0.029444711 -0.110168286 -0.36326054 -0.0904813 -0.31192058 -0.2221409 -0.22906649
-0.14626808 -0.1798703 -0.15329082 -0.013671013 -0.19291872 -0.07279353 -0.30598927 -0.2168686
-0.3317398 -0.062129177 -0.26792768 -0.082838014 -0.11025001 0.06536354 -0.10102232 0.0743617
0.00658375 -0.009836184 -0.11122517 -0.27057785 -0.18204048 -0.16382079 -0.11989829 -0.0030988401
-0.13204041 -0.23334968 -0.055268675 -0.24992983 0.0005641106 -0.31412688 -0.2012307 -0.13271149
-0.15269561 -0.17746414 -0.16751668 -0.13052936 -0.08167274 -0.11558608 -0.009308435 0.05228008
-0.06620462 -0.41303703 -0.1580297 -0.108332165 0.01446571 -0.1544295 -0.16730723 -0.17951925
-0.1325876 -0.25705305 -0.52203393 -0.537956 -0.29951566 -0.078087196 -0.46344325 -0.32579386
-0.050203204 -0.45866576 -0.14663643 -0.2446027 -0.21115895 0.03804406 -0.057891883 -0.43973672
-0.10275066 -0.04553699 -0.14365184 -0.1999737 -0.00198156 -0.22731416 -0.08658697 -0.086776935
-0.29478863 -0.29997456 -0.0396815 0.015736176 0.10575222 -0.37814707 0.008152664 -0.30017048
-0.1825921 -0.06654753 0.012640393 -0.4064766 -0.17508447 -0.076046295 -0.04528363 -0.30395484
-0.4270508 -0.0153929265 -0.4488419 -0.0886505 -0.20858614 -0.14378442 -0.17959154 -0.30938384
00000000: 05f6 66bb 53bd 5cbc a22c 203e 848f 49be
00000010: fdfc 323d 163b d53d 46c2 57be 1352 45bd
00000020: b043 72bd 48a7 adbd 33e0 42bd c892 f0bd
00000030: 0580 efbc 08aa a5be 0151 0fbe a335 0abf
00000040: d32f 9ebd 64b4 fa3c 2188 3fbe 72a1 96be
00000050: 395a fdbc 7681 cfbe 1f37 3abe 7852 cabd
00000060: 098b 62bd 0936 f1bc e99f e1bd 49fd b9be
00000070: 434e b9bd 0eb4 9fbe e778 63be 6890 6abe
00000080: 4dc7 15be ec2f 38be 45f8 1cbe 62fc 5fbc
00000090: 7c8c 45be c614 95bd a0aa 9cbe cd12 5ebe
000000a0: cdd9 a9be 2a7b 7ebd d12d 89be faa6 a9bd
000000b0: c2ca e1bd 52dd 853d cae4 cebd f24a 983d
000000c0: 7fbc d73b f227 21bc 06ca e3bd 2e89 8abe
000000d0: d268 3abe a3c0 27be 3c8d f5bd e915 4bbb
000000e0: 9a35 07be 38f3 6ebe 6861 62bd 9bed 7fbe
000000f0: d2e0 133a 3dd5 a0be 6c0f 4ebe 85e5 07be
00000100: 3d5c 1cbe 29b9 35be 7e89 2bbe 7da9 05be
00000110: 0a44 a7bd 65b8 ecbd 6882 18bc a323 563d
00000120: 4a96 87bd 9779 d3be 8ad2 21be 41dd ddbd
00000130: 9601 6d3c c422 1ebe 9652 2bbe e5d3 37be
00000140: 0bc5 07be 759c 83be 04a4 05bf 7cb7 09bf
00000150: 1e5a 99be 2eec 9fbd 6f48 edbe 74ce a6be
00000160: e0a1 4dbd 3dd6 eabe dc27 16be 2179 7abe
00000170: 0d3a 58be 17d4 1b3d 0a20 6dbd 2c25 e1be
00000180: f06e d2bd ff84 3abd 7819 13be e8c5 4cbe
00000190: 0fdd 01bb 0bc5 68be 8254 b1bd 1bb8 b1bd
000001a0: 89ee 96be 4496 99be 1289 22bd 27e9 803c
000001b0: 9f94 d83d 7e9c c1be c092 053c f2af 99be
000001c0: 6cf9 3abe 124a 88bd a719 4f3c b31d d0be
000001d0: 5849 33be 29be 9bbd 547b 39bd f89f 9bbe
000001e0: 67a6 dabe 9d32 7cbc 9bce e5be 658e b5bd
000001f0: 9b97 55be 393c 13be d8e6 37be 8f67 9ebe

bn2.running_mean f4 [128]
-0.42933658 -0.06848076 0.07786274 0.13471791 -0.5493174 -0.31051996 0.44562748 -0.04279794
0.25440317 -0.033703774 0.55688363 0.24417014 -0.08384066 0.13882774 -0.06899457 -0.08232442
-0.4952286 -0.5495463 0.26602608 0.55519557 -0.35518545 -0.20369375 -0.24566402 -0.116657555
-0.2208635 -0.2080967 0.053092152 0.64686924 0.52131325 -0.0030241385 -0.36836475 -0.029712066
0.58510387 0.11652614 -0.072435856 0.08205951 -0.3443236 -0.46826136 0.1822806 0.30115363
-0.44509923 -0.06644881 0.39355928 0.07717644 -0.02103641 -0.39357653 0.5479761 -0.77765214
-0.29755637 -0.5834701 0.25576615 0.5681245 -0.049586046 0.32807577 0.7040146 0.2624457
-0.3364951 0.24541117 -0.41174307 0.25015056 0.17972262 0.15175328 0.52509147 -0.07166085
-0.016225958 0.2884732 -0.38511896 -0.082208365 -0.48964155 0.45402694 -0.26835376 -0.41452092
-0.3400236 -0.015894385 -0.13198546 -0.4430522 -0.16612358 -0.64722145 0.15127577 -0.35873
-0.22351302 0.21877044 0.3815158 0.33338806 0.7330068 -0.08792066 0.55676943 0.2593311
-0.36154202 0.43944559 -0.09419861 -0.31382388 0.07418702 -0.10308224 -0.75216615 0.13713005
0.21947184 0.13157286 0.21179229 0.10637047 0.04962381 0.34344542 -0.013826707 -0.7627976
0.6221532 0.5115762 -0.22979353 0.050576493 -0.75217676 0.18443362 -0.61497027 0.21140872
0.45851815 -0.33810326 0.6485318 0.040421557 -0.2530426 -0.063567564 -0.5269608 0.26599908
0.26065463 0.033707324 -0.04580219 0.46525264 0.30224308 -0.29506594 -0.14251412 0.32180923
00000000: 01d2 dbbe a43f 8cbd 8076 9f3d 7ef3 093e
00000010: 11a0 0cbf 79fc 9ebe 4929 e43e e54c 2fbd
00000020: 2241 823e f80c 0abd ed8f 0e3f bd07 7a3e
00000030: a7b4 abbd dc28 0e3e 064d 8dbd b599 a8bd
00000040: 9a8e fdbe 11af 0cbf 9234 883e 4c21 0e3f
00000050: deda b5be 1895 50be 598f 7bbe 28ea eebd
00000060: 0b2a 62be 4d17 55be 2877 593d 3999 253f
00000070: c974 053f a030 46bb 4e9a bcbe b866 f3bc
00000080: 5ec9 153f 42a5 ee3d 4059 94bd d10e a83d
00000090: 2f4b b0be f4bf efbe c4a7 3a3e cf30 9a3e
000000a0: 0ce4 e3be 5016 88bd 9a80 c93e ae0e 9e3d
000000b0: 8d54 acbc dd82 c9be 2948 0c3f 3614 47bf
000000c0: 4f59 98be 4c5e 15bf c8f3 823e 9b70 113f
000000d0: bd1a 4bbd 8cf9 a73e 4d3a 343f 485f 863e
000000e0: 1649 acbe 114d 7b3e fdcf d2be bc13 803e
000000f0: 3509 383e 3665 1b3e 656c 063f ecc2 92bd
00000100: 4dec 84bc c2b2 933e 502e c5be dc5c a8bd
00000110: 4cb2 fabe 3876 e83e aa65 89be 163c d4be
00000120: 9317 aebe f134 82bc 3227 07be bdd7 e2be
00000130: 4d1c 2abe 4eb0 25bf 09e8 1a3e 75ab b7be
00000140: 99e0 64be 5c05 603e 0a56 c33e d7b1 aa3e
00000150: 55a6 3b3f bf0f b4bd 7188 0e3f 0cc7 843e
00000160: 091c b9be 03ff e03e 33eb c0bd 86ad a0be
00000170: 5def 973d c81c d3bd f68d 40bf d26b 0c3e
00000180: 3abd 603e 09bb 063e 14e0 583e c3d8 d93d
00000190: 5642 4b3d 14d8 af3e 6a89 62bc b446 43bf
000001a0: 6f45 1f3f a8f6 023f ff4e 6bbe 4c29 4f3d
000001b0: a88e 40bf 2bdc 3c3e b16e 1dbf 877b 583e
000001c0: e4c2 ea3e df1b adbe 2e06 263f 1391 253d
000001d0: cd8e 81be b62f 82bd e7e6 06bf 0831 883e
000001e0: 8674 853e b110 0a3d 149b 3bbd 9835 ee3e
000001f0: 9bbf 9a3e e212 97be 39ef 11be 2ec4 a43e

bn2.running_var f4 [128]
0.21046726 0.16911222 0.15638547 0.16136299 0.4012518 0.2953659 0.17190367 0.12691548
0.3335803 0.26463616 0.24631839 0.13031603 0.22314706 0.1298811 0.2821503 0.1804381
0.1532545 0.1534775 0.13017946 0.23966527 0.10480643 0.18844284 0.14268926 0.08916762
0.26637027 0.19751972 0.17007987 0.19044574 0.3785162 0.14550556 0.18711074 0.11696129
0.17242983 0.16976666 0.19097312 0.46078232 0.22585018 0.4249277 0.11073704 0.15311232
0.12759101 0.36318836 0.28790617 0.22696263 0.15638259 0.15865384 0.09168138 0.25078472
0.49885246 0.41475412 0.30044308 0.21233007 0.3465473 0.20392872 0.12638405 0.17944397
0.121360466 0.22648026 0.29444337 0.38609883 0.26839578 0.11142154 0.29329285 0.23919772
0.102033935 0.09003377 0.3091751 0.15474959 0.18071525 0.2158045 0.29045907 0.22720939
0.30869454 0.16536763 0.1634176 0.4283138 0.2587783 0.18223211 0.16493937 0.19531919
0.24184753 0.12995093 0.14434572 0.18032496 0.297968 0.33926246 0.21096714 0.15224059
0.24966596 0.36517197 0.22604063 0.13373168 0.10499809 0.27244014 0.15039249 0.15294759
0.3070658 0.092362694 0.18537156 0.19525579 0.3711138 0.14933585 0.13124843 0.17153135
0.15687133 0.12798171 0.29892102 0.2453684 0.46677634 0.17617714 0.35621133 0.08337771
0.31033772 0.286014 0.16644765 0.08579849 0.3234417 0.19442059 0.22770788 0.114338286
0.12659158 0.14906353 0.22119874 0.24335521 0.10708266 0.19176154 0.16457382 0.12312868
00000000: bb84 573e c12b 2d3e 8323 203e 573c 253e
00000010: e070 cd3e 333a 973e 8407 303e 22f6 013e
00000020: 09cb aa3e 647e 873e e33a 7c3e 9171 053e
00000030: aa80 643e 8dff 043e 0176 903e c4c4 383e
00000040: bfee 1c3e 3529 1d3e c44d 053e d06a 753e
00000050: c1a4 d63d 29f7 403e 221d 123e 839d b63d
00000060: af61 883e 9c42 4a3e 6b29 2e3e 3504 433e
00000070: e0cc c13e 69ff 143e f599 3f3e 6789 ef3d
00000080: 7291 303e 50d7 2d3e 758e 433e a9eb eb3e
00000090: 4545 673e 2090 d93e 1aca e23d 7ac9 1c3e
000000a0: 38a7 023e d3f3 b93e 7068 933e e468 683e
000000b0: c222 203e 2776 223e 73c3 bb3d db66 803e
000000c0: 9769 ff3e a75a d43e add3 993e 0e6d 593e
000000d0: a66e b13e b1d2 503e d26a 013e 29c0 373e
000000e0: d68b f83d 71ea 673e 48c1 963e bfae c53e
000000f0: 2c6b 893e fa30 e43d 7b2a 963e 3ff0 743e
00000100: 2bf7 d03d a063 b83d 334c 9e3e ad76 1e3e
00000110: 6b0d 393e dbfb 5c3e 0db7 943e 94a9 683e
00000120: 360d 9e3e 2256 293e f156 273e f24b db3e
00000130: 977e 843e 0e9b 3a3e dee5 283e c101 483e
00000140: e1a6 773e db11 053e 5dcf 133e 1ba7 383e
00000150: 438f 983e cfb3 ad3e c507 583e f5e4 1b3e
00000160: 6fa8 7f3e d2f7 ba3e 3277 673e f5f0 083e
00000170: 3d09 d73d 467d 8b3e 7d00 1a3e 4b9e 1c3e
00000180: bb37 9d3e a728 bd3d 0bd2 3d3e 22f1 473e
00000190: a102 be3e 7feb 183e fd65 063e eaa5 2f3e
000001a0: e1a2 203e a30d 033e 2d0c 993e db41 7b3e
000001b0: 4ffd ee3e c867 343e 5561 b63e efc1 aa3d
000001c0: 96e4 9e3e 6d70 923e 4171 2a3e 1eb7 af3d
000001d0: 279a a53e 3116 473e 412c 693e 312a ea3d
000001e0: 39a1 013e 1ca4 183e ec81 623e 1c32 793e
000001f0: 274e db3d 235d 443e 0a86 283e e42a fc3d

fc1.weight f4 [128, 24]
0.017043864 0.06521175 -0.035277534 0.08522791 0.1790891 0.9277033 0.06590814 0.08705436
0.065274775 0.19981934 -0.05126612 -0.03600821 0.04163748 0.6683508 0.018324947 0.012854289
0.051138647 0.2068282 -0.064689346 -0.08952539 0.06229926 0.53999215 0.010054873 -0.040024683
-0.22360905 -0.06742545 0.0072061764 0.11701319 0.08681558 0.39395782 0.00041442612 0.12256085
-0.06610409 -0.1558189 0.0037554738 -0.28175396 0.13067213 0.21279779 0.052671537 -0.27052146
0.02899667 -0.121295564 0.010991449 -0.15461087 0.25349247 0.28010285 0.0022987719 -0.16092691
-0.09812112 0.0929851 0.033460807 0.030514477 0.057650845 -0.119446464 0.07410825 0.064902484
-0.10738771 -0.13035426 -0.016828172 -0.03919336 0.21994212 0.2357193 -0.01949667 -0.068898566
-0.19574074 -0.2713649 0.017410351 -0.25269783 0.2267352 0.196109 0.007779786 -0.26804268
0.1157195 -0.14748585 0.02769009 -0.06437716 0.044364974 0.5553174 0.01615321 -0.01944746
-0.057786915 -0.181961 -0.022043433 -0.07481397 0.0054729017 0.38430446 0.04941067 -0.060475387
-0.107377924 -0.21514115 0.12987253 0.07848982 0.08231659 0.49462387 0.046522975 0.13747299
0.08479386 -0.14871494 -0.03476117 -0.2929174 0.17196654 0.19954643 -0.025881628 -0.2412998
0.0358933 -0.24749854 0.06748257 -0.017194891 0.12602513 0.0045731156 0.15309234 -0.08011745
0.09295169 -0.067390986 -0.10063363 -0.051401544 0.089231 -0.22205351 -0.003323684 -0.023755465
0.118707635 0.07800045 0.010286854 0.02816269 -0.03025811 -0.24790289 0.06077448 -0.05417352
0.14994065 -0.034380104 -0.022963509 -0.079803154 -0.18736136 -0.4441559 0.042702843 -0.16242097
-0.04259776 0.079216376 -0.118893184 0.119764686 -0.013965226 -0.24850413 -0.016959801 0.008541588
0.14765938 0.2917237 -0.04377163 0.11347828 -0.08638519 -0.022752134 -0.06668155 0.005822223
-0.0014557666 0.08954414 -0.0646842 0.1786323 -0.25752783 -0.056987595 0.054594986 0.06936855
-0.11158901 -0.1024588 0.00778314 -0.1938477 -0.228428 -0.05504142 -0.09548588 -0.12584709
-0.027832098 -0.31942248 0.02355635 0.333356 0.044283 0.00094316364 -0.060557652 0.29538488
-0.06499947 -0.30691454 -0.074606575 0.36692443 -0.026275387 0.08552513 -0.014964812 0.2975907
0.13623375 -0.23252141 0.116891816 -0.00010992716 -0.107322104 0.23216666 0.13257283 -0.0253624
0.05241323 -0.3349153 -0.04060531 -0.0004994663 0.11437721 0.0074077244 0.07902805 0.0873908
0.17581657 -0.29139155 0.19005911 -0.15398926 0.12444717 -0.08120087 0.12974288 -0.089170836
-0.091791786 -0.35395607 -0.03796275 0.1263309 0.12153364 0.06539382 -0.026001377 0.092392206
-0.22282575 -0.11007887 -0.00088866893 0.25207046 0.12411271 0.08351196 0.0378159 0.22714925
-0.18488635 -0.12540454 0.035628337 0.051524322 0.075656526 0.24402337 0.028316835 0.005186272
-0.07989841 -0.09477972 0.026138652 -0.071148805 0.13836947 0.51525277 -0.054950967 0.003383538
0.0050449637 -0.018468153 0.044045795 -0.39667073 -0.102572046 -0.26757827 0.038257826 -0.2586276
-0.13264078 -0.08787616 0.02880794 -0.15817948 -0.08565047 -0.2604056 -0.074807346 -0.2529156
00000000: 939f 8b3c bd8d 853d 2d7f 10bd f88b ae3d
00000010: 2263 373e f77d 6d3f d9fa 863d 8e49 b23d
00000020: c8ae 853d 719d 4c3e 6cfc 51bd 587d 13bd
00000030: 108c 2a3d 0a19 2b3f 331e 963c cc9a 523c
00000040: c276 513d c6ca 533e d97b 84bd 1659 b7bd
00000050: 822d 7f3d ed3c 0a3f 32bd 243c ecf0 23bd
00000060: c5f9 64be 5b16 8abd ca21 ec3b 9da4 ef3d
00000070: 5ecc b13d d7b4 c93e 5547 d939 2f01 fb3d
00000080: 9561 87bd fd8e 1fbe 651e 763b 0e42 90be
00000090: eace 053e aae7 593e 1cbe 573d ca81 8abe
000000a0: 6d8a ed3c cf69 f8bd 7a15 343c 5052 1ebe
000000b0: c4c9 813e a469 8f3e fea6 163b 06ca 24be
000000c0: baf3 c8bd f96e be3d 330e 093d 7ff9 f93c
000000d0: 4b23 6c3d 59a0 f4bd 11c6 973d 98eb 843d
000000e0: 16ee dbbd 967b 05be 3cdb 89bc 3789 20bd
000000f0: 8238 613e 6660 713e 7bb7 9fbc b11a 8dbd
00000100: 4370 48be 57f0 8abe 27a0 8e3c 9c61 81be
00000110: 462d 683e ccd0 483e 93ed fe3b e43c 89be
00000120: 58fe ec3d 8806 17be 54d6 e23c 2cd8 83bd
00000130: 0cb8 353d 4829 0e3f bd53 843c 4850 9fbc
00000140: f9b1 6cbd fc53 3abe 6e94 b4bc 1138 99bd
00000150: 0756 b33b 8ec3 c43e d862 4a3d 0ab5 77bd
00000160: f5e8 dbbd f64d 5cbe 4efd 043e 45bf a03d
00000170: 9a95 a83d 573f fd3e e08e 3e3d b8c5 0c3e
00000180: 67a8 ad3d bb48 18be bb61 0ebd 45f9 95be
00000190: ff17 303e e655 4c3e b505 d4bc 4b17 77be
000001a0: da04 133d 4270 7dbe 4d34 8a3d 4ddc 8cbc
000001b0: bb0c 013e 13da 953b 3dc4 1c3e 9e14 a4bd
000001c0: 755d be3d 4904 8abd 0119 cebd 6d8a 52bd
000001d0: bebe b63d ff61 63be 2ad2 59bb d29a c2bc
000001e0: fd1c f33d b3be 9f3d 318a 283c 71b5 e63c
000001f0: dbdf f7bc 41da 7dbe a9ee 783d 0ee5 5dbd
00000200: 0b8a 193e 27d2 0cbd f81d bcbc d66f a3bd
00000210: a8db 3fbe 6768 e3be 2de9 2e3d af51 26be
00000220: fd7a 2ebd 323c a23d 457e f3bd 3047 f53d
00000230: 67ce 64bc de77 7ebe 48ef 8abc 04f2 0b3c
00000240: 0534 173e cf5c 953e e149 33bd 4d67 e83d
00000250: b8ea b0bd af62 babc 5690 88bd 59c8 be3b
00000260: 6ccf beba eb62 b73d 2679 84bd 63eb 363e
00000270: b0da 83be d36b 69bd fe9e 5f3d 1911 8e3d
00000280: c788 e4bd ebd5 d1bd b609 ff3b 0380 46be
00000290: 08e9 69be 1d73 61bd 1a8e c3bd 0fde 00be
000002a0: 2400 e4bc 588b a3be 3ff9 c03c a3ad aa3e
000002b0: 1762 353d a43e 773a 4d0b 78bd b03c 973e
000002c0: 711e 85bd e723 9dbe 55cb 98bd 85dd bb3e
000002d0: 7b3f d7bc cd27 af3d f92e 75bc cf5d 983e
000002e0: dc80 0b3e 181a 6ebe fa64 ef3d b288 e6b8
000002f0: b1cb dbbd 19bd 6d3e 2cc1 073e cfc4 cfbc
00000300: 41af 563d 057a abbe c151 26bd 9eee 02ba
00000310: 993e ea3d 7fbc f23b 75d9 a13d f3f9 b23d
00000320: 4209 343e 4631 95be db9e 423e 5caf 1dbe
00000330: 28de fe3d a44c a6bd 51db 043e 339f b6bd
00000340: 55fd bbbd bb39 b5be d47e 1bbd e35c 013e
00000350: a1e6 f83d 32ed 853d d700 d5bc 2038 bd3d
00000360: 6f2c 64be 0871 e1bd 90f5 68ba 610f 813e
00000370: ce2e fe3d 5208 ab3d d8e4 1a3d d099 683e
00000380: d952 3dbe 0c6a 00be 05ef 113d 2b0b 533d
00000390: cff1 9a3d 43e1 793e b5f8 e73c 9af1 a93b
000003a0: c7a1 a3bd df1b c2bd ba20 d63c 77b6 91bd
000003b0: bab0 0d3e 9be7 033f 4414 61bd 59be 5d3b
000003c0: 3950 a53b 864a 97bc 5d69 343d 6d18 cbbe
000003d0: 4b11 d2bd 0500 89be 3db4 1c3d d66a 84be
000003e0: fcd2 07be 6bf8 b3bd a1fe eb3c cdf9 21be
000003f0: 8369 afbd e253 85be 9834 99bd 277e 81be

fc1.bias f4 [128]
0.087893 0.027402157 -0.13760713 0.14730804 -0.031718064 -0.052852094 0.16629857 -0.103983045
0.041475758 -0.17363851 0.104571156 0.081085406 -0.16785169 0.11392106 0.022481224 -0.1054109
0.17407832 0.087656096 0.07173826 -0.075821355 -0.11186644 -0.1098827 0.07667952 0.05499298
-0.122152634 0.1857382 0.11892629 -0.07794079 0.105616815 -0.0865173 0.06406324 0.16988942
-0.1805631 -0.10148521 -0.011542535 0.030444488 -0.16785245 -0.13430603 -0.019555291 -0.029432556
0.04404341 0.025965074 0.04186505 0.013529407 0.023465047 -0.0117874695 0.0733226 0.13932268
-0.101860486 -0.10574816 0.08959317 -0.1476116 0.132657 0.09426798 0.029522913 -0.08860026
0.006118563 -0.16139302 -0.18363513 0.19222237 -0.18308873 -0.169378 -0.079268746 0.011457499
0.04673231 -0.10055731 -0.019756883 -0.045582406 0.17079549 0.17716983 0.083903864 -0.0012540198
0.15307118 -0.16480212 0.08529257 -0.11864876 0.15918775 -0.18044052 0.07581098 -0.16782641
0.11912864 0.037318822 0.17515549 -0.15395424 0.13137534 -0.13622092 -0.110173136 0.077638656
-0.034346007 -0.16117857 -0.17367381 -0.05300402 0.05652405 0.17930594 0.1501157 0.003350063
-0.12522118 -0.18198666 0.18235913 -0.11381655 -0.035900876 -0.16471212 -0.14109613 0.039577354
-0.050472118 0.023362506 -0.0015331939 0.010373836 -0.04044615 -0.007888792 0.08872752 0.14909874
0.17252873 -0.16652781 -0.172535 -0.030518338 -0.015600896 0.11267935 0.19214505 0.052413575
-0.14498034 -0.023102049 0.13199961 0.0753034 -0.14437 0.011911657 -0.19709091 -0.082252204
00000000: 3f01 b43d 7d7a e03c e2e8 0cbe ebd7 163e
00000010: cdea 01bd 707b 58bd 2c4a 2a3e 10f5 d4bd
00000020: 7ce2 293d 4bce 31be 6729 d63d 1b10 a63d
00000030: 50e1 2bbe 724f e93d 8b2a b83c ace1 d7bd
00000040: 9641 323e 0a85 b33d 82eb 923d 3a48 9bbd
00000050: 3b1a e5bd 2e0a e1bd 270a 9d3d 5240 613d
00000060: 292b fabd 2832 3e3e a08f f33d 6c9f 9fbd
00000070: a14d d83d fb2f b1bd 9733 833d 7ef7 2d3e
00000080: 89e5 38be 7ad7 cfbd e71c 3dbc b866 f93c
00000090: 83e1 2bbe 8587 09be 6b32 a0bc 8b1c f1bc
000000a0: dd66 343d b5b4 d43c b07a 2b3d 72aa 5d3c
000000b0: c539 c03c 3b20 41bc 292a 963d 9baa 0e3e
000000c0: 3b9c d0bd 7e92 d8bd a07c b73d 7f27 17be
000000d0: 3dd7 073e 920f c13d 09da f13c 0e74 b5bd
000000e0: 3a7e c83b 3644 25be d90a 3cbe f1d5 443e
000000f0: 9d7b 3bbe 6d71 2dbe a757 a2bd 3cb8 3b3c
00000100: 616a 3f3d fef0 cdbd 30d9 a1bc 9eb4 3abd
00000110: 03e5 2e3e 026c 353e cad5 ab3d ec5d a4ba
00000120: b1be 1c3e e3c1 28be dfad ae3d 1ffe f2bd
00000130: 1d02 233e 66c5 38be c942 9b3d b0da 2bbe
00000140: b7f9 f33d 9fdb 183d f65b 333e 2ea6 1dbe
00000150: 4287 063e 7f7d 0bbe 74a2 e1bd 0401 9f3d
00000160: 66ae 0cbd ff0b 25be 8cd7 31be be1a 59bd
00000170: c385 673d fa9b 373e eeb7 193e bb8c 5b3b
00000180: fb39 00be b65a 3abe 5abc 3a3e a718 e9bd
00000190: cc0c 13bd 4baa 28be 817b 10be dd1b 223d
000001a0: dabb 4ebd ba62 bf3c 73f5 c8ba 06f7 293c
000001b0: ddaa 25bd fe3f 01bc c6b6 b53d 57ad 183e
000001c0: 5fab 303e 4486 2abe 04ad 30be 9801 fabc
000001d0: e79a 7fbc 6ec4 e63d acc1 443e 9eaf 563d
000001e0: ba75 14be 8240 bdbc e82a 073e ab38 9a3d
000001f0: bbd5 13be 1c29 433c 33d2 49be d873 a8bd

fc2.weight f4 [128, 128]
-0.009872672 -0.24624173 -0.21186782 0.2069038 0.0107331555 -0.050865635 0.11002213 -0.13596757
-0.046369374 -0.12467249 -0.101493195 -0.029772224 -0.21789101 -0.09429953 -0.13701935 -0.13605686
-0.0099133635 0.12501548 -0.0021817232 -0.032074824 0.21347728 0.19758993 0.10874487 -0.012394497
-0.009572332 -0.18818739 -0.061678484 0.10529146 -0.11509045 -0.113049485 0.02817063 -0.041806147
0.05117358 -0.32588652 -0.0923368 -0.15274104 -0.0013535607 -0.04720974 -0.038253207 -0.103914276
0.029527979 -0.04570468 -0.09043814 0.21436225 -0.032905523 0.051375613 -0.0011238899 0.06856567
0.02024226 -0.15244266 -0.07856838 0.09521454 0.26990914 -0.16251877 -0.21692841 0.16954562
-0.09071288 0.19207034 0.16979566 -0.16916001 -0.12947324 -0.13231367 -0.12218723 -0.27860388
-0.117815495 -0.15321214 -0.0028030903 -0.0640822 -0.00019857331 -0.2000078 -0.014522057 -0.10777941
0.06261546 -0.3225299 0.009967866 -0.03144985 0.11886356 0.06850656 0.0999653 0.19933064
0.16028276 -0.11572155 -0.28456017 -0.13629164 0.098652475 0.01844334 0.0012496755 -0.09668168
0.051743686 -0.051954716 0.08981716 0.06546827 -0.20595631 0.036485925 0.118836716 0.101060025
-0.31550345 0.06027163 -0.034829274 -0.17260483 0.023066249 0.003575834 -0.17552172 -0.25834498
-0.098135725 -0.150004 0.03534167 0.1325576 0.02141401 0.07972652 -0.12801258 0.024018422
-0.1650712 -0.27969778 0.0024394684 -0.0019883716 -0.16361554 -0.0772345 0.07153012 -0.1593287
-0.040261712 0.09624854 -0.013883004 -0.0217276 -0.021935254 0.04388325 0.043327432 -0.00023579304
0.0056586973 -0.15128049 -0.114742406 0.008298128 -0.01502306 0.09183922 0.108424455 0.050567385
-0.040498633 0.0042724535 0.109870546 -0.14965548 0.03452257 -0.039711434 -0.121018425 0.13449994
0.01395965 -0.122046925 -0.07671542 -0.017573046 0.15979783 -0.119814776 -0.018021196 -0.3348774
-0.11692691 -0.0088254465 -0.014503899 0.0038536391 0.066392094 -0.049804922 -0.25263575 -0.10524596
-0.25468552 0.06917356 0.08343926 0.006086435 0.24020422 0.025057001 0.11167021 -0.24814633
-0.09744714 -0.05373193 0.07123621 0.010574916 0.15850979 0.087750815 0.037775487 -0.27544945
-0.18693371 0.0403239 0.006115595 0.028068183 -0.017938603 -0.016279992 -0.13624248 -0.18078236
-0.22186062 0.090951696 0.0027638925 0.008018805 -0.014984616 -0.027209949 0.09500189 -0.0026138066
0.19282246 0.06665202 0.17087644 -0.03945719 0.052739173 -0.07848801 0.07424616 -0.31706086
-0.016205026 0.10539381 0.06199871 -0.027331492 -0.23631069 0.10433493 -0.019944198 -0.11744937
-0.1345985 0.0778687 0.12719537 0.21959019 -0.15056723 -0.1430505 0.18841565 0.09289535
0.28806397 0.21061774 -0.072746605 0.010144745 -0.11016002 0.064194225 -0.14726444 -0.0086913295
0.10167249 0.013872105 -0.18292509 0.009570936 -0.057273403 -0.008862821 0.08296264 -0.39548773
-0.07264448 0.09423314 0.040388282 0.01925276 -0.009897286 -0.18146415 0.1110832 0.098318726
0.03746408 0.27655515 -0.112272285 -0.17421746 -0.066158466 0.06086906 -0.023992924 -0.15749589
0.17345524 0.01952752 0.017640792 -0.16702405 -0.12632205 -0.007107145 -0.040766966 -0.005689574
00000000: fdc0 21bc cb26 7cbe e1f3 58be 97de 533e
00000010: 1eda 2f3c 7c58 50bd 4853 e13d 153b 0bbe
00000020: d0ed 3dbd 4a54 ffbd aadb cfbd e1e4 f3bc
00000030: d21e 5fbe 1d20 c1bd cd4e 0cbe 7d52 0bbe
00000040: a96b 22bc 0f04 003e 3efb 0ebb e460 03bd
00000050: ca99 5a3e 0455 4a3e a1b5 de3d 4a12 4bbc
00000060: 45d5 1cbc 32b4 40be 94a2 7cbd 0da3 d73d
00000070: 8bb4 ebbd 7d86 e7bd 18c6 e63c ec3c 2bbd
00000080: 639b 513d 99da a6be 141b bdbd 2668 1cbe
00000090: f669 b1ba 005f 41bd 65af 1cbd 02d1 d4bd
000000a0: a9e4 f13c d534 3bbd a237 b9bd c781 5b3e
000000b0: f1c7 06bd 3c6f 523d 7d4f 93ba 286c 8c3d
000000c0: 19d3 a53c ee19 1cbe 75e8 a0bd d7ff c23d
000000d0: 8831 8a3e 526b 26be 7b22 5ebe 5e9d 2d3e
000000e0: adc7 b9bd 16ae 443e eade 2d3e 4838 2dbe
000000f0: a294 04be 3c7d 07be 4c3d fabd 2ba5 8ebe
00000100: 4049 f1bd a5e3 1cbe 0db4 37bb 873d 83bd
00000110: 1e38 50b9 d8ce 4cbe eced 6dbc 74bb dcbd
00000120: 893c 803d a422 a5be 4350 233c 8fd1 00bd
00000130: bd6e f33d 2b4d 8c3d 9bba cc3d 551d 4c3e
00000140: 2a21 243e 6cff ecbd dfb1 91be 0990 0bbe
00000150: 4f0a ca3d 7d16 973c 27cc a33a 0b01 c6bd
00000160: 30f1 533d 78ce 54bd 0ff2 b73d 3a14 863d
00000170: 36e6 52be 4472 153d aa60 f33d 8ff8 ce3d
00000180: ab89 a1be 62df 763d 24a9 0ebd 52bf 30be
00000190: 6ef5 bc3c 8a58 6a3b f7bb 33be cb45 84be
000001a0: 62fb c8bd a69a 19be 6dc2 103d 2ebd 073e
000001b0: 6f6c af3c a847 a33d bb15 03be 48c2 c43c
000001c0: 6d08 29be 8c34 8fbe 7ddf 1f3b 574f 02bb
000001d0: d58a 27be 1f2d 9ebd 627e 923d 1027 23be
000001e0: 77e9 24bd f41d c53d 8a75 63bc 14fe b1bc
000001f0: 90b1 b3bc ecbe 333d 1b78 313d 363f 77b9
00000200: 986c b93b 46e9 1abe 11fe eabd dff4 073c
00000210: 4823 76bc 3316 bc3d a40d de3d bf1f 4f3d
00000220: e5e1 25bd f0ff 8b3b cf03 e13d 493f 19be
00000230: 8a67 0d3d 75a8 22bd 82d8 f7bd 5aba 093e
00000240: 04b7 643c bdf3 f9bd f91c 9dbd 59f5 8fbc
00000250: 0ba2 233e 7361 f5bd 30a1 93bc 0d75 abbe
00000260: 6077 efbd 9b98 10bc c3a1 6dbc 568d 7c3b
00000270: 94f8 873d 3f00 4cbd 7959 81be 328b d7bd
00000280: 2466 82be deaa 8d3d 34e2 aa3d b870 c73b
00000290: 18f8 753e 5744 cd3c 5ab3 e43d 121a 7ebe
000002a0: 5e92 c7bd 0316 5cbd 4ae4 913d 6a42 2d3c
000002b0: 6450 223e b3b6 b33d 78ba 1a3d b607 8dbe
000002c0: 8d6b 3fbe ac2a 253d 5465 c83b 3fef e53c
000002d0: faf3 92bc 9e5d 85bc 2683 0bbe 031f 39be
000002e0: 6e2f 63be e244 ba3d 6c22 353b 4e61 033c
000002f0: 0982 75bc 66e7 debc 5a90 c23d 664c 2bbb
00000300: 4073 453e db80 883d 3cfa 2e3e dd9d 21bd
00000310: 0805 583d 52be a0bd 5f0e 983d cd55 a2be
00000320: 67c0 84bc b6d8 d73d 5cf2 7d3d 4be6 dfbc
00000330: 6efb 71be 8dad d53d 0462 a3bc 4c89 f0bd
00000340: 30d4 09be a079 9f3d 813f 023e 40dc 603e
00000350: 4c2e 1abe d57b 12be 08f0 403e eb3f be3d
00000360: 1f7d 933e 2dac 573e 2cfc 94bd 2536 263c
00000370: 949b e1bd 4378 833d 7dcc 16be 1466 0ebc
00000380: ab39 d03d d347 633c b750 3bbe 6acf 1c3c
00000390: 8497 6abd 5e35 11bc 51e8 a93d 5e7d cabe
000003a0: a1c6 94bd 4efd c03d 2f6e 253d f7b7 9d3c
000003b0: 3a28 22bc bdd1 39be 977f e33d 545b c93d
000003c0: ef73 193d a398 8d3e 03ef e5bd 1066 32be
000003d0: 177e 87bd d651 793d cf8c c4bc 9a46 21be
000003e0: 409e 313e 2df8 9f3c 6c83 903c 5a08 2bbe
000003f0: 915a 01be 0ee3 e8bb 43fb 26bd 9b6f babb

fc2.bias f4 [128]
-0.048342265 0.075165115 0.05281992 0.06754946 0.035039663 0.062062245 0.053554904 -0.008161918
-0.082153894 0.03429591 -0.027454607 -0.05647593 0.065882936 0.07762144 0.052878503 -0.028884865
-0.03911688 0.0747888 0.052723944 -0.015361331 -0.06751036 -0.039280433 -0.034667503 -0.0533621
-0.07527477 -0.020035915 0.069967896 -0.014749894 0.036477447 0.0014675017 -0.07644589 0.07060152
0.07562134 -0.018863926 0.031440664 0.035835892 -0.056073487 0.016837824 -0.050246254 0.04379785
-0.06976087 0.0034209704 -0.02913646 -0.07578964 0.008444189 -0.02310817 -0.0060385335 0.0050431583
0.0711465 -0.062401913 0.03832228 -0.051060576 0.040087014 0.03167644 0.07277165 -0.038057715
0.008956218 -0.019973315 -0.07107124 -0.07014018 0.083351515 0.0028100961 0.052083835 -0.079972796
0.070229955 0.049975917 0.04544631 0.057729643 -0.05853683 0.005123738 -0.07701 -0.007223357
0.0714504 0.045221068 0.050759092 -0.049583856 -0.07836758 -0.024087692 0.0665348 0.06878225
0.08669202 0.038517192 -0.0050268234 -0.08402965 -0.0048402552 0.052185602 0.03160636 -0.027480407
-0.044531155 0.049900837 0.0044362266 0.0056879222 -0.02529288 0.036408596 -0.023181034 0.05369754
0.017639212 -0.026512768 -0.008591691 -0.039970543 0.06590323 -0.024535656 0.07306789 -0.086496234
0.057001837 0.03590572 0.07205196 -0.03186793 -0.06201159 0.03176766 -0.06940453 0.07135778
0.009648436 0.061613377 0.06191148 -0.019827707 -0.03561012 -0.02479745 -0.046958085 0.027382644
0.018352425 -0.05680238 0.017258044 0.08198559 0.07097861 0.046887606 0.010571006 0.041991215
00000000: 8a02 46bd 2bf0 993d b359 583d 5f57 8a3d
00000010: c085 0f3d fb34 7e3d 635c 5b3d 91b9 05bc
00000020: 4d40 a8bd de79 0c3d 7ce8 e0bc 4e53 67bd
00000030: a2ed 863d fdf7 9e3d 2197 583d f49f ecbc
00000040: 0639 20bd df2a 993d 10f5 573d 18ae 7bbc
00000050: df42 8abd 85e4 20bd 83ff 0dbd 3892 5abd
00000060: a929 9abd 5c22 a4bc 544b 8f3d 8aa9 71bc
00000070: 6069 153d 3059 c03a aa8f 9cbd 8897 903d
00000080: 5cdf 9a3d 8588 9abc edc7 003d a8c8 123d
00000090: 50ad 65bd 7aef 893c 04cf 4dbd 6065 333d
000000a0: c9de 8ebd 5c32 603b 96af eebc 9937 9bbd
000000b0: 7f59 0a3c 584d bdbc e4de c5bb 1441 a53b
000000c0: 42b5 913d 2699 7fbd d3f7 1c3d e524 51bd
000000d0: 4832 243d 28bf 013d 4e09 953d 68e2 1bbd
000000e0: 1abd 123c 149f a3bc cc8d 91bd a8a5 8fbd
000000f0: 33b4 aa3d 9729 383b dc55 553d c7c8 a3bd
00000100: b9d4 8f3d 8cb3 4c3d e925 3a3d eb75 6c3d
00000110: 51c4 6fbd 08e5 a73b 6bb7 9dbd e9b1 ecbb
00000120: 9654 923d ba39 393d c4e8 4f3d 7118 4bbd
00000130: 2f7f a0bd 8d53 c5bc 6643 883d b5dd 8c3d
00000140: 968b b13d 34c4 1d3d 0db8 a4bb bd17 acbd
00000150: 019b 9ebb 92c0 553d ac75 013d 971e e1bc
00000160: 4d66 36bd d264 4c3d c45d 913b c061 ba3b
00000170: 0433 cfbc 2e21 153d 27e6 bdbc f4f1 5b3d
00000180: 1c80 903c 4e31 d9bc 2ac4 0cbc 27b8 23bd
00000190: 46f8 863d 00ff c8bc 9ea4 953d f024 b1bd
000001a0: c27a 693d e011 133d fa8f 933d f287 02bd
000001b0: ddff 7dbd ce1e 023d f623 8ebd 0724 923d
000001c0: 7914 1e3c 4f5e 7c3d e496 7d3d b76d a2bc
000001d0: ebdb 11bd 0624 cbbc 1f57 40bd 9151 e03c
000001e0: d357 963c 9da9 68bd be60 8d3c 10e8 a73d
000001f0: 3c5d 913d 380d 403d 0332 2d3c fbfe 2b3d
