weights/checkpoint_critic_0.pth (torch_old, 190088 bytes, 9 tensors)

bn1.weight f4 [256]
00000000: 483e 463f 8d29 4b3f e96c 903e c9ad 663f
00000010: 4d1b d83e 9934 fc3e 8925 d83e 5272 373f
00000020: 568d 4d3f e3e5 193e cb03 503f efb7 0d3f
00000030: f23e 4b3f 5e4f fe3e b9f6 273f d3d2 d43e
00000040: 0114 4e3f e71f 0a3f 522a d23e c205 143f
00000050: b4f8 8f3e 130b e53e 04e7 9f3e 5845 3a3f
00000060: f956 e83d ced0 803e 1d99 c63e d7fc 883e
00000070: 77db 053f 5cba 063e 67ea 403f 9d34 183e
00000080: 6344 5b3f 7a4c 0a3f 22e5 b83e a61b 333f
00000090: ab37 053f 123a 433f deec 053f 1ba3 a33e
000000a0: 6650 273f f004 b73e 7687 1f3f 0463 6d3f
000000b0: 4877 223f 9197 993e ca3c 283f 133b 193f
000000c0: cd79 1b3f 0b12 4c3e d6fa 8abd be8e a03e
000000d0: 02d8 293e f511 473f 3dfe f13e 3d81 2c3f
000000e0: 28db 193f 12de ea3e 2b4c 423f 8ff5 563e
000000f0: c81d f43e c8cb 2a3e b41e 233f f49e a83e
00000100: 2abf 093f 660e b33e 30db 533f 2149 523e
00000110: c3e2 3a3e 8a95 523e 5891 513f 5f19 1a3f
00000120: cdc5 563f e02b 3a3e 422c 9dbd 6a36 373e
00000130: 7f5a 423e db6c 1f3f 1b0d 243f 4a0f 5c3f
00000140: f43a 883e 3770 283e 56de 1d3f 69b0 a43e
00000150: 9eaa 1a3f 647b bc3e ccf3 363f 02d2 043e
00000160: c3a8 8b3e 528e 1e3f 94d5 113f bfa2 ac3e
00000170: bced 383f f428 3d3f b32f 493e f735 7c3e
00000180: f9a0 733f a673 a93e 8b30 9f3e 02cf 1d3d
00000190: 9162 8f3e c49c 1a3f 4513 be3e becf 3c3e
000001a0: e8ba 013f 64d5 823e 6559 373e 5b78 7b3e
000001b0: 60b9 eb3d da82 593e 30ba 583f de6f 043f
000001c0: ffef 153f fff4 9d3d 1b42 673e 7e98 b73e
000001d0: e1b6 eb3e b726 563e bc3b 9e3e 5314 9c3e
000001e0: c170 d73e 5b5f b13e c03b d93e 26bd 833e
000001f0: ad7e 543e 7008 633e 6064 ab3e e01e e13d
00000200: 6ad0 3b3f 2dbf be3e a1d1 473f 757d 1c3f
00000210: 4331 dd3d ac47 793f b21c b53e 8a2a a83e
00000220: 26df df3d 6c6a 293e fb69 143f a70c da3e
00000230: bdfd 153f 1ca7 103e 54a7 4b3f 27a2 713e
00000240: f1de b33e 0610 2b3f 5472 2d3f c8a0 4d3f
00000250: 6f25 5f3f 8b47 3c3e 8e2f 183f d650 9c3e
00000260: 18ba d83e df4b 513e e932 633f aeca c33e
00000270: e6d0 3a3f 6092 133f efd3 1b3f 6ca9 813e
00000280: 7c47 773f df1b 183f fe3f 0e3f 7695 a43d
00000290: 8106 1b3f 8aed de3e 7b78 633e 0db0 523f
000002a0: 4b71 143f 216f 763e d564 8e3e 3e7a fd3e
000002b0: 6820 3e3f 0909 c03e cc0d 883e 7d76 8c3e
000002c0: bcea 4d3e 0d6b 253f c143 453f 9858 c53d
000002d0: 39a1 1a3f e9e1 203f 14cd ee3e 08f1 a23e
000002e0: f4b7 433f 29f0 6a3f ffc8 0e3f 12cb b53e
000002f0: e821 a73e 7b4c ff3e d3f3 e23e 6a2f a63e
00000300: 3a0a 3b3f 30d6 553f 191a d13e d895 c63e
00000310: d755 e13e 306c 0d3f e9e9 153f c705 f83e
00000320: 4fca 063e 394f ab3e 0c4d 613f c103 163f
00000330: 9d9d df3e e956 7c3e b2a9 763e c063 e13d
00000340: de25 b03e c9ce 193f 90e5 323f 5360 2e3f
00000350: 0b6c 433e 1118 643e ee7d d63e 3111 693f
00000360: 8201 373f 953a a33e a862 2a3f d7e8 9c3e
00000370: 1fe1 6f3e 5f5d 793f 6384 9f3e 50e6 0e3f
00000380: 1aea d33c fd47 413f 6d4d 3e3f 26a6 283f
00000390: d9db 3b3e 0730 ae3d c86f 9a3e 8e0b 523f
000003a0: 421e 3b3f a75d 5d3f 6c61 283f 50e2 103f
000003b0: 6183 ef3e 93de 163e fa5c d63d b047 533e
000003c0: 934b 2d3f 904d 893e 9ab3 0a3f d8e8 3b3e
000003d0: a305 be3e 44b3 3b3e 0fa5 853e fb3c 2c3f
000003e0: c368 ad3e 4ca8 2f3f 65ab b03e be42 3b3e
000003f0: 37ef be3e 5e38 8b3e af68 b73e 1f6b 1a3e
0.77438784 0.79360276 0.28208092 0.90108925 0.4220833 0.4925888 0.42216137 0.71658814
0.80293787 0.15029101 0.8125579 0.55358785 0.7939292 0.49669927 0.65610844 0.41567096
0.80499274 0.5395493 0.41047913 0.57821286 0.28119433 0.4473501 0.31230938 0.7276206
0.11344714 0.25159305 0.3878869 0.26755401 0.52288 0.13157028 0.7535767 0.1486382
0.85651225 0.54022944 0.36112314 0.69964063 0.5203807 0.76260483 0.52314556 0.31960377
0.65357053 0.35745955 0.6231607 0.9272921 0.6346326 0.29998448 0.65717757 0.59855765
0.6073273 0.19928758 -0.067861244 0.31358904 0.16586307 0.77761775 0.4726428 0.673847
0.6010003 0.4587255 0.75897473 0.2099211 0.4767897 0.16679299 0.63718724 0.32933772
0.5380732 0.34971923 0.8275633 0.20535709 0.18250565 0.20564857 0.818624 0.60194963
0.8389557 0.181808 -0.07674457 0.17891851 0.18979834 0.62275475 0.640825 0.8596083
0.26607478 0.16449057 0.6166738 0.3216584 0.6041659 0.3681289 0.71465755 0.12970737
0.27277192 0.61935914 0.5696652 0.33717915 0.72237754 0.73890615 0.19647102 0.24629961
0.951675 0.33096045 0.31091723 0.038527496 0.28004888 0.60395455 0.37124076 0.18438622
0.5067582 0.2555343 0.17905195 0.2455763 0.11509967 0.21241322 0.846591 0.51733196
0.5856933 0.07712745 0.22583811 0.3585853 0.46037963 0.20913206 0.3090495 0.30484256
0.42078212 0.34643063 0.42428398 0.25730246 0.20751448 0.22171187 0.33475018 0.10992217
0.7336489 0.3725523 0.78054243 0.6112893 0.108004116 0.9737499 0.35373455 0.32844955
0.10931234 0.16544503 0.57974213 0.42587778 0.585903 0.14126247 0.795522 0.23597012
0.35131028 0.66821325 0.67752576 0.8032346 0.87166494 0.18386666 0.5944756 0.30530423
0.42329478 0.20439099 0.8874956 0.3824057 0.72975004 0.57645226 0.6087026 0.2532457
0.9659345 0.5941753 0.55566394 0.0803632 0.605568 0.43540603 0.22213928 0.8229988
0.5798537 0.2406583 0.27811304 0.49507326 0.742682 0.37506893 0.26573026 0.2743415
0.20109075 0.6461647 0.7705651 0.096360385 0.60402256 0.6284471 0.46640837 0.31824517
0.76452565 0.91772705 0.55775446 0.35506493 0.32643056 0.49863037 0.44326648 0.3245805
0.7306248 0.8352995 0.40840223 0.38786197 0.44010803 0.55243206 0.58560044 0.48441908
0.13163112 0.3345888 0.8800819 0.5859948 0.43674937 0.24642529 0.24088171 0.11005354
0.3440389 0.60081154 0.69881535 0.6811573 0.19084184 0.22274806 0.41892952 0.91041857
0.71486676 0.31880632 0.6655679 0.30646393 0.2342572 0.974081 0.3115569 0.5582018
0.025868464 0.7550047 0.7433689 0.6587852 0.18345584 0.08505254 0.30163407 0.8204888
0.73093045 0.8647103 0.65773654 0.56595325 0.46779922 0.14733343 0.104669526 0.20632815
0.6769344 0.26816988 0.541803 0.18350542 0.37113675 0.18330103 0.26102492 0.6728055
0.3386899 0.68616176 0.34505764 0.18287179 0.3729188 0.27191442 0.35822055 0.15079926

bn1.bias f4 [256]
00000000: 4fa3 a13a f8c9 6b3d 5ca2 2cbd 9d33 653d
00000010: 18d5 16bb 9bb0 ac3c b178 da3c 8f61 8c3d
00000020: e792 543e 250f 9fbc 4794 8a3c 64ea 203d
00000030: 65c7 ae3d 4044 e0bc 265e 3fbc d46c 853d
00000040: 4258 293d a9fd 573d 3120 b13d ae36 59bc
00000050: a88c c1bc 0b2a 223d 2a8f 4b3c 0eff 273d
00000060: 93af 023d 7507 02bd 5648 683c 28d9 c83c
00000070: c6b7 c2bc 3d79 f93c 5632 a1bd fb9d 13bd
00000080: c582 8abd 83b7 54bc 410e 65bd 6612 87bd
00000090: 292f f23c 848e 2539 e5d4 e13c 83c7 8fbd
000000a0: 5114 833d a565 e83c 8350 b33c 5e28 6a3a
000000b0: 2824 ae3d 2cdb 7d3d 254e bf3d 37a5 473d
000000c0: ae98 50bc eea4 e33c f46c df3c 1122 49bd
000000d0: 7a25 22bd 499c 933d aab5 a2bc e9ca 293d
000000e0: fde8 a43c 25f7 813b 481f d5bc 2dab 48bd
000000f0: 6491 93bc ad2c 2a3d 7e13 e23c 7c82 20bc
00000100: a718 67bc c9d4 9bbc 582f 4a3d 9e82 213d
00000110: 55a4 46bd a05c f4bb 7293 41bd 59a2 973c
00000120: 24f6 6a3d 5f7a d03c 11f7 233d 57bc 83bb
00000130: 2fb1 c83c 8b47 39bc 4d44 433d 9b50 66bd
00000140: fb45 c4bc 446f 94ba d9e5 473d d0d9 63bc
00000150: d85e 7c3d 0391 48bd 232d e7bc f5cc ac3d
00000160: 1ecb 61bd 0535 003c 41de e23d 9663 7d3d
00000170: ec5d ab3d b32e f93c ef21 263d 35b9 263d
00000180: 0a4d 713d 35da c33b f25f 2b3d 64c0 5b3d
00000190: 323a 133e 4e4e e03c b8fa 01bd 963c bebc
000001a0: 9a4d 203d 980f 693d cf48 4e3d e40e 0fbd
000001b0: 44ed 91bc 007b 64bc 1842 2bbd 5a07 023d
000001c0: efbd ac3c d397 cfbc cf10 293d ecff 1cbd
000001d0: 4f9e f73d 23cf 8a3d 1ef4 52bc 419c 8bbd
000001e0: 0747 e13c 3d32 4ebd d252 5dbd d1fd 203d
000001f0: fb18 50bc 6f36 a73d 49b2 0dbd 9a39 96bd
00000200: a75a d53c 25cb d63c 8a0f 2dbd b7f7 d83d
00000210: bae9 f93c b80f 593d bf87 333d def0 5f3d
00000220: 8df7 273d 2fcc e4ba 067d f1bc 04d9 103d
00000230: ef67 bc3c a860 abbd eefa 99bd 517e 773c
00000240: 24af 003c 6d15 713b 9b09 0cbb a5b3 a83d
00000250: 39ff 8cbd 2b6c 7fbc 145b 5f3d 152e 55bd
00000260: 2061 ee3b 303b 253d 3c18 b5bc 756f 6f3d
00000270: a2c1 133b 5f23 2fbd 9193 113d 0c2f c1bc
00000280: 6466 8d3c fce2 973b 78f3 a23c 48f7 063d
00000290: 7aab 77bd 0afa 5cbd 40f2 423d 7faf 7fbd
000002a0: aaa2 983c b753 57bc fde1 063a 139c 723c
000002b0: ee52 79bd 45a3 803c ff12 67bc d8aa e1bb
000002c0: 4f29 9d3d 5bfb 843d 02d4 a1bd bc3b a1bc
000002d0: 75c1 783d 6b40 373d 4165 1cbd dec9 38bc
000002e0: 08eb 8bbc d4ee 4b3d dfc8 26bd 4fa6 3dbd
000002f0: c7a0 9e3d 0ca9 0fbd 4060 b83c 7bbe aabc
00000300: bd42 4abd 9e72 bd3d 9f30 a8bc 7427 613d
00000310: 0b3a bc3d 07c7 2e3d 926f ce3d 555b 6abd
00000320: 9581 b43c d98f 78bc 52f4 8a3d 3351 8abd
00000330: 133c e13d 3261 80bc 4722 1fbd 0923 a33b
00000340: 9250 2c3d 56f2 1e3c 14f9 4abc 1dd7 e73b
00000350: 4798 af3a f804 17bd a436 d4bc 7c7a c0bc
00000360: bdca 8a3d 3100 3b3d 42cc 793c 6e10 2f3d
00000370: 6caa 72bb 1056 ad3d 5e9a 3cbd faf4 353d
00000380: 2996 f6bc 44b4 683d 7f05 f23c e588 263c
00000390: e8b7 1cbd a484 4f3d 0468 583d b656 fcbc
000003a0: 832a 133d 9a99 753b c651 7e3d 4429 18bd
000003b0: 4749 543d afac b03d ea00 cd3c a324 263d
000003c0: 2b6f 71bc a2d4 e43c 6d56 dbbc 22be 24bd
000003d0: a5ea 71bc b9fe 133d 20c5 ba3a 7eea 61bd
000003e0: 5824 783d a7dc bfbb cbbc 20bd a3a0 d23c
000003f0: a426 793d 6bec 413d 7a77 853d f6c1 303d
0.0012331995 0.05756566 -0.042147025 0.055957425 -0.0023015197 0.021080306 0.026668878 0.06854545
0.20759164 -0.019416401 0.016916407 0.039286032 0.08534125 -0.027376294 -0.011680162 0.06514898
0.041343935 0.052732144 0.08648718 -0.013257666 -0.02362664 0.039590877 0.01242427 0.041014723
0.031905722 -0.031745393 0.0141774025 0.02451761 -0.02376927 0.030453319 -0.07870929 -0.036039334
-0.067632236 -0.012983206 -0.055921797 -0.06595306 0.029563503 0.00015788717 0.027567336 -0.07020476
0.064003594 0.02836878 0.021888977 0.0008932407 0.0850299 0.061976597 0.09341077 0.048741546
-0.012731714 0.027788606 0.027273633 -0.049104754 -0.03958652 0.072075434 -0.019862015 0.041453276
0.020130629 0.0039662295 -0.026015893 -0.04899137 -0.018013664 0.041546512 0.027597185 -0.009796735
-0.014104999 -0.019022362 0.049361557 0.039431207 -0.048496563 -0.007457331 -0.047259755 0.01851003
0.057363644 0.025448976 0.040030543 -0.0040202546 0.02449855 -0.011308561 0.04767256 -0.056229215
-0.02395915 -0.0011324664 0.048803184 -0.013906911 0.061613888 -0.04896642 -0.028219765 0.0843753
-0.05512535 0.007825141 0.11077548 0.06186255 0.083675236 0.030417776 0.040559705 0.04070397
0.05891136 0.00597694 0.041839547 0.053650275 0.14377668 0.027381089 -0.031733245 -0.023222249
0.039136507 0.056899637 0.050362404 -0.03492631 -0.017813332 -0.013945341 -0.04181108 0.031745292
0.021086661 -0.02534095 0.041275796 -0.038330004 0.12090742 0.067777894 -0.012875585 -0.068169124
0.027499689 -0.05034088 -0.05403406 0.03930456 -0.012701268 0.08164679 -0.034593854 -0.073352054
0.026044203 0.026219914 -0.042251147 0.10594123 0.030506957 0.052993506 0.04383063 0.05467307
0.041007567 -0.0017455871 -0.029478561 0.035363212 0.022998778 -0.08368045 -0.07518564 0.0151058
0.007854257 0.0036786452 -0.002136803 0.082373895 -0.06884617 -0.015589754 0.05453022 -0.0520459
0.007274762 0.04033965 -0.022106282 0.058455903 0.0022545834 -0.042758342 0.03554112 -0.023582004
0.017260738 0.004635213 0.019891486 0.03295067 -0.060466267 -0.053949393 0.04759431 -0.062423225
0.018632252 -0.013142518 0.0005145369 0.014807719 -0.060870104 0.015702853 -0.01410365 -0.0068868212
0.076738946 0.06493255 -0.079017654 -0.019681804 0.06073137 0.044739168 -0.0381825 -0.011278598
-0.017079845 0.04978831 -0.04071891 -0.046301182 0.077455096 -0.035073325 0.022506833 -0.020842781
-0.049380053 0.09250377 -0.020530997 0.054969266 0.09190758 0.042670276 0.10079874 -0.057216007
0.022034446 -0.015171015 0.06784882 -0.06753769 0.109977864 -0.015671346 -0.03885105 0.0049785418
0.042069025 0.009701332 -0.012388486 0.007075204 0.0013396823 -0.036869973 -0.02590496 -0.023495905
0.067769505 0.04565448 0.015246453 0.042740278 -0.003702785 0.08463681 -0.046045654 0.04442308
-0.030100899 0.05681254 0.029543636 0.010164474 -0.038261324 0.050663605 0.052833572 -0.030803066
0.035929214 0.0037475587 0.062089704 -0.03714873 0.051827695 0.08626687 0.02502485 0.040562283
-0.014735977 0.027933422 -0.02677461 -0.040220387 -0.014765416 0.036131594 0.0014249422 -0.05515527
0.060581535 -0.005855161 -0.039242547 0.025711363 0.060827866 0.047344606 0.06516929 0.043153726

bn1.running_mean f4 [256]
00000000: 059e 3940 4ff0 1f40 0e66 613e cd31 693f
00000010: edef 4c3f b7a3 d73e 35cf 4e3e 8d46 753f
00000020: d24a 0d3f c3d8 403f 07d5 9a3f 7a3b 1240
00000030: 3af7 003f c56f 193e efec ac3e 50d8 b03e
00000040: f3d0 1240 ffdb 423f 7c5c 6f40 a80d 4e3f
00000050: 9831 bc3f 55cf e33e ae6b f43e 5772 1a40
00000060: 2def 8640 2ea5 2740 1d2e 0d3e 8aad 023f
00000070: d067 6b3f ae5e c23e 437d 753f ce0a 883e
00000080: 7238 913f 2532 0640 a18b 8d3f a481 843f
00000090: 1603 2e40 7444 2d3f e6d4 993f be52 893e
000000a0: 84cc ae3e 752f 9c3d 0963 0140 8d92 f33f
000000b0: 3a54 a03e e81e 8d3f 2940 f73f ba91 873f
000000c0: cc20 af3e fd9d 603f ca43 e53e 70f7 903f
000000d0: 0ed9 8c3f c8d7 b43e ea27 5b3e 405e 6940
000000e0: 9bfe 8d3f 181f 713f 3103 5240 8e12 0d3f
000000f0: 029d 163e 164c bc3d 5d65 4040 4e96 eb3e
00000100: 369b 2c3f fded 273f c5a3 da3f dc5a 203f
00000110: d90e d43e cf14 b43f 5ca8 d13f b2d6 d63e
00000120: e64c 413f 102d a53d d35d 1e3e 10a6 d63d
00000130: 3f78 f33e 943f 7b40 ca1c 7c3f 036f 923e
00000140: 4880 be3f da30 6d3f a213 2e3e d7c5 2240
00000150: 7205 aa3d 8479 2c40 d166 6d3f 9dd3 ae3f
00000160: 45a0 b43d 6197 833f c036 fe3f f7f5 e93f
00000170: fb1c 513f f907 863f e232 ff3c a2be fd3f
00000180: 4c4d a73f 7a7c 4b3e 8a34 1640 9d19 1640
00000190: 3648 b63e 9bec 4e3f 02db 9d3f d6ac c23e
000001a0: f95b 4e3f 56df 403e 7113 013f 7472 ae3e
000001b0: 53b4 123f 94fa 313f 989e 5a3f 9257 823e
000001c0: 56d4 ab3f 514e e13e 992f 7a3d 525b 303f
000001d0: 4361 fb3e 12b2 503e d2e5 043f aa3b 6b3e
000001e0: c4b5 253e dd65 ff3d 3038 3b40 3a9e 5c3f
000001f0: f915 8c3f c578 253f 96d7 f23e 3d8c 2a40
00000200: 2c95 643e 431e 1340 b58b 3a3f 8071 013f
00000210: 6bd9 293f f638 6c40 763c 1740 fa17 b73e
00000220: 4244 de3e f5b0 3d3e e3f0 4b3f 137f f03d
00000230: 30bb 2940 ef9a 693f 4bd2 b73f d174 933d
00000240: e6cd 4e40 075d ff3e f39c 3140 0a14 5b40
00000250: 1acf 8c3f 2f15 993f 3d55 b63e e070 143f
00000260: 1db0 963e 0d0d 9a3f 3685 7b40 dc80 153e
00000270: 22c7 1940 58b1 0a3f 3220 5240 8ce1 083f
00000280: 0831 f83f 31bf 603f e2cd 433e b1c4 7f3f
00000290: 090c bf3f 0f02 a93f b998 353e 96c3 2940
000002a0: 61a5 513f 7413 fb3e 6932 a53e 4475 013f
000002b0: e98f 683e 7acb b03f e875 813f 7a09 933e
000002c0: c272 b73e 2268 f63f 23b9 123f d1b8 ee3f
000002d0: 8825 a33f ba3c 423f 3266 483f 6e9f 433e
000002e0: 1949 9b3f e2a0 5c3f b0c7 863e b91b b33e
000002f0: 00a6 883e 58e9 a93f 3594 0d40 aaab 373f
00000300: f6d4 163f 8951 b63f d4ad 423d 5a25 983f
00000310: 976f 1a3f 8da3 173e c51b 2c3f 2c96 a93e
00000320: 2d44 5c3f c481 423f 2650 ae3f b636 5340
00000330: f7f4 0d3f da67 9a3f a5ce ed3f 2fbc 573f
00000340: 88f9 203f e0aa a93e 2aa9 0d3f 4fbd 533f
00000350: 6173 473e daa9 a33f 7360 f63f b6e4 bb3f
00000360: 4220 3f3e 6fc6 7b3e 7685 913f 717b 853f
00000370: a6c7 8f3f a49c 953e 449e 1c3f 3301 c13f
00000380: c8ac 5c40 8f3a 3740 e9b8 c740 9c6e ca3f
00000390: 8537 833f 0943 513d d0c0 713d f53b 003f
000003a0: 962d 6a3f 4ea6 0d3f 321e 3440 6672 663f
000003b0: 043e 4a3f 37c7 3d3e 38be 913f 296e d33d
000003c0: b80c 003f 1222 583f 6344 3340 bea9 463f
000003d0: 1401 783f bb22 6f3f 3e75 b43d f814 2c3f
000003e0: 3fe1 c63e fbc5 443f a507 9a3f 41de 273f
000003f0: 843d d53e 1acb 673f da3a e63e 8dff 143f
2.9002697 2.4990423 0.22011587 0.91091615 0.800536 0.42117092 0.2019623 0.95810777
0.5519229 0.7533075 1.2096261 2.2848802 0.5037724 0.14984043 0.33774516 0.34540033
2.2940032 0.7611694 3.7400198 0.8048959 1.4702635 0.4449412 0.47738403 2.4132288
4.2166963 2.6194568 0.13787122 0.5104605 0.9195528 0.3796286 0.9589426 0.26570743
1.1345351 2.0968106 1.1058236 1.0352063 2.7189384 0.67682576 1.2018096 0.2682094
0.34140408 0.07626239 2.0216696 1.9029099 0.3131426 1.1025057 1.9316455 1.0591347
0.3420471 0.8774107 0.4477828 1.1325512 1.100374 0.35320878 0.21401945 3.6463776
1.1093324 0.9418807 3.2814448 0.5510644 0.14708331 0.091942 3.0061867 0.4601311
0.67424333 0.65597516 1.7081228 0.6263864 0.41417578 1.406885 1.6379504 0.41960675
0.7550796 0.080652356 0.15465479 0.10480893 0.47552678 3.9257555 0.9848143 0.2860032
1.4882898 0.92652667 0.16999677 2.5433252 0.0830182 2.6949167 0.9273501 1.3658329
0.088196315 1.0280572 1.9860458 1.8278188 0.81684846 1.0471183 0.031152193 1.9823802
1.3070464 0.19871703 2.3469567 2.3453133 0.35601968 0.8082978 1.2332461 0.38022488
0.8060909 0.18835196 0.5042029 0.34071696 0.573064 0.69522977 0.85398245 0.25457436
1.3424175 0.44005063 0.06108055 0.68889344 0.49097642 0.20380428 0.5191318 0.22971979
0.1618262 0.12470601 2.9253044 0.86178935 1.0944206 0.64637405 0.47430104 2.6648095
0.2232253 2.298722 0.72869426 0.5056381 0.6634738 3.6909766 2.3630652 0.3576048
0.43411452 0.18524535 0.7966444 0.117429875 2.65205 0.91252035 1.4361051 0.07200015
3.231317 0.49875662 2.7752044 3.423098 1.1000702 1.195959 0.35611907 0.57984734
0.2943124 1.2035233 3.9300056 0.14599937 2.402779 0.54176855 3.283215 0.5346916
1.9389963 0.87791735 0.19121507 0.999095 1.4925548 1.3203753 0.1773404 2.6525626
0.81892973 0.4903828 0.32265022 0.5056956 0.22711147 1.3812096 1.0114107 0.28718168
0.3582974 1.9250529 0.57313746 1.8650151 1.2745829 0.7587391 0.7828094 0.19103786
1.2131683 0.8618299 0.26324224 0.34982088 0.26689148 1.3274336 2.2121708 0.71746314
0.589187 1.4243633 0.047529057 1.1886399 0.6032652 0.14808483 0.6722987 0.33122385
0.8604153 0.75979257 1.3618209 3.3002143 0.5545191 1.2062943 1.8578688 0.8427152
0.62880754 0.3313818 0.5533625 0.82710737 0.19477607 1.278621 1.9248184 1.4679172
0.18664649 0.24587415 1.1368854 1.0428296 1.1232803 0.2922107 0.61178994 1.5078491
3.4480457 2.8629491 6.241322 1.5815005 1.0251318 0.05108932 0.05902177 0.5009149
0.9147581 0.55331886 2.814343 0.9001831 0.7900088 0.18533026 1.1386175 0.10323746
0.5001941 0.8442699 2.801049 0.77602756 0.96876645 0.9341237 0.08811425 0.67219496
0.38843724 0.76864594 1.2033583 0.6557351 0.41648495 0.90544283 0.44966775 0.5820244

bn1.running_var f4 [256]
00000000: 8e23 c040 ac84 b540 8a18 333f 77d6 2c40
00000010: c934 803f 66d0 7f3f 6901 ec3d b0db 2840
00000020: fc26 f43f 2326 2640 51c4 4640 3732 9c40
00000030: 864b bf3f 35bc 743e 8817 263f 7ee5 1c3f
00000040: 00fa 9340 cb7c 0b40 b20f 9d41 df79 483f
00000050: 7d48 8e40 44c9 533f f830 5b3f d557 9f40
00000060: 35d0 0941 ffea 7540 6548 9a3e 9f2e 833f
00000070: daa2 3540 e37a 293f 170c b93f 2d07 043f
00000080: 9e37 df3f 9bf0 4340 530e 4340 b244 2a40
00000090: c048 ca40 09be 893f 5440 3f40 554e bc3e
000000a0: 3cd8 ad3e ce44 f63d 99fa 8940 fdc2 fb3f
000000b0: 610c 513f 31c6 0440 a8bf 8840 2a68 db3f
000000c0: dcff a33f 8c1a 2140 9dd3 833f b947 fc3f
000000d0: 15c8 0540 07b0 2e3f 28ba f53e b4cf 2a41
000000e0: dc5b e43f 038c fe3f 1f69 e240 bf52 963f
000000f0: 0f79 4f3e f4b9 293e 4af7 5740 565a 853f
00000100: 04c6 2c40 adda c03f 61a4 5740 7836 9e3f
00000110: e8d8 973f 9818 0f40 9fa6 9a40 bb8f 123f
00000120: 4b08 0b40 c08b 1c3e 8dbc 7c3e 5f65 443e
00000130: 4947 8f3f 7f13 f640 a238 8e3f c6be c93e
00000140: 512a 0f40 99a5 c13f 01e2 e73e cf07 d440
00000150: 55e1 043e f373 d240 704a 3040 c716 2c40
00000160: 89e4 0d3e 9eaf 3240 b5ee 0640 51d1 9140
00000170: 6383 943f 066e e73f 98e5 fc3c 68b4 9a40
00000180: d448 933f 68d0 253f 905b 2140 ff75 3840
00000190: d8ab 783f bed4 d63f b887 0e40 e97b 5d3f
000001a0: eb7b a23f 6310 b53e 49be 473f 3fda 173f
000001b0: d2df 7e3f 57cb 0440 de2a f43f 6df8 bc3e
000001c0: b12b 7440 0cce ca3f 4195 9a3d 4b12 993f
000001d0: 8cd0 5e3f 52ea 533e e1b7 8f3f b791 d13e
000001e0: da47 a43e 3d2b 2d3e a602 d940 86d9 1740
000001f0: 0d4d 1f40 1dd6 f13f d278 893f 60c3 9b40
00000200: 2619 083f 0603 9b40 0efb 5340 8db6 833f
00000210: 221b f63f 36b3 9b41 1e3b 6e40 7870 903e
00000220: be50 243f 66dd 2f3e 8b63 2240 7807 003e
00000230: c3e0 5840 84a4 e13f 1694 b440 c666 d83d
00000240: 1959 d140 ed09 7b3f 805d aa40 a4e5 8d40
00000250: ac63 2f40 f5b7 2440 740b 3d3f 75bf c83f
00000260: a2f2 353f 1e2d 4d40 a99b 8940 9860 2e3e
00000270: 5f10 c640 7f6c 913f 0f48 7340 a364 8b3f
00000280: 6efe d740 e6b5 d43f 8fe0 bf3e 47d5 1140
00000290: 1356 1640 1e84 0a40 e25a 1c3f 4bd5 c040
000002a0: b2c7 4b40 d8e3 5e3f 2f8e 2e3f 8411 3e3f
000002b0: 7026 c53e 7b4e 4f40 4ea0 c63f 7eaf 7f3f
000002c0: a31a e53e d826 8140 a2a3 8c3f 00dd 0a40
000002d0: d25e c63f e257 1a40 9d6f bd3f af01 be3e
000002e0: d1dd 5840 9cf9 b43f 537f 173f cd3c 273f
000002f0: 4892 0e3f 1bb4 2540 5391 1f40 c470 0f40
00000300: 2faa c23f 3a72 6540 f556 5d3d e635 2640
00000310: 9719 cf3f 3676 7d3e 7e0a c83f 52dc 593f
00000320: ee19 4040 d1b0 8a3f 2912 1e40 422c c940
00000330: 57ab bf3f a969 b23f 4847 ba40 49b9 6e40
00000340: 394e 983f 1dd8 d13e 451a 8e3f d952 1940
00000350: 8721 6e3e c797 ef3f 7616 5a40 d399 ad3f
00000360: 2e3f c63e d955 eb3e ebe9 0340 f2e7 6840
00000370: 41d3 833f 11e1 e83d e93e 623f 11a4 5540
00000380: eb3c 0741 a26b 6840 8bb2 6840 8b83 953f
00000390: 9248 f63f 18e5 d23d 7e38 b63d c19b 8d3f
000003a0: cb5b 9e3f 0c2d 103f 84e5 6240 4e6c d33f
000003b0: 7699 3240 476b 453e be0f 3840 beda 093e
000003c0: efec f53e 0225 b53f f6a6 4241 9586 d33f
000003d0: b57c 1240 4b46 d63f 184a 103e d1d6 8c3f
000003e0: 6fd9 143f 5214 963f 53a9 4c40 ca5e bb3f
000003f0: 0f8d 043f cce1 c03f bbf6 423f 586f 9a3f
6.00434 5.6724453 0.6995932 2.70059 1.0016109 0.99927366 0.115237065 2.6384087
1.9074397 2.5960777 3.1057322 4.8811297 1.4944923 0.2389992 0.64879656 0.6128768
4.6242676 2.1794918 19.632664 0.7831096 4.4463487 0.8272898 0.85621595 4.9794717
8.613332 3.842468 0.30133358 1.0248603 2.8380647 0.66203135 1.4456815 0.5157345
1.7438848 3.0615604 3.0477493 2.6604428 6.3213806 1.0761119 2.9883013 0.36778513
0.33954036 0.12024842 4.3118405 1.9668881 0.81659514 2.0745966 4.2733955 1.7141163
1.2812457 2.5172453 1.0298954 1.9709388 2.090337 0.68237346 0.47993588 10.675709
1.7840533 1.9886478 7.075332 1.1744002 0.20261024 0.16574842 3.3744683 1.0418193
2.699586 1.5066735 3.369408 1.2360373 1.186307 2.235876 4.8328395 0.57250565
2.1723812 0.15287685 0.24681301 0.19179295 1.119363 7.68988 1.1111033 0.3940336
2.2369578 1.5128661 0.45289615 6.625953 0.12976582 6.576654 2.7545433 2.6888902
0.1385671 2.7919688 2.1083195 4.5568013 1.1602596 1.8080451 0.030871198 4.8345222
1.15066 0.6477113 2.5212135 2.882202 0.9713721 1.6783674 2.2270336 0.86517197
1.2694067 0.35364065 0.7802473 0.5931739 0.9956027 2.0749109 1.9075582 0.36908284
3.8151667 1.584413 0.07547999 1.1958708 0.8703697 0.20694855 1.122799 0.40931484
0.32086068 0.16911025 6.7815733 2.3726516 2.4890778 1.8893467 1.0739996 4.8675995
0.53163373 4.844119 3.3121982 1.0290085 1.922703 19.462505 3.7223582 0.28210807
0.641857 0.171743 2.5373256 0.12502849 3.3887184 1.7628331 5.643077 0.105664775
6.542126 0.9806202 5.3239136 4.4342823 2.7404585 2.5737278 0.738456 1.5683428
0.71073353 3.2058787 4.3002515 0.17029035 6.1894984 1.1361235 3.801273 1.0890087
6.7498083 1.6618011 0.37476012 2.2786424 2.3490036 2.1643138 0.61076176 6.0260367
3.1840634 0.8706641 0.68185705 0.74245477 0.38505888 3.239165 1.5517671 0.99877155
0.44746885 4.0359917 1.0987437 2.1697388 1.5497687 2.411614 1.4799687 0.3711066
3.3885386 1.4138675 0.59178656 0.6532715 0.5569196 2.5891178 2.493245 2.2412577
1.5208186 3.5850968 0.054038007 2.5970397 1.6179684 0.24752125 1.5628202 0.8510181
3.0015826 1.083521 2.4698584 6.2866526 1.4974164 1.3938495 5.8212013 3.730059
1.1898872 0.40985194 1.1101767 2.3956816 0.23254977 1.8718194 3.407621 1.3562568
0.38720077 0.45963934 2.0611522 3.6391568 1.0298845 0.11371053 0.88377243 3.3381388
8.452373 3.6315694 3.6358974 1.1680769 1.9240897 0.102976024 0.08897494 1.1063157
1.2371763 0.56318736 3.5452585 1.6517427 2.7906165 0.19279204 2.8759608 0.1346235
0.48032328 1.4151919 12.165762 1.6525446 2.2888615 1.6740202 0.14090765 1.1003057
0.5814428 1.1724951 3.1978347 1.4638302 0.5177774 1.5068908 0.7615773 1.206523

fcs1.weight f4 [256, 48]
00000000: 5a61 0f3d e997 18bd 0fa0 163d fe95 06bc
00000010: 1f06 a03c c0f1 d4bb 31ad a2bc 058c 8abc
00000020: a443 243d dab5 afbd 6026 d83d 6c0f 223d
00000030: 38a3 b5bc d59f dfbb 97d1 723d 2417 423b
00000040: 5219 383a 602b 14bc 48c6 60bc ca82 c5bc
00000050: 6a2b 283d 003b 04bc 219c 573a c189 953d
00000060: 49fb 9dbd 3bc8 953c 95c2 8a3d bae0 9f3c
00000070: 04e3 81bb 12a9 07bb d81d 32bd 1fd0 8b3d
00000080: 2f01 c9bd 99ea 83bd a017 b63c e5eb c7bc
00000090: 7caf f63c eef5 b93c 2b87 223d 14ba 823d
000000a0: 8174 c4bc 5c52 53bd 8d5d 923b 4b25 9b3d
000000b0: 18ed 5ebc 31c6 d9bc 3562 653d 1ba5 153d
000000c0: cb37 32bd a3a8 04bc f0da 5c3d 760e 30bc
000000d0: 2f5d 993d 910d ee3c 99a1 563c 9cc3 353b
000000e0: 8a23 fb3c 4ab2 acbc 071e cc3d c989 90bc
000000f0: e009 f3bb 476e c03d 7da4 363d a8df 17bd
00000100: c67f 8d3c db04 bbbd 2bd5 0dbd 6602 3abc
00000110: edd6 443c dea8 0dbd e510 7f3b b419 8f3d
00000120: bd31 80bc 7624 a8bd c8aa 24bd 42e9 d0bb
00000130: 516f a03c 7559 91bc eb96 f93c 1f94 c9ba
00000140: bc8c 94bb c3c4 50bc 097e 303d f1bb 5cbd
00000150: 4352 843c 478b f73d 41bd 09bd a70a babd
00000160: e004 9b3d 62b1 6ebd e2d7 cd3c 251f 8bba
00000170: 40e2 313b e840 503d 69ed 3e3d 4f8d d43b
00000180: 352d 52bd 5de4 dd3d 9c26 0fbd 5065 7bbc
00000190: 7a9d 493d 272c 8dbd fe90 59bc 5688 f5bc
000001a0: ecb1 673a 58ff ad3d 432c 1fbd 4572 22bd
000001b0: 4fc6 233d 7155 78bd 178d eebc 1656 88bc
000001c0: 10ca 6b3c 586b bc3d 6095 1c3d 372c 8ebc
000001d0: 8e42 03bd 6ca1 70bc eaac 59bc a772 26bd
000001e0: 0c7d d73d a317 0b3e d3ac 553d 843c 1dbd
000001f0: ecad 1bbb 57d3 41bc c960 d3bc f493 5abd
00000200: b253 7d3c 4999 243e 8727 b0bd 663f 123d
00000210: e93d e03c 6fb4 dabd 9fd1 babd 3e54 c3bc
00000220: 04ee 033c e823 fc3d 51d1 a4ba 1064 02bc
00000230: 9ba6 3ebc 7ebb d2bd c46b 4a3d 4f42 9cbd
00000240: 6ca8 51bd 45e6 b6bc 3cff 003c 773e c0bd
00000250: 8b39 323d c023 4b3c cf56 ebbc feaa 4bbd
00000260: 9743 9cbd fc5a dfbc d6b1 f83c 385f d4bc
00000270: 5976 2f3b 8f8e b33d f768 303c e950 34bd
00000280: 92f6 a13c c3f2 46bd 1f7c b03a 241a ce3c
00000290: d3a7 c93c 02b1 b63d a2dc 42bd 45b7 5fbd
000002a0: 35d5 d53d b5a3 153e 9c45 423a eec7 953d
000002b0: 7882 96bc 15da 31bd ee96 b2bc 8826 d03c
000002c0: e74c 0b3d 25e7 863d 9e2d 003d 12e6 d23a
000002d0: a383 b03c c9ef b93d 5796 01bd 1b36 5ebd
000002e0: 4dae f9bc a50f e83c 42b3 86bd 395a 92bd
000002f0: ec5b a1bd 6688 563c f9ab 18bd 31ef 4ebc
00000300: 13cb 15bd 42af 5fbc bec5 713d bf4c 4b3d
00000310: 4865 8fbc 775d 2abd 01bd 31bb 7fa2 623d
00000320: 8efc 93bb 1a2d 753d a019 d0bc ac0e 9b3d
00000330: 3b65 59bc 29c5 883d e33f 5d3d a0ea 3eba
00000340: fc47 2e3c 54ef c63a cffd 87bb 4d75 d4ba
00000350: b9a4 fdbc 3247 fe3d 5485 12bd 1a23 c4bd
00000360: d792 38bc fcb6 ad3d ec6f c2bc 1984 353d
00000370: ba9e 023d bcb9 e1bc f0a4 1bbb cc4d c03d
00000380: b882 5a3d be6e ce3b d463 3e3d fe14 ad3c
00000390: d880 4fbd 2d61 e53c 5690 58bd 7c43 b93d
000003a0: eacc 473d b7e2 773d cfaf 913b b097 8dbc
000003b0: fae8 66bd 356e 013e 84e7 363b 3356 813c
000003c0: 4f65 0b3d 6285 8bbe 40c0 253d 17f5 fdbc
000003d0: 5576 3e3d 354e d13d 0dae f6bc 5a7e 73bc
000003e0: aca6 5d3c c80b 56be d5a9 f8bc 0d0d 913d
000003f0: ac1f 6fbd a601 65bc f1d4 173b 9169 a13d
0.03500495 -0.037254248 0.036773738 -0.008214472 0.019534169 -0.0064985454 -0.019857975 -0.01691247
0.04010357 -0.08579607 0.105541945 0.03956549 -0.022172555 -0.0068244734 0.05928191 0.0029615844
0.0007022816 -0.0090435445 -0.013719149 -0.024110217 0.041057028 -0.008070707 0.0008224864 0.07301665
-0.077139445 0.018283954 0.06775395 0.019516338 -0.00396383 -0.002070014 -0.043485492 0.06826805
-0.09814679 -0.0644123 0.022228062 -0.024404475 0.030112974 0.022700276 0.039679687 0.06383148
-0.023981335 -0.051592216 0.0044667185 0.075754724 -0.013606332 -0.026583763 0.05600186 0.03653441
-0.04351024 -0.008096847 0.053919733 -0.010745635 0.074884765 0.029059203 0.013100051 0.0027735
0.030656595 -0.021081109 0.09966665 -0.017643826 -0.0074169487 0.09396034 0.044590462 -0.03707853
0.017272841 -0.091317855 -0.03462712 -0.011353111 0.012014133 -0.034584872 0.0038919982 0.06987324
-0.015648717 -0.08210079 -0.040201932 -0.0063754627 0.01958433 -0.017742852 0.030467471 -0.0015379227
-0.0045333784 -0.012742224 0.043088946 -0.053890172 0.016152507 0.12087112 -0.033627752 -0.09084063
0.07569289 -0.058274634 0.025127355 -0.001061414 0.0027142912 0.05084315 0.04661313 0.006486572
-0.051312644 0.108345725 -0.03494893 -0.015343979 0.049222447 -0.06893187 -0.013279198 -0.029972237
0.0008838463 0.084959686 -0.03886057 -0.039659757 0.039984044 -0.06062836 -0.029120011 -0.016642611
0.014391437 0.09200162 0.038228393 -0.017355068 -0.032045893 -0.0146869235 -0.013285855 -0.040636685
0.10521898 0.13583235 0.05216677 -0.03838779 -0.0023754789 -0.0118301725 -0.025802987 -0.053363755
0.015461849 0.16074099 -0.08601289 0.035704993 0.027373271 -0.10678946 -0.09122013 -0.02384388
0.008052353 0.12311536 -0.0012574588 -0.007958427 -0.0116364015 -0.102896675 0.04941918 -0.07629835
-0.05118601 -0.022326598 0.007873353 -0.09386914 0.04351191 0.01239866 -0.028727917 -0.049723618
-0.07630079 -0.027265064 0.030358236 -0.02592431 0.0026773422 0.08767425 0.010767213 -0.044022474
0.019770894 -0.04857136 0.0013464725 0.02515895 0.024616158 0.0892048 -0.047573693 -0.05461814
0.10441057 0.1461323 0.00074108853 0.07313524 -0.01837276 -0.04342087 -0.021800485 0.025408998
0.034008887 0.06587056 0.031293504 0.0016090295 0.021547144 0.090789385 -0.031637516 -0.054250818
-0.03047862 0.028327772 -0.065771595 -0.07146115 -0.07878861 0.013094043 -0.03727338 -0.01263027
-0.03657062 -0.013652625 0.059026472 0.049633738 -0.01750435 -0.04159304 -0.0027120712 0.05533075
-0.004516191 0.059857465 -0.025402844 0.07571158 -0.013268764 0.0667823 0.054016005 -0.00072828867
0.01063728 0.0015177527 -0.0041501294 -0.0016209275 -0.030962335 0.12415923 -0.035771683 -0.095770076
-0.011265478 0.08482167 -0.02373501 0.04431543 0.031889655 -0.027554385 -0.0023749433 0.093898386
0.05334732 0.0062998226 0.046481922 0.021128174 -0.050659984 0.028000439 -0.052872024 0.09046075
0.048779406 0.060518946 0.004446007 -0.017284244 -0.056374528 0.12639697 0.002790899 0.015788173
0.034032162 -0.272502 0.040466547 -0.031000657 0.04649957 0.10219995 -0.03011229 -0.0148616675
0.013528507 -0.20902932 -0.03035442 0.07082567 -0.058379814 -0.013977444 0.0023167694 0.07881463

fcs1.bias f4 [256]
00000000: 36c7 993d fbe5 143e 1942 183d 3859 9f3d
00000010: f973 0fbe 073e 1fbe c554 5cbe 9004 efbc
00000020: 0930 d33c efca e5bd fabb fbbd 5e62 e4bd
00000030: a602 473e f2ef 653d 4197 543e 564a 1fbe
00000040: 213c b53d 6011 f53d 70bf 41be e8db 23be
00000050: 854a 19be eaef f43d 4caf 42bd cce0 223c
00000060: 10b0 a6bd a038 063d 2b44 47ba 3ece 67bd
00000070: 9bbd bcbd 05bf b9bd 8eb0 ff3b 62c6 01be
00000080: c245 6cbd dacf 34bb 5e8a 353d 1ad2 f33c
00000090: 6a73 eb3c 058a 98bd e2de 1f3d a7a4 ec3d
000000a0: 0238 86bd bde6 d43d 0553 c03d b4ff 54be
000000b0: b98d 5fbe b86b b63c 4208 10bb a6ae 61bd
000000c0: b0af 8ebc 813b 3cbe 7b00 98bd 1f59 da3b
000000d0: a871 f7bc 3fad e3bd 0cf2 d73d 78eb 123d
000000e0: 1bee cfbd 7195 eabd 2922 673d 5a89 97bc
000000f0: 8cfc a8bd 3a19 30bd 0bec 48be 2ae7 913d
00000100: d6cb 0d3e 2185 323d 41db b43d fd81 34be
00000110: 9b87 e9bd a970 2bbd 5442 3bbe be99 9a3d
00000120: 3336 813c acf8 0fbd 5934 f2bd c14d 0ebe
00000130: 5790 92bd 213c bbbc 505c 09be 01e0 b93d
00000140: d9ac 7d3d c7a3 9abb a4fb 393e b271 55be
00000150: d591 06be a3da 05bd 1cde e53d d731 3d3d
00000160: 0265 cbbd 1d57 c73d 89e2 c03c 5bed 803d
00000170: 535d 91bd df3d 843d bc57 843b c9cf 98bd
00000180: 227a 97be 7230 35be 1ac2 183c a8f4 fbbd
00000190: 967f 96ba 3263 7bbd 46ea 0abe 40ad 38be
000001a0: ceda 163d 8607 bbbd af28 81bd 9780 d3bd
000001b0: 1f8b 02bd e717 293d 4973 6ebc 8d2b 943d
000001c0: 6ec0 3cbc 2868 11be edff 8c3a 037f f13d
000001d0: 72da 26bc 7702 adbd f249 c13d 372e ee3c
000001e0: 1b20 f03d f406 10bc bb50 9ebd bbfc 113e
000001f0: 5feb 87bd 4080 0bbe 446e 3a3d c6ee b6bd
00000200: 2ee6 cfbd fd12 34be 966d 743d e367 efbd
00000210: adc6 bd3d a224 79bd 2aa5 fdbd fdeb eabd
00000220: c60d 0cbd c1b3 cd3d 4cf6 bcbd 78c4 22be
00000230: 40cd be3b b4a7 b23d c4fe c6bc d94f 91bd
00000240: 49dd 3a3d 1b4d 3abe 3433 9e3d 0b57 e9bd
00000250: 24ef 1cbe 47ae 10be 3dfc a83d ee3f 013d
00000260: d1c8 373c 895d 5cbd d0e3 5b3d d509 bfbd
00000270: af74 953d ab2e dc3d 83a0 e6bd 008e 613c
00000280: a517 3bbb 1b28 51be 322a f33d 50b9 0f3d
00000290: 68c9 d03d ef5e c5bc 30a1 ed3d 638a ef3c
000002a0: de37 26bc 9a44 19bd 7148 c0bd 3fb6 6abd
000002b0: 45a5 ad3d 77f6 9e3c 48d5 1cbd 184c dcbc
000002c0: 8ceb 8c3c 4689 b9bd 7f9f bebd 04d6 953d
000002d0: 398c 4cbd ae00 423d 08df fcbd e4d1 0fbe
000002e0: a031 64bc b3f8 33bc 28ea bdbd 4e13 6bbe
000002f0: 2a08 a2bd 8010 4e3d 9cbf a3be 6af7 e13d
00000300: 490c 3c3e 5c1d 44bd 6a55 b7bc f4c1 ccbc
00000310: 0f10 ca3d af18 2a3d 0a81 0e3c 92c0 f0bc
00000320: 6341 a7bb 5579 4abe 44ed 523d eb91 223d
00000330: 18b7 2d3d 0852 0abc f7b4 2dbe 84b5 d43d
00000340: 0fc4 ee3c a75c 8d3d b34b 413d 86d1 6839
00000350: 7886 5e3d c985 4ebd 7c63 223d 8727 14be
00000360: 9ae8 803e 6782 aebb 3787 033c 2ccf e4ba
00000370: f05d f4bd 943b 2cbe eb10 fabd 088d ecbd
00000380: 0a90 9cbc 5817 3c3d fc14 5d3e eca7 96be
00000390: 5e26 273c dc18 bd3d 6b8c c9bd 580e 02be
000003a0: 59b9 89bd 9478 34be 2a97 93bd f24b 8dbd
000003b0: 4c0a e9bb d88d 4abe 9158 b13d f6a5 f4bd
000003c0: f381 8cbe 3c41 12be dd5c 8abd 2628 cd3d
000003d0: 085c c93d 4983 d0bc 65e8 2dbe 886c 30bd
000003e0: c489 533d e664 1cbd c0a7 4dbd 8a24 c539
000003f0: b7d9 10bc 0d9a e7bd 5627 14be be31 463d
0.075086996 0.14540856 0.03717241 0.07780689 -0.14009084 -0.15551005 -0.21516712 -0.02917698
0.02577974 -0.11220347 -0.12291713 -0.111515746 0.19434604 0.056137033 0.20760824 -0.155557
0.08849359 0.11966205 -0.18920684 -0.16001856 -0.14969833 0.119598225 -0.047530457 0.009941291
-0.0813905 0.032768846 -0.00076014054 -0.056593172 -0.09215852 -0.09069637 0.0078030294 -0.12673333
-0.057683714 -0.002758971 0.04432141 0.02976327 0.028741557 -0.074482 0.039030917 0.115548424
-0.065536514 0.10395572 0.09390835 -0.20800668 -0.21831407 0.022268161 -0.0021977578 -0.0550982
-0.017417759 -0.18382074 -0.07421967 0.006663456 -0.030205563 -0.111170284 0.10544214 0.03586909
-0.10152837 -0.11454285 0.056429062 -0.018498112 -0.082512945 -0.042992808 -0.19621293 0.07124169
0.13847288 0.043583993 0.08830882 -0.17627712 -0.11402818 -0.041855488 -0.18287021 0.07548855
0.015772915 -0.03514926 -0.11826391 -0.13896848 -0.07156437 -0.02285582 -0.1341412 0.090759285
0.06193242 -0.004719231 0.181624 -0.20844153 -0.13141568 -0.03267921 0.112240046 0.04619011
-0.09931375 0.097334124 0.02354552 0.06295272 -0.07097878 0.064571135 0.004038779 -0.07461507
-0.29585367 -0.17694262 0.009323621 -0.12302524 -0.0011482115 -0.061373897 -0.1356593 -0.1803484
0.036829762 -0.09132294 -0.06306588 -0.10327261 -0.031870957 0.04128256 -0.014553853 0.07234869
-0.011520488 -0.14199889 0.0010757424 0.11791804 -0.010183917 -0.08447736 0.09437932 0.029074771
0.11724874 -0.00879072 -0.07730242 0.14256565 -0.0663669 -0.13623142 0.045515314 -0.08932261
-0.10151325 -0.17585368 0.05967482 -0.11689737 0.0926641 -0.06082595 -0.12385018 -0.114707924
-0.034192823 0.10044051 -0.09226665 -0.1589526 0.0058228076 0.08723393 -0.024291404 -0.07095308
0.04562119 -0.18193476 0.0772461 -0.11393555 -0.153256 -0.14128982 0.08251236 0.03155511
0.011217312 -0.05380014 0.053684056 -0.09328047 0.07297646 0.10751089 -0.11261084 0.013766766
-0.0028548029 -0.20425455 0.118732825 0.035088837 0.10194665 -0.02409312 0.1160301 0.029240793
-0.010145156 -0.03741894 -0.09388817 -0.05730271 0.08478788 0.019404633 -0.03828934 -0.026891753
0.017202161 -0.09059386 -0.09307765 0.07316211 -0.049938414 0.04736393 -0.12347227 -0.1404491
-0.013927847 -0.0109845875 -0.092731774 -0.22956583 -0.079117134 0.050308704 -0.31982124 0.110335186
0.18364061 -0.04787956 -0.022379596 -0.024994828 0.09866344 0.041527446 0.0086977575 -0.0293887
-0.0051042303 -0.19772847 0.051495805 0.03968994 0.04241094 -0.008442409 -0.16963564 0.10386184
0.029146222 0.06902438 0.047191333 0.00022203298 0.05432746 -0.050420556 0.039645657 -0.14468203
0.2517746 -0.0053256038 0.008027843 -0.0017456762 -0.1193198 -0.16819602 -0.12210258 -0.11550337
-0.019111652 0.0459207 0.21590036 -0.2942499 0.010202019 0.09233257 -0.09841236 -0.12700784
-0.067248054 -0.17624122 -0.07206567 -0.06899251 -0.007111823 -0.19780672 0.08659471 -0.11945717
-0.27442893 -0.14282697 -0.067559935 0.10017423 0.09832007 -0.025453227 -0.16983183 -0.043072253
0.051645055 -0.03818216 -0.050208807 0.00037601992 -0.00884097 -0.1130868 -0.1446813 0.04838728

fc2.weight f4 [128, 260]
00000000: 4a30 4dbd 3bcd 0b3d 37f3 313c 2f35 2d3c
00000010: 33c7 88bd 8226 2cbd d52b 09bd 9520 89bb
00000020: 2c9d a7bc 914c 96bc 3f3b 223d 90aa 60bc
00000030: 8ca1 57bc 5d91 823d e722 0d3c 5806 a7bb
00000040: a8b4 9abd 1492 67bc ed7c fabc 966b c2bd
00000050: a18c c53d ec65 7fbb af69 143d a180 0abd
00000060: bc56 a8bd 9d9c 9c3d 3908 21bd fd18 cebb
00000070: 7173 a73c 586e eb3b 4399 57bd def0 d63d
00000080: eb02 803d 8164 67bd 527c 6e3c b855 d1bc
00000090: 209c a1bc c189 0fbc 5972 1f3d 32d5 88bd
000000a0: 232d 133d eeed 64bd 0f59 e63c abc3 8c3c
000000b0: 5489 17bc 4d73 cd3d 1cc1 b3bc f687 bf3d
000000c0: eb10 6ebd d205 373c 5dd2 3fbd abe6 8d3b
000000d0: dfe1 8abc 8010 c73d 993d ee3d 6a8d fd3c
000000e0: c64d 83bd 6d09 85bd ad32 133c 155e ccbd
000000f0: 92ae 27bd e620 0b3d 20e9 4c3d 87df 883c
00000100: ca71 e3bc 63e8 953d 14a5 87bd 8ae3 e1bb
00000110: 0eda 533d f7e8 35bd 8266 0d3d d525 593d
00000120: a53a de3c ad00 1a3d c151 74bd bb17 7b3d
00000130: ace8 c4bc 1361 833c cca5 21bc 098a c3bd
00000140: 6cd0 793b 32cd 2cbd 0b3d cdbb 8c75 d33c
00000150: 0df0 8cbc 1c4d 6b3c 547c 823d ef9f 1abd
00000160: 026e a0bd 7888 adbd fdfc f4bc 27a8 09bd
00000170: b815 01bd 0858 dabc b171 e6bd dd72 4bbc
00000180: 1448 923b 05ab 0dbd e588 6b3d 30a2 6ebd
00000190: ddce 72bd 8286 46bc 45eb 3ebd ab30 22bd
000001a0: 4b08 f53c c94a bb3b a8fb 293c 1931 3bbd
000001b0: 37ef 4e3d 3e87 803c f977 65bc d9c1 e63c
000001c0: 2e85 d4bd 9159 353d 4795 8fbd 04ca 5ebc
000001d0: b932 713d 0a00 493d da32 c2bd 938b e73d
000001e0: 5e72 76bd 7763 6d3d b81b 7dbd 476c aa3d
000001f0: 94fc 9b3c ecd8 b33d e54c 68bd 703e eabb
00000200: e266 74bc d2f7 d2bd 4593 563b ca42 80bd
00000210: 1a3d 7cbd 4531 2abd d52a 8ebd 2f13 5abd
00000220: 3167 0bbc 513c cc3d e908 96ba 8dfc d3bc
00000230: 015d 5fbc f9a4 cd3b 49e1 703d bfa2 3fbd
00000240: f390 d53b f896 b43d cd5a 0e3d 678a af3d
00000250: eae4 93bd a514 b6ba 9ef2 53bd 222f b53d
00000260: f82a 853d d6a0 023d 48ed 983d 082a 55be
00000270: a861 93ba 6b01 cabc d36c 303b 5fff 863d
00000280: 6928 c73d 8a5d 11bc 3fae 4f3b 2861 d4bc
00000290: 0e22 ca3d d37c 6a3c e879 453d 7793 6abc
000002a0: 84c2 153d edd5 30bc 952f 21bd 8f35 1fbd
000002b0: f092 07bb 5a23 97bc 4910 283c 7235 90bb
000002c0: cc23 3c3e 94b6 2fbc f9a9 01be e3be f83c
000002d0: fe6e 463d 7366 fd3c db88 303c 888b 1abd
000002e0: b26b 3c3d d113 163d e3a4 6c39 536f 2dbd
000002f0: 42c4 0c3e 027d 2cbd b538 763d e22e c9bc
00000300: 36a9 37bd 90fc 9b3d 03a3 e03c 8bf5 493d
00000310: cf83 d1bc 5ba2 abbd 1467 8dbd bce7 23bd
00000320: 8b34 b43d f7f4 3bbc 003c 92bd cd53 063d
00000330: c078 193d 861a 2d3c d8c7 b0bd 259a 8c3d
00000340: e7f3 be3d af65 8f3c f56a 32bd 53b2 983d
00000350: f895 823d 9a9b cfbb 526b 2abd 3a9d b83d
00000360: e0da 9ebd 61ac c73c 1b30 c3bd 22a0 22bd
00000370: 354c 253d 90e2 cebd a194 e3bc fc31 1ebc
00000380: c7f1 213d f672 7e3d 235e 1bbd 9fba bb3d
00000390: 38ac 25bd ef4d 7b3d 2c6b a33d e00b 0d3d
000003a0: fa5b d53d f18a f7bc cfc0 263d 4056 2b3a
000003b0: f1af 11bd 8311 a63d 788e f8bd df21 79bc
000003c0: bc45 303d 11cf a23b f1c4 063e 8649 713d
000003d0: f300 533d 92ed 873a 46dc 0ebd 644e 063d
000003e0: c051 fb3c ed24 963d d3bf 4abd e684 a13d
000003f0: edcf b23b d144 5bbc 3f41 213d dd8c e8bd
-0.05009488 0.03413127 0.01086121 0.010571762 -0.06678619 -0.04202891 -0.033489067 -0.0041847923
-0.020460688 -0.018347057 0.039607283 -0.01371254 -0.013161074 0.06375382 0.008614278 -0.005097192
-0.07553989 -0.014133949 -0.030577147 -0.09493177 0.096459635 -0.0038970662 0.0362336 -0.033814076
-0.08219668 0.07647059 -0.039314482 -0.0062896 0.020440789 0.007184785 -0.052636396 0.104951605
0.062505566 -0.056492332 0.014556007 -0.02555357 -0.019727767 -0.00876087 0.03892741 -0.06681289
0.035931718 -0.05589097 0.028118638 0.017183146 -0.00924905 0.100317575 -0.021942668 0.09352104
-0.058121603 0.011170821 -0.046831477 0.0043304763 -0.016953407 0.09719944 0.116328426 0.03095122
-0.064113185 -0.064959385 0.00898425 -0.09978882 -0.040937968 0.03396692 0.050027013 0.016708149
-0.02776422 0.07319715 -0.06623283 -0.00689358 0.051721625 -0.044411626 0.034521587 0.053014595
0.027127573 0.0375983 -0.05964828 0.061301928 -0.024036728 0.0160375 -0.009866189 -0.095478125
0.0038118614 -0.042187877 -0.0062633804 0.025812887 -0.017204309 0.014361646 0.0637137 -0.03775018
-0.07833482 -0.08473295 -0.02990579 -0.03360763 -0.031514853 -0.026653305 -0.11252154 -0.012417522
0.004464159 -0.034586925 0.0575036 -0.058260143 -0.05927931 -0.01211703 -0.04661109 -0.039597195
0.029911181 0.005715702 0.010374941 -0.04570112 0.0505211 0.015689489 -0.0140056545 0.028168606
-0.103769645 0.04427487 -0.07010894 -0.013597969 0.058886264 0.049072303 -0.094823554 0.113059185
-0.060167663 0.057956185 -0.061794013 0.083214335 0.019041337 0.08781609 -0.056713957 -0.0071485564
-0.014917107 -0.10301174 0.0032741588 -0.06262739 -0.06158171 -0.041550893 -0.06941763 -0.05324095
-0.0085084895 0.09972442 -0.0011446747 -0.025877262 -0.013633014 0.00627577 0.0588086 -0.046786066
0.0065175234 0.088178575 0.034754563 0.0857132 -0.07221396 -0.0013891651 -0.05174505 0.088468805
0.06502336 0.031891666 0.07467133 -0.20816815 -0.0011244314 -0.02465888 0.0026920333 0.06591677
0.097245045 -0.008872399 0.0031689552 -0.025925234 0.09869777 0.014311987 0.048211962 -0.014317385
0.036562458 -0.010793191 -0.03935202 -0.038869437 -0.0020686947 -0.018449474 0.010257789 -0.0044009024
0.1837303 -0.010724682 -0.12662496 0.03036446 0.048445694 0.03093264 0.010774816 -0.037730724
0.046001144 0.036639992 0.00022568139 -0.042342495 0.13746741 -0.042111404 0.060112674 -0.024558488
-0.044839107 0.07616532 0.02742148 0.049306434 -0.025575547 -0.08380576 -0.06904426 -0.04001592
0.08799084 -0.011471978 -0.0714035 0.032794762 0.03746867 0.010565406 -0.08631867 0.06865338
0.093238644 0.017504541 -0.043559033 0.07455888 0.063762605 -0.006335688 -0.041606255 0.090143636
-0.07756591 0.024374189 -0.0953066 -0.039703496 0.04035588 -0.10101807 -0.027780833 -0.009655472
0.039537217 0.062121354 -0.037931573 0.091664545 -0.040447444 0.06135362 0.07979426 0.034435153
0.10417934 -0.03021762 0.04071122 0.00065359846 -0.03556818 0.08108809 -0.12136549 -0.015205829
0.043035254 0.004968532 0.13161065 0.058908008 0.051514577 0.0010370484 -0.034878038 0.032789603
0.03067863 0.07331262 -0.049499344 0.078866765 0.0054569156 -0.013383106 0.039368864 -0.113549925

fc2.bias f4 [128]
00000000: f8bc 64bd 3a1e a6bd 96e5 983c 0496 29bc
00000010: e236 d7bb 84cc d33c 114f 41bd 3f96 393d
00000020: d7f9 59bd ff97 2fbd 8583 093c af9f e8bd
00000030: 19bb 83b9 d070 a93c 94ec 51bd a052 b4bd
00000040: a354 35bd d10c a73c 6345 a3bd 6708 ddbb
00000050: 366d e1bb ad5b 8cbc 9a72 b8bb dfae 6e3b
00000060: 2687 6a3d e32a 14ba d5df b2bd 12d9 6b3d
00000070: 5299 58bc cf0c e3bb 0e2b 983c d1d6 babc
00000080: 541c 81bd 9fe8 ecbc 9a0f 99bd a93b 343c
00000090: 546f c13c 5af6 c4bd 6202 efbc e7fa 00bd
000000a0: c088 70bc 1898 0ebe 6ebb 7cbc 3d46 92bd
000000b0: 486f cbbc c39f cabd 8fc5 2ebc 10fa 41bb
000000c0: f9c7 debc 539b 11bd 0d53 f0bc debd e13b
000000d0: 0711 f23b e49e 86bc 5262 ec3c e343 7c3c
000000e0: 721a 27bd e485 91bc 0405 62bc 4545 e33a
000000f0: 9e6f a8bd 7c8c 60ba 4bd0 13bd 3dd9 2abc
00000100: 2870 5fbd ee6f 2fbd d5b5 abbb 856a 52ba
00000110: 3097 fd3c 2009 49bc 8a03 9c3c 3ddf 24bd
00000120: 8a2f 50bd 4f04 01bc 1832 323c 83f7 5e3c
00000130: 53c9 cdbc 40fb 82bb 28e0 3fbc f55b 56bd
00000140: 209e 3bba cb88 85bc 9af2 41bd fcbb 20bd
00000150: 1938 6c3d f481 f4bd 5562 03bd 50fe afbd
00000160: 2fb4 10bd f1ad f3bb 5012 e9bd 3b82 5b3c
00000170: a7cf b23c 21df e9bc ba2f 3ebd d475 d6bc
00000180: 318d a73b 4adb e0bd c364 373c 3582 9ebd
00000190: 22be b6bd 3c21 86bd 5a47 2c3c d321 533d
000001a0: 71ef 553d 4314 5ebd f770 613d 7e8e 30bd
000001b0: 3b62 e2bc e5a1 99bd 8065 a3bd a91d d23c
000001c0: e1ec ca3d 92e6 573d 0c1e 15bd ea26 eabc
000001d0: 7021 5bbc 79d5 b0bc bd01 e13b e8d1 87bd
000001e0: 1a46 9abd 57d7 dabc 9f76 c0bd 5875 acbd
000001f0: 7e7e cdbb 8c5a 54bd 531a 7cbd ff57 72bc
-0.055844277 -0.08111234 0.018664163 -0.010350708 -0.006567822 0.025854357 -0.047194544 0.0453093
-0.05321678 -0.042869564 0.008393173 -0.11358582 -0.00025125666 0.020683676 -0.05125101 -0.08804822
-0.04427017 0.020391854 -0.07972219 -0.0067453864 -0.006879474 -0.017133558 -0.005628896 0.003642015
0.057257794 -0.00056521426 -0.08734099 0.05758006 -0.013220148 -0.006929017 0.018575218 -0.02280751
-0.06304231 -0.028919516 -0.07473679 0.011000552 0.023612656 -0.096173 -0.02917594 -0.03148928
-0.014681041 -0.13925207 -0.015425546 -0.07142303 -0.024833336 -0.098937534 -0.010667219 -0.0029598512
-0.027194964 -0.03554852 -0.029336477 0.006889089 0.0073872837 -0.016433187 0.028855477 0.015397045
-0.040796705 -0.01776404 -0.013795141 0.001733937 -0.08224414 -0.00085658557 -0.036087316 -0.01042777
-0.05455032 -0.042831354 -0.005240182 -0.0008026737 0.03095588 -0.012270242 0.019044656 -0.04025196
-0.050826587 -0.007874562 0.010876201 0.013608816 -0.025120413 -0.0039972365 -0.011711158 -0.05233379
-0.00071570463 -0.01630058 -0.047350504 -0.039241776 0.057670686 -0.11938849 -0.0320762 -0.08593428
-0.035328086 -0.007436507 -0.11380446 0.013397749 0.021827532 -0.028548779 -0.046432234 -0.026179232
0.005113267 -0.10979326 0.011193457 -0.07739679 -0.08922984 -0.06549308 0.010515058 0.05154593
0.052230302 -0.05421854 0.055039372 -0.04310464 -0.02763473 -0.07501582 -0.07978344 0.025648909
0.09908462 0.052710123 -0.036405608 -0.028583009 -0.013374671 -0.021586167 0.0068666623 -0.06631833
-0.07532902 -0.02671401 -0.09397625 -0.08420819 -0.0062711826 -0.051844165 -0.061548542 -0.014791488

fc3.weight f4 [1, 128]
00000000: 3262 423c c920 793c 5764 253c b344 943c
00000010: 7813 06bc 7b5e a0bc c54c 913c d9b7 25bc
00000020: 1d1d 823c ede9 b43c 9db8 8abc 7126 813c
00000030: 56ce 46bc 58d2 863c c411 aabc a371 893c
00000040: 47fc 323c 7f14 5cbc b250 743c 7634 813c
00000050: 3be3 7bbc 2e2d bebc 36dc 4d3c 421b c9bc
00000060: 2e7a 62bc d657 303c 9373 813c 9a62 43bc
00000070: f96c 493c 1ac5 28bc ad4e 903c 8b22 c43c
00000080: c287 d13c 4839 8e3c 3e3e 953c 0d76 353c
00000090: 5a1c 1fbc 493d cc3c 4971 b7bc 6c22 373c
000000a0: 9bab af3c bcba f33c 8bd5 52bc 2b58 b63c
000000b0: 753e f43c def8 653c 3d3f 6cbc 19fd 94bc
000000c0: f0e4 933c 2a3c 823c ecdd dbbc 3274 89bc
000000d0: d16e 6fbc df5a 52bc d1ed 3bbc 84dd 74bc
000000e0: 85b0 843c 3478 4fbc 3b21 a4bc 77e3 a63c
000000f0: 43fb 2e3e fe03 4fbc 3805 4ebc a01a 4c3c
00000100: 5e6d 943c 38cf b0bc a5f5 21bc a49b f0bb
00000110: 0cd9 1fbc d7ce 6c3c 9efa 99bc 9039 6abc
00000120: 0f2f a5bc d055 4a3c 74ad 853c d26c 8d3c
00000130: 3ebb 763c f277 90bc a7d0 b1bc d6a5 4a3c
00000140: cacb 83bc b09a 273d c9db 74bc b0c6 89bc
00000150: cfa8 5ebc 9a05 223d ddf3 dabc 6cbc 513d
00000160: 8653 b83c f030 9ebc 626f 5c3c fa63 7fbc
00000170: 9eaa 80bc 6988 583c f6a7 053c 691c 9bbc
00000180: e073 b23c 65f0 8f3c 3329 9cbc f469 5fbc
00000190: 944b b43c 6b1a 6bbc 6504 3a3c e151 64bc
000001a0: e08f 12bc 4616 853c 39b8 57bc 040b c13c
000001b0: dce8 cb3c ad10 5fbc ddd2 893c 402e 86bc
000001c0: 01e5 6dbc 86e6 22bc 3c77 78bc 9782 2a3c
000001d0: 62f5 1bbc 9b36 253c d33d 5fbc 2f00 3cbc
000001e0: 2180 1c3e edce 903c 3d0e 70bc ab9c 5bbc
000001f0: 67e6 5cbc 1a60 8d3c c581 1f3c 5876 81bc
0.011864232 0.0152055705 0.010094724 0.018099165 -0.008183353 -0.019576302 0.017736802 -0.0101146335
0.015883023 0.0220842 -0.016933734 0.0157654 -0.012134155 0.016457722 -0.020760424 0.016777819
0.010924405 -0.013432621 0.014911817 0.015772086 -0.015374 -0.023214903 0.012564709 -0.02454913
-0.013823075 0.010763129 0.01580218 -0.011925364 0.0122940475 -0.010300899 0.01761564 0.023942253
0.02557743 0.017361298 0.018218156 0.011075509 -0.009711349 0.024931567 -0.022392886 0.01117764
0.021444133 0.029752128 -0.012868295 0.022258839 0.029814938 0.014036385 -0.014419374 -0.018187093
0.018053502 0.01589783 -0.026839219 -0.016779039 -0.014613823 -0.012839048 -0.011470274 -0.014945392
0.016197452 -0.012662936 -0.020035377 0.020372136 0.17088036 -0.012635229 -0.012574486 0.01245752
0.018118557 -0.021583185 -0.009885226 -0.0073427726 -0.009756338 0.014453611 -0.018796261 -0.0142959505
-0.02016404 0.012349561 0.01631806 0.017263804 0.01505929 -0.01763532 -0.021705939 0.01236864
-0.016088385 0.040919006 -0.014944979 -0.016818374 -0.013590052 0.039556123 -0.026727611 0.051205084
0.022500765 -0.019310445 0.01345429 -0.015587801 -0.015706357 0.013216116 0.008157721 -0.018934445
0.02178377 0.017570684 -0.019062614 -0.013636101 0.022008695 -0.01434956 0.011353587 -0.013935537
-0.008945435 0.016245972 -0.013166481 0.023564823 0.02489131 -0.013614816 0.01682418 -0.016379476
-0.014519931 -0.009942656 -0.015165146 0.010407112 -0.009518953 0.01008382 -0.01362558 -0.011474653
0.15283252 0.017676795 -0.014651832 -0.013404052 -0.013482667 0.017257739 0.009735529 -0.015803501
