weights/checkpoint_critic_0.pth (torch_old, 101409 bytes, 17 tensors)

bn0.weight f4 [48]
00000000: da4f 3a3f 385f 713f 804c d23e 0eb7 133f
00000010: 4e43 153f bb1a 4e3f 4e6a 423e d895 b53e
00000020: 86d6 403f 61d2 503d 0640 383f 3a58 cb3e
00000030: 9b42 2a3f 38ca 003f a970 ef3e 2272 6d3e
00000040: defa 4b3f 4d72 033f ebf7 b33e b467 f73e
00000050: 87ae 143f 8472 343f cf00 d23e 9430 103f
00000060: 6d4c 503e 9cf6 873e e8c0 5b3e 7f09 623e
00000070: cd5e 303f 4343 323e 6a1d 1d3f a87d 733e
00000080: 3e1b 243f a427 163f 40af 823e cbf8 063f
00000090: c900 c33e 021c 5b3f 714f fc3e 078e fa3d
000000a0: ad64 533f 839a f53e 87e6 e13e b8f0 463f
000000b0: 8669 8e3f 538e 263f 677a 303f 96bf c23e
0.72778094 0.9428592 0.4107399 0.57701194 0.58305824 0.8050954 0.18985865 0.35465884
0.75327337 0.050981883 0.7197269 0.3971575 0.6650788 0.5030856 0.4676564 0.2318807
0.7967967 0.51346284 0.35150084 0.48321307 0.5807881 0.70487237 0.41016242 0.56324124
0.20341654 0.26555336 0.21460307 0.22073935 0.68894655 0.17408471 0.6137301 0.23778403
0.6410407 0.58654237 0.2552433 0.5272338 0.38086537 0.8558961 0.4927936 0.12234121
0.82575494 0.47969446 0.4412119 0.7771106 1.1125953 0.6506092 0.6893677 0.38036793

bn0.bias f4 [48]
00000000: 3770 2fb6 0e5a 04b6 96ea f135 8409 1bb6
00000010: 4a66 0738 fed1 d9b5 3d66 e034 1a70 f7b5
00000020: 1307 7bb6 3cae efb5 08bd 1eb6 3487 4d36
00000030: 7208 cbb5 4086 0437 7e84 a735 8a32 3fb5
00000040: 83b9 e036 112c 1fb7 f914 0bb7 a5d6 8fb4
00000050: 4e29 c837 56f5 0d37 7833 a3b6 e369 09b5
00000060: 5108 3e37 166c 4834 ef52 8cb5 ca3d bbb6
00000070: 38b4 8235 bc75 41b7 1d80 17b7 71f6 1336
00000080: d458 c3b6 27b3 2d36 1e8c 59b6 005d 4cb5
00000090: ed88 c9b6 561c 2eb5 2211 d2b5 2796 bdb6
000000a0: d90a a7b6 b713 33b4 4f67 9f36 ddf4 fab5
000000b0: d3cd 1b36 10f4 8fb4 ed63 5136 a984 6b36
-2.614235e-06 -1.9721952e-06 1.8024173e-06 -2.3102339e-06 3.2281772e-05 -1.6228876e-06 4.179764e-07 -1.843556e-06
-3.7406032e-06 -1.7857597e-06 -2.3653865e-06 3.062608e-06 -1.5127137e-06 7.899071e-06 1.248103e-06 -7.122659e-07
6.6973166e-06 -9.4873985e-06 -8.289929e-06 -2.6792e-07 2.3861092e-05 8.461377e-06 -4.8637703e-06 -5.119056e-07
1.1326819e-05 1.8665773e-07 -1.045495e-06 -5.5802275e-06 9.738205e-07 -1.1531109e-05 -9.03013e-06 2.2048155e-06
-5.821794e-06 2.588329e-06 -3.2417079e-06 -7.6131255e-07 -6.006207e-06 -6.4861285e-07 -1.5651206e-06 -5.650119e-06
-4.9782507e-06 -1.6677846e-07 4.750596e-06 -1.8697716e-06 2.3216605e-06 -2.6813404e-07 3.1201591e-06 3.5094947e-06

bn0.running_mean f4 [48]
00000000: 04d6 afc0 34a9 fdbe 5da9 7d40 9870 4a3f
00000010: 2879 ad3e bdb8 4540 5da9 7d40 9870 4a3f
00000020: a2d3 bdc0 5284 01bf 3cb7 8140 265a 2d3f
00000030: f077 c43e 4b6a 4140 3cb7 8140 265a 2d3f
00000040: 79bc c8c0 8c23 02bf 9437 8e40 9691 0f3f
00000050: 264b c63e 06ff 3440 9437 8e40 9691 0f3f
00000060: f039 9fc0 9843 f8be 28a7 a140 c22a 4b3f
00000070: 2879 adbe bdb8 4540 28a7 a140 c22a 4b3f
00000080: f382 acc0 beea f9be c69a a840 65ff 403f
00000090: f077 c4be 4b6a 4140 c69a a840 65ff 403f
000000a0: 339d b6c0 f592 f7be 3f22 bc40 7815 1e3f
000000b0: 264b c6be 06ff 3440 3f22 bc40 7815 1e3f
-5.494875 -0.49543154 3.963462 0.79078054 0.33881497 3.0894005 3.963462 0.79078054
-5.932084 -0.5059253 4.0536175 0.6771568 0.38372755 3.0221126 4.0536175 0.6771568
-6.273007 -0.5083549 4.4442844 0.5608152 0.3872921 2.8280654 4.4442844 0.5608152
-4.9758224 -0.4848907 5.051655 0.7936212 -0.33881497 3.0894005 5.051655 0.7936212
-5.390985 -0.48811907 5.2688932 0.753897 -0.38372755 3.0221126 5.2688932 0.753897
-5.7066894 -0.48354307 5.8791804 0.6175151 -0.3872921 2.8280654 5.8791804 0.6175151

bn0.running_var f4 [48]
00000000: 6247 8841 239b 863f ac75 a243 0705 e840
00000010: 6b19 2442 1f82 9f40 ac75 a243 0705 e840
00000020: b443 7c41 11ea 8b3f 27fc b443 2659 ff40
00000030: 8e70 3242 f73a b340 27fc b443 2659 ff40
00000040: f53c 6c41 579e 8f3f 603f bf43 550b 1241
00000050: f3d3 3e42 b872 d740 603f bf43 550b 1241
00000060: 2981 8d41 8df4 823f c51f 7c43 bd17 0141
00000070: 6b19 2442 1f82 9f40 c51f 7c43 bd17 0141
00000080: 62f6 8841 b5ea 883f 9866 8743 957c 0241
00000090: 8e70 3242 f73a b340 9866 8743 957c 0241
000000a0: a57f 8541 8ccc 8c3f eb59 9443 7f6b 1241
000000b0: f3d3 3e42 b872 d740 eb59 9443 7f6b 1241
17.034855 1.0516094 324.9193 7.2506137 41.024822 4.984634 324.9193 7.2506137
15.766529 1.0930806 361.96994 7.9796324 44.609917 5.600948 361.96994 7.9796324
14.764882 1.1220196 382.49512 9.127767 47.70698 6.7327538 382.49512 9.127767
17.688066 1.0230881 252.1241 8.0682955 41.024822 4.984634 252.1241 8.0682955
17.120304 1.0696627 270.8015 8.155416 44.609917 5.600948 270.8015 8.155416
16.687326 1.0999923 296.70248 9.151244 47.70698 6.7327538 296.70248 9.151244

bn1.weight f4 [128]
00000000: 0955 143f 68e4 8e3e e30f 3d3b c74c d93e
00000010: f812 963e 6076 2e3f 851e 083f 696f 2c3f
00000020: bd3e 143f 156a dd3e 8d59 663f 7e82 e83e
00000030: def1 623f 8ab0 ee3e 1141 233f d657 d23e
00000040: 1821 303f abde c63e 8bb2 503f 7d77 8e3e
00000050: 8e7b 823e 4eb4 963e 4a28 1e3f 6843 0b3f
00000060: 7868 5d3f 49a7 963e db50 7ebe a5ac 5b3e
00000070: c2e5 c13e 03b3 223f b670 283f a26e 503f
00000080: 64f3 8a3e 1a15 9b3e 0370 313f 71bf dc3e
00000090: 6594 243f 8981 023f ba24 343f 712f a83e
000000a0: 318e a53e 0f00 143f cadc 1d3f a9dc d23e
000000b0: 9c7b 0e3f de77 243f 900c 973e f6e7 b43e
000000c0: bed0 473f 5cad e63e ccf5 c53e 3ee4 a53e
000000d0: 09b6 e33e 029e 163f a7a5 b43e 176a 903e
000000e0: a9af 3e3f 3610 b23e 230e 633e c5ef bc3e
000000f0: b16c b23e 7753 7d3e eb5b 563f 55e6 0f3f
00000100: 01f6 093f 6111 593e 3b70 883e b8d1 c43e
00000110: 2fe1 f73e e5f1 693e ee26 953e 92e1 d63e
00000120: e7dc 0d3f 72cc cc3e 861a cb3e fc57 883e
00000130: 7564 863e 985b a03e d097 083f 45a9 723e
00000140: 74ab 773f 85c6 af3e 5aff 403f 5700 263f
00000150: 0077 4c3e 2628 093f cd3e b93e fcc1 e83e
00000160: 03ff c63e 3497 923e e0ec 2b3f 4655 9f3e
00000170: 5f07 fc3e 0d4f 573e 792b 5a3f 597f b83e
00000180: e583 de3e 1e30 433f f5da 413f d711 493f
00000190: e82f 4e3f e25d 813e 47f5 093f 4114 983e
000001a0: 9a0e f03e de4a 9c3e 1349 593f 3cb3 893e
000001b0: 5b8b 233f 0b3a 3e3f 7aa6 253f cf5f c93e
000001c0: d40e 663f e78d 1d3f 1db1 e33e 9df0 9d3e
000001d0: 2998 233f c9ea 153f 87ff c63e b733 4d3f
000001e0: 3944 123f f671 933e 80ec c43e 9894 033f
000001f0: 82c9 483f 046d 043f fb73 b23e da4e c83e
0.57942253 0.27908635 0.002884858 0.4244139 0.29311347 0.68149376 0.5317157 0.673575
0.5790823 0.43244997 0.89980394 0.45412058 0.8865031 0.46619064 0.6377116 0.41082639
0.688005 0.38841757 0.81522435 0.27825537 0.2548489 0.29434437 0.61780226 0.5439973
0.8648753 0.29424503 -0.24835531 0.21452577 0.37870604 0.635544 0.65796983 0.8141881
0.27138817 0.30289537 0.6931154 0.43114808 0.6428893 0.50978905 0.7036854 0.32848695
0.32335046 0.5781259 0.6166502 0.41183975 0.5565736 0.642454 0.29501772 0.35333222
0.7805289 0.45054138 0.3866409 0.32400697 0.4447482 0.5883485 0.35282633 0.2820594
0.74486786 0.34777993 0.22173361 0.3690168 0.3484855 0.2473887 0.83734006 0.56210834
0.53891 0.21198036 0.26648125 0.38441253 0.4841399 0.22846182 0.29131263 0.41968971
0.55415195 0.3999973 0.39668673 0.26629627 0.26248518 0.3131988 0.5335665 0.23697384
0.9674599 0.34331146 0.75389636 0.6484427 0.1996727 0.53576887 0.36180726 0.45460498
0.38866434 0.28630984 0.6715832 0.31119746 0.49224374 0.21026249 0.85222584 0.3603466
0.43460003 0.76245296 0.75724727 0.78542846 0.8054185 0.2526694 0.5388989 0.29702953
0.4688614 0.3052587 0.8487713 0.26894557 0.63884515 0.74307317 0.6470715 0.3933091
0.89866376 0.6154465 0.44471064 0.30847636 0.6390405 0.5856138 0.38866827 0.80157036
0.5713535 0.28797883 0.38461685 0.5139861 0.78432477 0.51728845 0.3485411 0.3912266

bn1.bias f4 [128]
00000000: 21c9 2dbe 9596 24be 13ac 58bc b5dc a0bd
00000010: 93eb 50be 1f1a 7dbe fd1b abbe 4d37 ccbd
00000020: c094 0fbe 2570 88be e3b4 a6bc ee55 f33c
00000030: 3f9c 42be 7f42 3bbe 10e2 9bbd 8834 a1be
00000040: 7aba 83be bc92 b9bd 73c8 10be 69fc 47be
00000050: 00f2 ffbc cc74 80be 886a 12be ed36 8ebe
00000060: a7d7 5fbd c146 e4bd 8f58 ddbd ec25 f3bd
00000070: e9b3 bfbd fa25 7ebe 76e8 8cbe eefd e9bb
00000080: 942e 2ebe c05d 6bbe 1a9b 0bbe 52bb dbbd
00000090: f05f bebd 95e9 45be a96c 21be 3262 1dbd
000000a0: 4803 68be ffe3 8abe 6d0b 6bbe 7297 92be
000000b0: 7579 aebc 29d1 4fbe 66ad 5fbe ea20 a5bc
000000c0: 03d5 08be df88 e2bd e8d5 3cbe e6ac 31be
000000d0: 3824 dd3c 753b 41be 2457 54bd 18eb 14be
000000e0: b609 8abe fff1 3bbe 5e36 403c 326b bdbd
000000f0: 3baa e4bd 06f6 ebbc 8eee 0cbe 3e6d e2bd
00000100: 5a19 56be 6588 c8bd f76c 8abd ab99 97bd
00000110: 9aa9 28be 028e 9cbd aae7 ffbd 42b3 07be
00000120: a8d4 5cbe 476e 713d e578 37ba 9ccf b9bc
00000130: 13ad 0abe a1f0 15be 373d 71be 0756 0fbd
00000140: d08d 2cbe 0af5 0abe d071 abbe 5de8 8dbe
00000150: f19d 26be d6ed 40be 5b48 bcbd 8069 b2ba
00000160: e216 1bbe 38be 2fbe 0c9a d7bd 0fa6 2e3d
00000170: 80f6 8cbe cf13 65be b037 d2bd fa78 79be
00000180: 00a2 dfbd 3cad 09be 235c 80be afaa 58be
00000190: 5bb4 bcbe 553d 4fbe bfed cbbd ca54 73be
000001a0: 67bc d9bd 9859 8ebc 7a90 6dbe 9c1e 03be
000001b0: e897 80be 3831 96bd acd0 28be ba0e e4bd
000001c0: 6cd2 91be 1e91 f0bd 212a adbe 9566 983d
000001d0: d811 8abe 3549 c3be 48f2 5cbe 81da 61bd
000001e0: eb22 56be 75f9 91bc 4aac 29be 7086 1fbe
000001f0: 59c4 86be 878a 6dbe 8e0a 89bd 48d7 05be
-0.16971256 -0.16073067 -0.013224619 -0.078545965 -0.20402364 -0.24716996 -0.3341979 -0.09971485
-0.14021587 -0.2664806 -0.020349925 0.02970406 -0.19004916 -0.18287085 -0.076114774 -0.3148539
-0.25728208 -0.090611905 -0.14138965 -0.1952988 -0.031243324 -0.2508911 -0.14298451 -0.2777628
-0.05464902 -0.11146308 -0.10807907 -0.118724674 -0.09360487 -0.24819174 -0.27521104 -0.0071408665
-0.17009956 -0.22984982 -0.13633385 -0.10729088 -0.092956424 -0.19327386 -0.15764107 -0.038423724
-0.22657502 -0.27127072 -0.22953577 -0.2863117 -0.02129815 -0.20294632 -0.2184349 -0.020157296
-0.13362508 -0.11061262 -0.18440974 -0.17351112 0.02699481 -0.18870337 -0.051840916 -0.14542806
-0.26960534 -0.18354033 0.011731712 -0.092489615 -0.111652814 -0.028803837 -0.13762876 -0.110559925
-0.20908108 -0.0979164 -0.06759065 -0.07402357 -0.16470948 -0.07644273 -0.12495358 -0.13251975
-0.21565497 0.05894306 -0.00069989107 -0.022682004 -0.13542585 -0.14642574 -0.23558508 -0.03499415
-0.16850972 -0.13570037 -0.3348527 -0.27716342 -0.16271187 -0.18840727 -0.09193488 -0.0013611764
-0.15145448 -0.17162406 -0.10527429 0.042638835 -0.27531815 -0.22370838 -0.10264528 -0.24362555
-0.10919571 -0.1344499 -0.25070295 -0.2115886 -0.3685635 -0.2023824 -0.09957456 -0.23762813
-0.10631638 -0.017376706 -0.23199645 -0.12804645 -0.25115895 -0.073336065 -0.16485852 -0.11135621
-0.28480852 -0.11746429 -0.33821204 0.07441441 -0.2696674 -0.3814179 -0.21576798 -0.055140022
-0.20911758 -0.017819146 -0.1656963 -0.15578628 -0.26321676 -0.23197375 -0.06691466 -0.13070405

bn1.running_mean f4 [128]
00000000: 4df6 a1bc 1440 1cba e85a 02be e914 733d
00000010: a51e c53d 4ac4 eabd 03b7 643d 292e 19bc
00000020: 9c7a 0a3e e847 0bbe a3ed fa3d bd9b 5bbd
00000030: 282d f93d 7fc3 96bd fb57 c83c e9eb 093d
00000040: e860 b73d 4c8b 8a3d 073a a53d a7e0 f8bc
00000050: 7de0 e9bd 7792 db3a 94cf 063e 91b5 ff3d
00000060: 10f2 adbd 0c5f cb3d 8cf3 843d a7f6 d5bc
00000070: f054 a13d 9d7b c5bb 14d9 8f3c ffb0 c1bd
00000080: 849d 91bc c2ad 103e e725 b73d d8e2 eebd
00000090: a513 06bc e849 bc3d 6cff 7cbd 06f1 93bc
000000a0: 0570 933d 6a72 f83d 541b 063e fe8a d5bd
000000b0: 1642 0bbe f4e9 d03d df26 37bc 0471 053e
000000c0: 6bc9 d13d 61d0 66bd fe57 293d b3d7 463d
000000d0: c09c 53bd f3cc 043e 560a 423c 563b 41bd
000000e0: c400 07be 9c8c ec3d 9390 12be a8fc e03d
000000f0: 1213 4fbd cd77 d8bc 06b8 9f3c c74a 113e
00000100: 4d9d c2bd 1aef d1bd cfb1 b13d e290 8fbd
00000110: 3c8f 59bd 2ade aa3d f50a 75bd 7b16 b03d
00000120: 5193 66bd 5c5c e33d 9c40 133e 3789 a33c
00000130: 9bd8 44bd c444 a63d 503d 253d 7125 213a
00000140: 5ee2 033e a6f7 08bc eed1 4f3d aa0a 30bd
00000150: ca81 d6bc 6166 cbbb 9f30 1f3c 3c46 813d
00000160: 98fb de3d de34 b53d eda6 78bd dc7c 043e
00000170: 8ca9 c73d 7a20 553d 101f 813c b649 a7bd
00000180: cf73 b0bd 0841 403a 3fde dbbd 604d 4f3d
00000190: 3026 06be f4ca 03be bcc8 84bd 1213 aa3d
000001a0: 5c6c e73d de72 f8bd e2ac babd b024 033d
000001b0: 3663 d7bc db3e f2bd 3253 243d 940d f6bd
000001c0: 8185 143c 66ff 703d e352 083e f14a fcbd
000001d0: 09b2 dc3d 198e a43c 7ab1 003e be78 113e
000001e0: 8f79 13bd b029 b8bc 58e4 0ebd 3e79 e83d
000001f0: a504 80bd 9239 c33d 4123 733d 0ef8 0a3e
-0.019770766 -0.0005960476 -0.1272999 0.059346113 0.096249856 -0.114632204 0.055838596 -0.009349384
0.13523334 -0.13601649 0.12252357 -0.05361532 0.12166816 -0.07361507 0.024456015 0.033672247
0.0895403 0.0676485 0.080677085 -0.03038056 -0.11419771 0.0016752024 0.13165122 0.12485803
-0.084934354 0.09930238 0.064917654 -0.02611859 0.07877529 -0.0060266987 0.017559566 -0.094575875
-0.017775305 0.14128783 0.08942776 -0.11664361 -0.008183395 0.09193784 -0.061767027 -0.018059265
0.071991004 0.12131198 0.13096362 -0.10426901 -0.13599429 0.10200873 -0.011178701 0.13031393
0.102434956 -0.05635107 0.04134368 0.04854555 -0.05166316 0.12968807 0.011843285 -0.047175728
-0.13183886 0.115502566 -0.14312963 0.1098569 -0.050555296 -0.026424313 0.019496929 0.14188682
-0.09502659 -0.10250683 0.086764924 -0.07010056 -0.053115115 0.08343156 -0.059824903 0.08598038
-0.056292836 0.111016005 0.14380115 0.01996289 -0.048058134 0.08118585 0.040341675 0.0006147242
0.12879321 -0.008359825 0.050737314 -0.04297892 -0.026184935 -0.006207273 0.009716182 0.06312224
0.108878314 0.08847974 -0.060706068 0.12938255 0.097491354 0.052032925 0.015761882 -0.08168356
-0.08615839 0.0007333909 -0.107357495 0.0506109 -0.13100505 -0.12870389 -0.064835995 0.083044186
0.11299965 -0.12131284 -0.09115006 0.03201741 -0.026292425 -0.11828395 0.040118404 -0.120143086
0.009065033 0.058837317 0.13312869 -0.123189814 0.10776145 0.020087289 0.12567702 0.14206216
-0.0360046 -0.022480816 -0.034885734 0.1135125 -0.06250886 0.09532465 0.059359793 0.13571188

bn1.running_var f4 [128]
00000000: 35c1 213e 6eab 393e 426a dd3c bc9d cd3e
00000010: e02b 4f3f faaf 253e a937 173e aa5c 8d3e
00000020: b737 f53e e69e 233e 3f2c e13e 1402 563f
00000030: 724f 213f 5dc5 9e3e b547 043f 6516 853e
00000040: ff6b f43e e0c8 843e 198b be3e 0bc5 473e
00000050: 3c8d 9e3e de5d 0b3e 8086 7b3e edca 293e
00000060: 0887 eb3e 70ea 803e 5aef c03e 53e2 1c3e
00000070: 37a1 833e 38c5 af3e ea92 b73e d68b 2e3f
00000080: 9aad 463e 0566 433e f6a0 c33e 9977 833e
00000090: c5b1 703e 5cc7 8d3e d942 9d3e d4a5 9c3e
000000a0: 1a49 943e a125 633e 8217 ff3e 9bf5 223e
000000b0: e9ff 1e3e 2acb 483e 691b 5c3e 49fd 8c3e
000000c0: a55e bf3e dd32 9d3e c13a 773e 0858 773e
000000d0: c6fb 173f 714d 903e 4eed 503e 4b58 373e
000000e0: 9fa8 543f d9b3 463e 57f5 163f 0528 0b3e
000000f0: 3a98 473f 1b06 453e 658e c63e eba3 8c3e
00000100: 6a61 783e fe19 ce3d 7e8d 893e 334a 823e
00000110: 220c c83e ac65 8e3e 14be 853e b18c 3b3e
00000120: 5b46 803f 81a9 253e 870e 723e c7ec 643e
00000130: d5a2 703e 0ece be3e 439d 9a3e 3317 583e
00000140: ab89 923f 68b5 2a3e 6e17 5b3f 8760 8b3e
00000150: 96ba 6a3e 96b0 103e 8830 6f3e 9f6d bf3e
00000160: 9784 923e fb7e 983e b857 283e 67f4 7e3e
00000170: 7f59 263e 0634 6d3e ec47 553e 5c8e 573e
00000180: e462 ff3e 1cb9 7f3f 2582 863e ee3b fe3e
00000190: 5178 7c3e da2c 193e 7ca0 493e dc3d c13d
000001a0: 5cc0 9e3e 2bde c93e 3ffd d53e 732f 5b3e
000001b0: cd8b 413e 449b 1e3e 1f70 e73e eaaf 9f3e
000001c0: 1a53 e63e a13f 913e 9471 183e 2e9d 713e
000001d0: e8f0 493e d7b3 9c3e 81c7 8e3e 3914 c43e
000001e0: 0284 923e 6854 4e3e 8d0d aa3e 6fe6 b13e
000001f0: 28f6 ad3e d163 853e 4da2 063e dfc8 693e
0.15796359 0.18131801 0.027028207 0.40159404 0.8092632 0.16180411 0.14767326 0.2760976
0.4789407 0.15978584 0.4397907 0.8359692 0.6301185 0.3100995 0.51671916 0.25993648
0.47738644 0.25934505 0.37215498 0.1950876 0.30967128 0.13610026 0.24563026 0.16581316
0.46001458 0.25178862 0.3768261 0.15320711 0.25708935 0.34330153 0.35854274 0.6818212
0.19402161 0.19081886 0.3820874 0.25677183 0.23505314 0.27691162 0.30715063 0.30595267
0.28962022 0.22182323 0.49822623 0.15914004 0.1552731 0.19608751 0.21494831 0.2753699
0.37376896 0.30702868 0.24143507 0.24154675 0.5936855 0.28184083 0.20403025 0.17904775
0.83069795 0.19404544 0.5896811 0.13589485 0.77966654 0.1924061 0.38780513 0.2746881
0.2425591 0.10063551 0.26865762 0.25447235 0.39071757 0.27811944 0.2612158 0.18315388
1.0021471 0.16177942 0.23638354 0.22355948 0.23499615 0.37266582 0.30198106 0.211026
1.1448263 0.16670763 0.85582626 0.27222082 0.2292274 0.14129862 0.23358357 0.37388322
0.28616783 0.29784378 0.16439712 0.2489792 0.16245078 0.23164377 0.20828217 0.210504
0.49880135 0.9989183 0.26271167 0.49655098 0.24655272 0.14958516 0.19690126 0.09435627
0.31006134 0.39427313 0.41794774 0.21404819 0.18900986 0.15488917 0.4520273 0.311889
0.44985276 0.28368858 0.14887077 0.23595116 0.19720805 0.30605957 0.27886584 0.3829668
0.2861634 0.20149386 0.33213463 0.3474612 0.33976865 0.26052716 0.1314785 0.22830532

bn2.weight f4 [128]
00000000: 3cb3 c63d 25c9 fc3e 5983 333f 4fa0 f63d
00000010: 25ca c13e 202d 073f fa03 b93e ac16 4e3e
00000020: 0423 f03e 842c 103f ee77 023f 7c38 7d3e
00000030: 7666 853e a33f cc3e e8a9 873e 6799 4d3e
00000040: bd92 043f 23b5 1d3f eb91 803e 6fce 853e
00000050: 39f4 923e 16c0 903e 1df2 c23e d732 e23e
00000060: 065e 873d feac 6d3e 45b6 003f 5fc7 003f
00000070: 0a2f 903e a4ee 133e 560b 1c3e 3d6c b43d
00000080: ae15 623e f7f0 e53e 1c78 0c3f c7e6 fb3e
00000090: ce9c de3d 4ede 053e d86b 803e 1ef3 203f
000000a0: 4b10 983e 3932 4e3e b90f ec3e a691 583e
000000b0: cbfa f03d 4569 0c3f b8fa 3b3e 27cb 873e
000000c0: d305 013a 2737 093f 02ed ed3e 80e8 cc3e
000000d0: 158f d13d 0c02 70ba fc77 cf3d 5493 3b3f
000000e0: 7e81 fd3e 3e8d 223f 1607 013f 592d b43e
000000f0: f432 a83e b6c9 bd3d 2f5c a63d 7570 7b3d
00000100: b9b4 e83e 6051 ff3d cd75 7f3e f8f3 df3d
00000110: ffa8 793e 1cb9 c83d 6f3e 113e d082 ef3e
00000120: 3f64 5e3e 4121 c33e 32e6 613e 11f7 d13d
00000130: 6553 713e 2d11 253e 18aa 4d3e b717 913d
00000140: 6056 ee3e 9942 e43d 32ef e23e d244 f33e
00000150: e26b 183f b4c0 cf3d 4dc8 183f c3d7 193e
00000160: 62e4 fa3e 70f5 113f d472 8b3e 5198 8e3e
00000170: 4745 6c3e b89e bd3d 11b3 fd3e b1cc 06ba
00000180: e626 e03e 6f96 043f 7ae2 0b3f 7a41 793e
00000190: d45e ac3d 9d24 c33e 568c 183f e3b9 95ba
000001a0: 83c3 843e fb31 fb3d dc45 b53e d310 203e
000001b0: d4ba 733e 6cff 6d3e 6d38 893d e442 193f
000001c0: c7d7 1f3f 01f8 b53e 505f 923e abd7 6a3e
000001d0: 34f3 e43d c38a 1d3b 0439 083f 5898 263e
000001e0: 26f5 f73d 1d0f 863e 581d 663e fdfe 5f3e
000001f0: aa4e 993e 7c8b 7e3e 6a39 443e 69a9 273e
0.09702155 0.4937221 0.70122296 0.12042295 0.37849537 0.5280323 0.36135846 0.20125836
0.46901715 0.56317925 0.5096425 0.24728578 0.26054734 0.398923 0.26496816 0.2007805
0.51786405 0.6160452 0.25111327 0.2613406 0.28701952 0.2827155 0.38075343 0.44179413
0.066097304 0.23210523 0.5027812 0.50304216 0.28160888 0.14446503 0.152387 0.08809707
0.22078583 0.44910404 0.5487077 0.49199507 0.10869752 0.13073084 0.25082278 0.6287097
0.2969993 0.20136346 0.46105745 0.2114931 0.11766585 0.5484813 0.1835736 0.2652218
0.00049218273 0.5359978 0.46469885 0.40021133 0.10232369 -0.00091555784 0.10130307 0.7327168
0.49512857 0.6349677 0.5040144 0.35190848 0.32851374 0.09266989 0.081230514 0.061386544
0.4545038 0.12466693 0.24947281 0.10935205 0.24380873 0.09800932 0.14183973 0.4677949
0.21717928 0.38111308 0.22060469 0.10252202 0.23566969 0.16119833 0.20084417 0.07084601
0.46550274 0.11145515 0.44323117 0.47513443 0.59539616 0.10144177 0.59680635 0.15023713
0.49002367 0.5701513 0.27236044 0.27850583 0.23073302 0.09258789 0.4955068 -0.0005142196
0.43779677 0.51792043 0.5464245 0.24341384 0.084165245 0.3811387 0.59589136 -0.0011423196
0.25930414 0.122653924 0.3540486 0.15631418 0.23801738 0.23241967 0.067002155 0.5986769
0.62438625 0.35540774 0.28588343 0.22933833 0.111792 0.0024039007 0.53212 0.16269052
0.12107305 0.26183406 0.22472131 0.21874614 0.29942828 0.24857897 0.19162527 0.16373219

bn2.bias f4 [128]
00000000: bd9d c5bd 54c7 3cbe b64c 31be 3e7d 7dbe
00000010: 6c11 8fbe 533d 72be e43a 56be c1f4 1fbe
00000020: ac1d 9cbe d90f 9dbe 0e0b 2fbe b748 4ebe
00000030: b2bf 20be b57f 6dbe 2b21 30be e5fc 36be
00000040: 1c37 90be 6dff 88be d965 27be 422b 1bbe
00000050: 3202 83be 4b3f 31be 01a5 82be d7b4 88be
00000060: 63e8 b6bd c6ff e1bd 6e86 c4be 4084 11be
00000070: d3a3 3fbe f34b 7abe 113f dcbd 7703 d8bc
00000080: 139b 10be 0e12 77be c046 37be 3917 46be
00000090: 3869 7ebe b2a8 fabd 3036 35be 1959 d5be
000000a0: 4433 8ebe e49a 35be e0be 7bbe 5171 02be
000000b0: a7fe f6bd 6f9e a1be 1f59 11be cd74 32be
000000c0: 26ea 3dbb 5d6b a1be 5363 b9be e9a1 7ebe
000000d0: e566 d0bd ac5c eabb f497 c8bd 5733 4abe
000000e0: c620 91be 1716 94be e6ea 54be af6c 80be
000000f0: 1284 11be 258f cbbd d5bb 00be 901d acbd
00000100: 9491 7abe 0468 4cbe bac6 14be 81e9 4ebe
00000110: 9f36 30be 5f9e 22be fde5 3fbd a3a3 84be
00000120: 1364 1abe e157 cebe e7fb 2bbe 0eb3 bebd
00000130: 03cd 51be 7d5e ffbd 150c 5fbe d5ec 15be
00000140: 6231 abbe 71a9 debd 4592 8abe 3c68 79be
00000150: 68a6 8dbe 5838 02be f5e4 96be fe59 55be
00000160: 7328 3dbe d4a1 cbbe a0c8 26be 44d9 4ebe
00000170: fd7e 32be f605 9abd ec9d 58be a7ff 90bb
00000180: f82e c4be 0140 b9be 34dd d6be c5e4 08be
00000190: 4612 87bc 0b18 71be 2487 32be be28 e0bb
000001a0: ed5b 10be a267 fdbd bad6 0ebe 6d9e f4bd
000001b0: cda2 bbbc 476c c5bd aaa5 fcbd b3fd 93be
000001c0: 2a3b 9cbe a2cf aabd cb42 61be 5f1b a5bd
000001d0: 294d 77be 406d 2ebc 97ce 1dbe 30ff cabd
000001e0: e784 febd 6e96 42be a59c 06be 2d27 3abe
000001f0: c1f7 84be 8f0c 04be 21ca 0cbe b606 0cbe
-0.09649227 -0.18435413 -0.17314419 -0.24754807 -0.2794298 -0.23656206 -0.20920902 -0.1562071
-0.30491388 -0.30676153 -0.17094061 -0.20144926 -0.15698126 -0.23193248 -0.17200153 -0.17869909
-0.28167045 -0.26757374 -0.16347446 -0.1515322 -0.25587612 -0.173093 -0.25516513 -0.2670047
-0.08931043 -0.11035113 -0.38383812 -0.14210606 -0.18714838 -0.24443035 -0.107542165 -0.02636884
-0.14121656 -0.24127981 -0.17898083 -0.19344796 -0.24844825 -0.12239207 -0.17696452 -0.4166954
-0.27773488 -0.17734867 -0.24584532 -0.1273854 -0.1206029 -0.31566188 -0.14194153 -0.17427368
-0.0028978675 -0.31527224 -0.3620859 -0.24866451 -0.101758756 -0.0071521606 -0.09794608 -0.19746147
-0.28345317 -0.28923103 -0.20792732 -0.2508292 -0.14210537 -0.09939412 -0.12571652 -0.08404076
-0.24469596 -0.19961554 -0.14528933 -0.20206262 -0.17208336 -0.15880726 -0.046850193 -0.25906095
-0.15077238 -0.4030142 -0.16795312 -0.09311496 -0.20488362 -0.12469194 -0.21781953 -0.14641126
-0.33436114 -0.10872162 -0.2706472 -0.24356169 -0.2766602 -0.12716806 -0.29471555 -0.2083511
-0.18472461 -0.39771903 -0.1628747 -0.20200068 -0.17431255 -0.07520668 -0.21153992 -0.0044250074
-0.38317084 -0.36181644 -0.4196564 -0.13368519 -0.016488206 -0.23544328 -0.17434365 -0.0068407943
-0.14097567 -0.12373282 -0.13949099 -0.1194428 -0.022904778 -0.09639793 -0.123362854 -0.28904495
-0.3051389 -0.08340384 -0.21998136 -0.08061861 -0.24150528 -0.010646164 -0.15410839 -0.099119544
-0.12427693 -0.19002697 -0.13145693 -0.18179007 -0.2597027 -0.12895416 -0.13748981 -0.13674435

bn2.running_mean f4 [128]
00000000: 991d 20bf 1f03 1fbf 1445 4abe 76e3 6dbf
00000010: a9d4 2c3d be62 afbe 05a0 aabe 3cf1 d8be
00000020: 252d afbd be5a 8fbe 386f c3be 07de 34be
00000030: b2b6 dabe ce37 16bf b980 bfbd 6ac9 853e
00000040: 5657 54be 0ba2 31bf 9e01 ccbe c40c 4bbf
00000050: 5b98 3bbf bbb6 32be 4dde a4be 3226 b2be
00000060: d48e 183e 2d1b 8cbe 74e2 06bf 21ea a1be
00000070: 3929 35be 0469 17bf 98de 67bd 1017 e53d
00000080: 2b34 b2be 831d 52be f53d 0fbf 3ec4 22bf
00000090: 33c7 6fbf ebd0 0cbf 6c47 d4be b0b7 49bf
000000a0: f103 cdbe 206a dbbe 1221 40bf a9dd d7be
000000b0: 5377 5dbe fa5b f9be 59c1 32bf 0fb4 4ebe
000000c0: 7351 25bd d5fb 21bf d38f dabe 8f7b edbe
000000d0: 2ea1 0bbe f12a e0bc 6c8b 1f3f c3e1 34bf
000000e0: cf20 08bf 5f11 03bf daeb c0bd 71f9 f8bd
000000f0: 6243 cabe 2c4f de3e 3ada 9bbe bc1c 0c3e
00000100: d7fa fdbb 2ea8 bebe 7cd5 94bb decd d5be
00000110: 73d0 edbe ac17 11bf 2184 73bc 93f6 b6be
00000120: ac91 eebe ee0c f5be 6029 e0be 611e 803e
00000130: 7560 2ebe 8a67 e4be 29d9 e2be d14a a4be
00000140: f08d 52be dc5b c0be b384 cabe 3eda f9be
00000150: b00d 1fbe d9b9 fcbe d7ef b0bd 34c2 59bf
00000160: 0f55 b4be 181f dabe ae0f 0dbf 1657 98be
00000170: d8b4 10bf 8147 5ebe a48e debe c251 b8bc
00000180: 82d2 28be 8fb1 1cbf 7aab f2be 2ace fdbd
00000190: df89 d13b e10b dfbe 6520 acbe b958 3dbd
000001a0: de9a afbe ea0c 34bf 4137 acbe 30c9 b6be
000001b0: 4d83 153f 4972 8dbe 7899 3dbf e6bf 33bf
000001c0: 4c2b a4be cfcf 8dbd b810 48be a0bc 9abc
000001d0: 68a3 76bf 3a66 dbbc dd44 5cbe b105 e73d
000001e0: c7dd 12bf 23fc 25bf 0f92 77be 6c4b eebe
000001f0: 3cc7 26bf 2938 1abe 1cbb eebe fea1 a8be
-0.6254516 -0.6211414 -0.19752914 -0.929252 0.042194996 -0.34255022 -0.3332521 -0.42371547
-0.085535325 -0.27998918 -0.3817079 -0.17662822 -0.4271751 -0.586789 -0.09350724 0.2613023
-0.20736441 -0.6938788 -0.39844984 -0.79316354 -0.7327935 -0.17452519 -0.32200852 -0.34794766
0.14898235 -0.27364483 -0.5268929 -0.3162394 -0.17691506 -0.59144616 -0.056608766 0.111860394
-0.34805426 -0.2051907 -0.55953914 -0.6358069 -0.9366333 -0.55006284 -0.4146074 -0.7879591
-0.4004207 -0.42854404 -0.7505046 -0.421613 -0.2162755 -0.48702985 -0.69826275 -0.20185874
-0.04036088 -0.6327489 -0.42687854 -0.4638333 -0.13635704 -0.027364226 0.62322116 -0.70656985
-0.5317506 -0.5119838 -0.09419985 -0.12156952 -0.39504534 0.43419778 -0.3043993 0.13682836
-0.0077508497 -0.37237686 -0.004542051 -0.41758627 -0.46448097 -0.56676745 -0.014863045 -0.35734996
-0.46595514 -0.47861427 -0.43781567 0.25023177 -0.17028983 -0.44610244 -0.44306305 -0.3208833
-0.20561957 -0.37570083 -0.39554366 -0.48799318 -0.15532565 -0.4936054 -0.08639496 -0.85061955
-0.35221145 -0.42601848 -0.5510205 -0.2975394 -0.56525946 -0.21706964 -0.434682 -0.022499923
-0.16486552 -0.6120843 -0.4739645 -0.12392838 0.0063946093 -0.4356375 -0.33618465 -0.04622719
-0.34297842 -0.70332205 -0.33635905 -0.3570037 0.58403474 -0.27626255 -0.740623 -0.7021469
-0.32064283 -0.06924402 -0.19537628 -0.018888772 -0.9634309 -0.026782144 -0.21510644 0.112803824
-0.57369655 -0.64837855 -0.2417681 -0.46541917 -0.6514776 -0.15060486 -0.46627128 -0.3293609

bn2.running_var f4 [128]
00000000: b3bd e03d c49b 143e a19b 693e 4e94 103e
00000010: 1435 873d 157f bd3d 0185 b13d fee6 953d
00000020: 7248 1a3e 0cbc 963d 8352 263e 606e 0c3e
00000030: 6539 0f3e b1bc 983e 2f23 ed3d 104e 553e
00000040: bcb4 203e 01a8 003e f415 e73d 4706 763e
00000050: abe1 1e3e 27fe 983d 6a3a bf3d 2342 0b3e
00000060: cbd6 f13d f3bc 633e 73e0 243e d4e7 ce3d
00000070: cc3d 0a3e 4f6e a13d a2c5 163e 7718 103e
00000080: 6f06 f73d 0987 c33d 110f 353e 3d12 423e
00000090: fa8b aa3d 3af4 ce3d a034 a03d a4e0 a73e
000000a0: 117a a83d f5f4 9f3d 9119 7a3e 6fba d63d
000000b0: e082 ac3d 80d7 403d 6340 1a3e 7f38 283e
000000c0: 7993 ea3c 7ea8 823d 79c9 0a3e 8ac2 893d
000000d0: 266d f13d bdde d73c b556 5a3e a628 4b3e
000000e0: 4def 073e 8249 1c3e 56fd da3d 01f2 273e
000000f0: 5e73 1f3e 1ebc de3d c573 b53d 811f 843d
00000100: b770 5d3e 1655 bf3d 86bf 053e 18a2 8b3d
00000110: 6d19 003e 52e9 b83d 8ea5 5d3e 9262 243e
00000120: c9d0 663e ff16 263e 3aa4 ed3d 18da ef3d
00000130: 3973 433e 9e16 023e 2496 dd3d ea14 b03d
00000140: 6023 e83d 7564 123e bc72 463e 74e9 303e
00000150: 1bf5 2c3e 46e9 873d 3f6e 633e 4602 c03d
00000160: e327 063e f35d 213e d278 c63d b94d 973d
00000170: 87a7 293e 32dc f93d 1a0b 1a3e 43b9 4d3d
00000180: 1758 013e a7fb df3d b927 b13d 4cd9 013e
00000190: 556e ee3d 71e9 313e 2be4 083e 8850 c33c
000001a0: 2ee7 0f3e f8c0 ee3d 4de8 5a3e 6424 dd3d
000001b0: 5cb3 243e f1c0 8c3e 494a ba3d 16e0 253e
000001c0: 5ecb 1c3e f4e4 7c3e 9709 5a3e db73 963e
000001d0: 5ccf c73d 8543 e53c cc6d 1f3e 0939 113e
000001e0: 4d33 703e 2c9b 8a3d 78bf 3f3e 7cd3 e73d
000001f0: 4d29 003e 102b 0d3e 540e d43d 1d79 613e
0.10973682 0.14512545 0.22813274 0.14119074 0.06601921 0.092527546 0.086679466 0.07319449
0.15066698 0.07360086 0.16242413 0.1371398 0.13986738 0.2983146 0.11578976 0.2083056
0.15693945 0.12564088 0.11283484 0.24025832 0.15515773 0.07470351 0.093373135 0.13599448
0.11808547 0.22240047 0.16101246 0.101028115 0.13500136 0.07882368 0.14723828 0.14071833
0.12061774 0.0954724 0.17681529 0.1895227 0.0832748 0.10105176 0.078225374 0.32788575
0.08226407 0.07810394 0.24423815 0.10484778 0.084234 0.047080517 0.15063624 0.16427802
0.028634774 0.063797936 0.13553418 0.067265585 0.117883965 0.026351327 0.21322139 0.19839725
0.1327488 0.15262416 0.10692851 0.16400911 0.15571353 0.10875724 0.08859972 0.064513214
0.21625029 0.09342401 0.13061342 0.06818026 0.12509699 0.09028877 0.21645185 0.16053227
0.22540583 0.1621971 0.11603589 0.1171152 0.19086923 0.1270394 0.10819653 0.08597739
0.11334872 0.14296134 0.19379705 0.17276555 0.16890375 0.0663629 0.22210024 0.093754336
0.13101153 0.15758495 0.096910134 0.07387871 0.16567813 0.12200202 0.15043297 0.050225507
0.1263126 0.10936671 0.086501546 0.12680548 0.11642138 0.17374207 0.13368289 0.023842111
0.14053032 0.116578996 0.21377678 0.107979566 0.16084045 0.27490953 0.090962 0.16198763
0.15311953 0.24696714 0.2129272 0.29385266 0.097563475 0.027986297 0.15569228 0.14181913
0.2345707 0.06767878 0.18725383 0.11319634 0.12515755 0.13785958 0.103542954 0.22018857

fcs1.weight f4 [128, 48]
00000000: d643 42be 3f1d fdbd da53 36bc 7682 fe3d
00000010: bc45 29be 7938 28bc 95a9 febc 0ef4 183e
00000020: 4a66 36bc 1e84 3dbd f116 b13d 8625 6a3d
00000030: c151 35bd ecab 33bc 3f7e ad3d 0e12 e73d
00000040: ac13 c33d 2b61 373d ff85 453d 9666 e6bd
00000050: 8acf e73d 5f69 013d aa62 6c3d dcb0 8dbd
00000060: eea6 52bd f639 a1bd 421d 353d 0035 97bd
00000070: 4aea af3d 0168 7dbc b45d bf3d 6e4c 80bd
00000080: 1d54 29bd 6f52 5d3d 02f4 c9b9 d27f 403d
00000090: 1fe8 273d ef07 28be f10f b3bc bf8b f63d
000000a0: 24ba 87bd dfa9 873d 748b 37be ecc2 d63c
000000b0: 4438 abbd 7e51 89bd 94df 64be 1f57 023d
000000c0: 5753 253e fe16 423e 8857 8b3d 3bc8 363e
000000d0: e84b a2bd 0684 62bd 279f be3d a2cc 343e
000000e0: 8531 9d3c 9ae9 3a3e 9d72 063c b873 a3bb
000000f0: f8af 84bd d90e 293d eb22 313d f6b4 d9bc
00000100: eb27 babd 5923 5f3d 3490 9ebc b75a 47be
00000110: 25d7 263d 4caa 64bd 6f4f c2bd e095 c8bd
00000120: 7f95 2fbd f50b 15bd 6513 1e3d cb03 50bd
00000130: e772 e33d 0a69 953d f009 533d 1415 63bc
00000140: 91c2 00be 2116 b9bc 4da5 3f3e 9546 0f3e
00000150: 2c29 cd3a f44d d8bc aa36 a73d c8b1 9b3c
00000160: e1da b4bd 9688 2f3c 4fe4 9b3a 711e 1fbe
00000170: f398 d0bd 4685 e13a 106c ea3d 1fbf 3fbe
00000180: f31c fabc b812 bbbc 5ffd ad3c 31f6 56bd
00000190: e16a c1bc 9f69 50bd a911 b8bc 2925 2d3d
000001a0: 4032 b5bc 1a26 68bc 736f 69bd f6e3 ce3c
000001b0: d5c9 56bd b9a0 5f3c 8d70 b2bd a1ae 0f3d
000001c0: 735a 2c3d 91d5 9fbd b6d1 fabb ff03 86bd
000001d0: 4847 1dbd d88d 1b3d ac7f 3ebd cdb6 123d
000001e0: eb86 393d f8a7 a23d 43a3 15bd e34a 9bbd
000001f0: 1965 683d ef10 acbc 29c6 2abd 2af8 26bd
00000200: ea1d b13d 6b95 86bd 3a97 953c 8aba 9a3c
00000210: 2383 1cbd 55f6 2c3d 3364 4c3d 22f2 753d
00000220: 004f b53c dee3 c83c 9c19 d03c b6c3 b8bc
00000230: 99a4 9dbd 59cb c939 c50b 0d3c 1e03 713d
00000240: b0e7 80bd 0877 2cbe 74d6 8cbd 48a1 e73d
00000250: 7941 243e 5db2 a33e 3a7a 16bd 35df b7bb
00000260: 610b e3bd f38b 34be be26 9abd 838b 103e
00000270: ef3c 033d 1490 c7bd c025 01bd 7c9a 503e
00000280: 9d42 fdbc 747c dfbd a1eb 9cbd 0771 1b3e
00000290: a4c1 4fbe a655 41be cbd0 95bb c5db 223e
000002a0: acbc b83d ad72 2b3d d2d6 5c3a 0a3a 563e
000002b0: fbb0 1ebe a96d 943e f5bb 833a dcb2 8e3e
000002c0: a78e 0ebe 6c69 613d 885e 98bc d43c 88bc
000002d0: 605d b136 1574 643c 4a25 803b fbb8 b33d
000002e0: 6679 00be d911 49bd 2b6a a8bc f7ab 943d
000002f0: a230 bd3d 5a9e 27be 99d0 163c 0f31 7e3d
00000300: be53 013e 4f5f ba3d 4c51 0d3d 2ae8 23bd
00000310: 61c0 2f3d 1461 03be 68e2 2b3e 4a10 18bd
00000320: e2aa 5bbd a164 dc3d c669 443d aa37 463d
00000330: d140 97bd ef7e 90be 56a6 31bd f7d6 c83d
00000340: 1cf6 633c fd15 7d3d 08dc 0bbe 47d7 aa3c
00000350: afc7 6c3d fe68 c6be ab6f 31bd 0d6f 87bc
00000360: 383b 4f3d fc4d 33be ea58 85ba 78a5 233b
00000370: b970 61bc 54ef 6fbc f4f3 5f3d 1ab9 7d3c
00000380: 2303 11bd 92ec 17be 9d75 8b3d 2f74 633d
00000390: 9d5f 113d 2437 a6be c40c 463d 46f0 d1bc
000003a0: 9792 5a3d a059 a7bc 2ad6 25bd ca83 033e
000003b0: 9c43 163d e445 aebe 6e8f b43c f793 083e
000003c0: 43db e63d d34d 943d 74b2 3f3e c198 e1bc
000003d0: a53f 4ebe 3483 0ebd f582 fd3d 8042 8dbd
000003e0: 9371 cf3d 0ae9 0fbd e387 0bbc f02f 363d
000003f0: a6be a4bd 33ce 0c3d e662 62bd bbf0 513d
-0.1897119 -0.12359094 -0.01112839 0.12427227 -0.16530508 -0.01026737 -0.031086722 0.1493685
-0.011132786 -0.046268575 0.08646954 0.05716469 -0.04426742 -0.010966282 0.08471345 0.112827405
0.095252365 0.0447704 0.04822349 -0.112500355 0.11318882 0.03159463 0.05771128 -0.06918499
-0.051428728 -0.07872383 0.044217356 -0.07383156 0.08589609 -0.015466691 0.09344044 -0.06264578
-0.041339982 0.054033693 -0.00038519508 0.0469969 0.040992852 -0.16409276 -0.021858187 0.12038373
-0.066273004 0.06624197 -0.17924291 0.026215993 -0.08360341 -0.067049965 -0.22350913 0.031821366
0.16145073 0.18954083 0.06803805 0.1784982 -0.07924634 -0.05530169 0.093077 0.17656186
0.019188652 0.18253174 0.008206037 -0.00498816 -0.06478876 0.041273925 0.04324619 -0.026575547
-0.09089645 0.05447707 -0.01935587 -0.19468199 0.04073252 -0.05582647 -0.09487807 -0.097942114
-0.04286718 -0.036388356 0.038592715 -0.050784867 0.111059 0.07295425 0.05152315 -0.013860006
-0.12574221 -0.02259356 0.18715401 0.13991769 0.0015652529 -0.026404358 0.08164723 0.019005671
-0.0883081 0.010713717 0.0011893603 -0.15538956 -0.10185423 0.0017205856 0.114463925 -0.1872525
-0.030531382 -0.022836074 0.02123898 -0.05248088 -0.023610534 -0.050881978 -0.022469359 0.042271767
-0.022118688 -0.01416924 -0.056991052 0.025255185 -0.052438576 0.013649159 -0.087128736 0.03507865
0.042078447 -0.078044064 -0.007654394 -0.06543731 -0.038398057 0.03797707 -0.046508476 0.035818864
0.045294683 0.07942194 -0.03653265 -0.07582643 0.05673704 -0.021004168 -0.041692887 -0.04076401
0.08648284 -0.06571468 0.018260587 0.018887777 -0.038211 0.042227108 0.049900245 0.06004537
0.022132397 0.024522718 0.025402837 -0.02255426 -0.0769741 0.00038489213 0.008608763 0.058840863
-0.06294191 -0.16842282 -0.06876841 0.11310059 0.16040601 0.31972018 -0.036737658 -0.005611325
-0.11086155 -0.17631511 -0.07526921 0.1411572 0.032040533 -0.097442776 -0.03153014 0.20371431
-0.030915553 -0.109124094 -0.0766213 0.15179835 -0.20288712 -0.18880329 -0.004572009 0.15904148
0.09020361 0.04185741 0.00084243447 0.20920578 -0.154972 0.28989914 0.0010050522 0.27870834
-0.13921605 0.05503218 -0.018599764 -0.016630568 5.2858813e-06 0.013943692 0.003910695 0.087755166
-0.1254631 -0.049089286 -0.020558437 0.07259362 0.092377916 -0.16369 0.009205007 0.062058505
0.12629601 0.0910021 0.03450136 -0.04001633 0.042908076 -0.12830001 0.16785586 -0.03712491
-0.053629763 0.10761381 0.047952436 0.04839293 -0.073854096 -0.28221843 -0.04337152 0.09806626
0.0139136575 0.061788548 -0.13658154 0.020854605 0.05780762 -0.38751978 -0.043319385 -0.016532445
0.050593585 -0.17510217 -0.0010173593 0.0024970453 -0.013759785 -0.014644463 0.05467601 0.015486026
-0.035403382 -0.14836338 0.06809542 0.055530723 0.035491575 -0.32463944 0.048352018 -0.025627267
0.053362455 -0.020428479 -0.040487446 0.12843242 0.03668557 -0.34037697 0.022041049 0.13337694
0.112722896 0.07241406 0.18720418 -0.027538659 -0.20141466 -0.034793094 0.12378494 -0.068974495
0.101290844 -0.035134353 -0.008516285 0.04447931 -0.08044176 0.034376334 -0.0552701 0.05125497

fcs1.bias f4 [128]
00000000: 35eb a1bc b9df 1aba 3d5b 02be 7f16 733d
00000010: a71f c53d dbc2 eabd a3ba 643d 2236 19bc
00000020: 647c 0a3e a047 0bbe 59ee fa3d afa2 5bbd
00000030: 1d33 f93d afc7 96bd 7b4d c83c 1ceb 093d
00000040: 2461 b73d 6a8d 8a3d f138 a53d bfd9 f8bc
00000050: 72df e9bd f327 db3a 75d0 063e 72b0 ff3d
00000060: 97f1 adbd 995c cb3d d6f2 843d 35f3 d5bc
00000070: 1e59 a13d 2b80 c5bb 05e4 8f3c 08b6 c1bd
00000080: 11aa 91bc abae 103e 5b26 b73d a1e5 eebd
00000090: 75f6 05bc 074c bc3d 8601 7dbd d9fc 93bc
000000a0: 1674 933d e470 f83d f418 063e c08a d5bd
000000b0: 5a41 0bbe 6be9 d03d 9a17 37bc f670 053e
000000c0: 15cd d13d 47cc 66bd 9a61 293d 81dc 463d
000000d0: 48a0 53bd 88cc 043e 9a0e 423c 9c3b 41bd
000000e0: 7f02 07be da8c ec3d ea8e 12be a1fe e03d
000000f0: f707 4fbd 0576 d8bc 77bf 9f3c 854a 113e
00000100: 679b c2bd 06ef d1bd c3ad b13d e390 8fbd
00000110: 2990 59bd 2ae0 aa3d 550f 75bd 5814 b03d
00000120: 8096 66bd d95d e33d 6e40 133e 5087 a33c
00000130: dccf 44bd 2747 a63d a841 253d 5d7a 213a
00000140: 45dd 033e 92d8 08bc 52cc 4f3d ad0b 30bd
00000150: aa80 d6bc 5849 cbbb f33b 1f3c c844 813d
00000160: 24ff de3d 8938 b53d f3b0 78bd 4a7b 043e
00000170: eaab c73d b919 553d 4824 813c 8248 a7bd
00000180: 016f b0bd 37b4 3b3a 6fe1 dbbd bf58 4f3d
00000190: 1827 06be 0dcc 03be 48c6 84bd 8814 aa3d
000001a0: 2f72 e73d fb71 f8bd 6eb0 babd 7926 033d
000001b0: 426d d7bc 233e f2bd c94b 243d 7e0e f6bd
000001c0: 5e6e 143c f904 713d 8153 083e 7e45 fcbd
000001d0: 16b2 dc3d 1194 a43c 8fb0 003e 357a 113e
000001e0: 677e 13bd d330 b8bc 71e8 0ebd 037f e83d
000001f0: e502 80bd 3e39 c33d 3027 733d 93f8 0a3e
-0.019765476 -0.0005907971 -0.12730117 0.059347626 0.09625178 -0.11462947 0.055842053 -0.009351285
0.13524014 -0.13601542 0.122524925 -0.053621944 0.12167952 -0.073623054 0.024451008 0.033671483
0.08954075 0.06765254 0.08067501 -0.030377267 -0.11419572 0.001672028 0.13165458 0.12484826
-0.08493345 0.09929771 0.0649163 -0.026116947 0.07878326 -0.0060272417 0.017564783 -0.09458548
-0.01778129 0.1412913 0.089428626 -0.11664892 -0.008176436 0.091941886 -0.06176903 -0.018064903
0.07199876 0.12130907 0.13095456 -0.10426855 -0.13599148 0.10200771 -0.011175061 0.13031372
0.102441944 -0.056347158 0.041352846 0.048550133 -0.051666528 0.12968647 0.011844302 -0.04717599
-0.13184546 0.11550303 -0.1431233 0.109860666 -0.050544705 -0.026423464 0.019500477 0.14188583
-0.09502297 -0.10250668 0.086757205 -0.07010057 -0.053115997 0.08343537 -0.059829075 0.0859763
-0.05629587 0.111018844 0.14380047 0.019961983 -0.048049793 0.0811904 0.040345818 0.0006159896
0.12877376 -0.008352416 0.050731964 -0.042979885 -0.026184399 -0.0062038116 0.009718883 0.06311947
0.10888508 0.08848674 -0.060715627 0.12937656 0.09749587 0.052026484 0.01576437 -0.08168127
-0.08614922 0.0007160338 -0.107363574 0.050621744 -0.1310085 -0.12870808 -0.06483132 0.08304697
0.11301076 -0.12131115 -0.091156825 0.032019112 -0.026297215 -0.11828258 0.040111337 -0.12014483
0.009059517 0.058842633 0.13313104 -0.12317942 0.10776155 0.020090135 0.12567352 0.14206775
-0.03600922 -0.022484219 -0.034889642 0.113523506 -0.06250552 0.095324025 0.059363544 0.13571386

fc2.weight f4 [128, 132]
00000000: 211d 07be f671 e43c 85f3 aebd 15c7 41bd
00000010: fad2 37be afec 753d 8fd0 323d c068 8d3d
00000020: b5a6 443d e505 313e 0c26 613d 0a5d 2b3c
00000030: 7ef2 76bd af85 00bf 7605 5abe c4ae d6bc
00000040: a19f 43be e640 52bd c6fb 2ebd 2e2e d3bc
00000050: 89ae 0b3d ddbb 753e 75b4 66bd 450e 123e
00000060: b539 bcbc 79eb 6b3e 5f41 3abc e16e 8fbd
00000070: 78e4 88bd 999a 213d cfd8 12be 7923 37ba
00000080: e7a8 95bd cfe1 7ebc 07ea 64bd a74b 533c
00000090: 938a 30be 5649 c6bc af65 77bd 7aa2 873d
000000a0: 39ee 803c af18 7bbb 2e19 073e 29cc 673d
000000b0: 6f25 16bd ae2e 6f3c 24d6 21b9 e884 883c
000000c0: 45ff 14bc 8032 c5be 0f85 a3bb c1e0 34bd
000000d0: 2072 f2bd a5b4 483c 9faa 9fbb 526a cfbe
000000e0: 1ee7 93bd 1e90 a2bd 9257 05be 7ad5 a0be
000000f0: 0c16 553d 39d4 d1bd cceb bebc 89fd 2c3e
00000100: 6324 073e d888 e2bd 0273 1bbe ecff 10be
00000110: 3bc2 95bd 229a fe3d f81a fbbd 9342 9c3c
00000120: db03 e8bd 740d 00be dfb5 1abc 11a5 823d
00000130: 144f 49be 3a6e e1bc bf66 cfbd 435c 38be
00000140: 4c6b adbd 9a7a 14bd 5121 4fbe 916c 093b
00000150: c628 4abe e72d e73b 0c54 27be a3e9 01be
00000160: 9da6 fa3d 17ce 09bf 5d6e 0b3e 1298 febd
00000170: a7b8 a2bd 23ef 9f3c 64ef 1ebd 1f8c 9cbc
00000180: 004b 2bbc 29fb 31be 7182 ee3c d1b9 a43d
00000190: 1beb a43d 8888 efbd 125e 06be 04be cd3c
000001a0: 6d4e 92bd 068a df3d ea99 35be 6aee 73be
000001b0: b3e2 bebd 827d 8b3d 862b 1cbd 5c08 eabd
000001c0: 541c 093b b77e 6b3d 2187 bb3c 97d3 81be
000001d0: bf95 c93d b5f7 993d eb66 bf3d e5f8 7b3c
000001e0: 48b6 80bd b11a 24bc 3ab0 3d3d dc4f f63c
000001f0: 49bc 533b 1cc7 b5bd 0817 04bd e176 133e
00000200: 3796 e13d d9c5 0dbd 3afe d33d ecf8 183b
00000210: 028f 0b3e a3f0 c73c 113c 8dbd 019a 1fbd
00000220: e06e bbbe b857 29bd 2527 7cbe bdc9 13be
00000230: 8529 c43c 777e 6f3d 0554 8abd 44f8 05be
00000240: 9c2e 67be 4ee0 9cbe b08d 60be 2c57 88be
00000250: 6f60 c8bd 8d65 d5bd 5f70 f03c 9cff 70be
00000260: 4ff1 ab3d 33f0 fc3d 58f6 943d 6741 fdbd
00000270: 2d82 5ebd 4b00 2f3e 631d 47bb c872 183e
00000280: 7157 4dbd fc17 8e3d 2b48 d8bd 1bd7 adbd
00000290: f457 823d 3ff3 94bd 88bb aebb 9410 593d
000002a0: 2320 b33c bd6e 67bd d571 c8bd ab66 73bc
000002b0: 4458 f83d 0583 733c 231d d23b d8ee 8a3d
000002c0: 485e dcbd 0171 c43c e9ae 38bc 2592 5e3d
000002d0: c0e8 1b3d cf88 97bb 874f 46bc 9170 6f3e
000002e0: 4b07 ee3b 2279 1b3d b780 36be 560a 31bd
000002f0: 08f8 673e 8263 763d 1331 513d 61e3 883d
00000300: 969e e6bc 4647 ab3d b6cf 8dbc 4083 b43d
00000310: f595 01be c5f4 b83d 1da4 9cbd 978e 91bc
00000320: c819 c8bc 8fca 183e 7afd b8bd 9e84 78be
00000330: 4b3a f2bd 5fe1 f7bd 491d 5fbd 600b ac3d
00000340: e9fc edbd 59c8 aebd 96a4 5e3d f360 1a3e
00000350: ba16 93bd 063d bb3b aa6e 18be 8762 60bd
00000360: 2129 38be e8ca 3cbd 04a2 79bd b000 afbb
00000370: bd19 8e3b d331 233e cf0e 9d3d 42b0 bd3d
00000380: 5ba3 77be d4d4 713e bfb1 71be fd59 0c3e
00000390: 6963 b6bc 03f7 363c b054 3abd 047e ebbd
000003a0: 4e07 b53c 64d3 9abd 0da1 8dbc 9841 f83d
000003b0: 64a6 6dbd 3b5a d13c 0c45 9fbd 27be 833d
000003c0: bf02 76bd 0af0 c83d 5de4 12bd cf35 25bd
000003d0: 5358 60bb dd82 7dbd 8074 90bd 758f dbbd
000003e0: e09f aebd 9dab 8f3d 4bd3 0e3a ba34 b13a
000003f0: ca65 d8bd 4f26 ea3c e348 52bd 5286 cc3d
-0.13194706 0.027886372 -0.085425414 -0.047309 -0.17951575 0.060040172 0.04365593 0.06904745
0.048010547 0.17287405 0.054967925 0.010459194 -0.060289852 -0.50203985 -0.21291146 -0.026206382
-0.19103862 -0.051331423 -0.04272058 -0.025778856 0.034101997 0.23997445 -0.05632444 0.14263256
-0.022976736 0.23039044 -0.011368125 -0.0700357 -0.06684202 0.039454076 -0.14340518 -0.0006986182
-0.07307606 -0.015556767 -0.05588725 0.012896455 -0.17240362 -0.024204891 -0.060399707 0.06622787
0.015738593 -0.0038314273 0.13193199 0.056591187 -0.036656793 0.014598532 -0.0001543393 0.016664937
-0.009094064 -0.3851509 -0.004990227 -0.044159655 -0.11838174 0.0122501 -0.0048726345 -0.40510803
-0.072218165 -0.079376444 -0.13021687 -0.3141287 0.05202298 -0.102455564 -0.023305796 0.16893591
0.13197474 -0.11061257 -0.15180591 -0.14160126 -0.07312437 0.12431742 -0.12261003 0.019074714
-0.1132886 -0.12505132 -0.0094427755 0.0637914 -0.19659072 -0.02751838 -0.10127019 -0.18003945
-0.08467731 -0.036249734 -0.20227553 0.0020969252 -0.19742116 0.0070550325 -0.16340655 -0.12686782
0.1223881 -0.53830093 0.13616319 -0.12431349 -0.07945376 0.019523209 -0.03880252 -0.019109784
-0.010454893 -0.17380966 0.029114934 0.08043254 0.08052655 -0.11695963 -0.13121822 0.02511502
-0.07143865 0.10914998 -0.17734495 -0.23821416 -0.09320583 0.06811048 -0.038127445 -0.11427376
0.0020921426 0.05749389 0.022891583 -0.25356743 0.09843015 0.075179495 0.09345802 0.015379165
-0.062847674 -0.010016129 0.04631064 0.030067377 0.0032308272 -0.08875868 -0.032248527 0.14400817
0.11014979 -0.03461251 0.10351224 0.0023341728 0.13628772 0.024406737 -0.068962224 -0.03896523
-0.36608028 -0.04134342 -0.24624307 -0.14432426 0.02394558 0.058470216 -0.06754307 -0.13082987
-0.22576374 -0.3063988 -0.2192905 -0.26629007 -0.09784018 -0.1041976 0.029350458 -0.23535007
0.08395635 0.12350502 0.07273549 -0.1236599 -0.054323364 0.17089956 -0.0030382506 0.14887536
-0.05013222 0.069381684 -0.1056064 -0.08488294 0.06364432 -0.07272958 -0.005332414 0.052994326
0.02186591 -0.056502093 -0.09787337 -0.014856021 0.1212621 0.01486278 0.006412165 0.06783837
-0.1076017 0.023979666 -0.011272171 0.054338593 0.038063765 -0.004624463 -0.012103922 0.23382784
0.007264053 0.037957318 -0.17822538 -0.043222748 0.2265321 0.06015349 0.05107219 0.06683994
-0.028151792 0.08363204 -0.017310958 0.088140965 -0.1265486 0.09031061 -0.076484896 -0.017768187
-0.024426356 0.1492102 -0.09032722 -0.2426934 -0.11827525 -0.12103533 -0.054471288 0.08400607
-0.116205044 -0.08534307 0.05435618 0.15076046 -0.07182069 0.0057140617 -0.14885965 -0.054781463
-0.1798444 -0.046091944 -0.060945526 -0.005340658 0.0043365643 0.15936975 0.0766884 0.09262134
-0.24183409 0.23616344 -0.23602961 0.13706203 -0.0222642 0.011167291 -0.04549092 -0.11498645
0.02209821 -0.07559851 -0.017288709 0.12121886 -0.05802001 0.02555572 -0.077768415 0.06432753
-0.060061213 0.09811409 -0.035862315 -0.04033452 -0.0034232333 -0.06189238 -0.070534706 -0.10720722
-0.085265875 0.070151545 0.0005448355 0.0013519742 -0.1056629 0.02858272 -0.05133904 0.09986557

fc2.bias f4 [128]
00000000: bc8c 8c3c 58c6 afbd 23e3 a53d 1d4b d8bc
00000010: 3c72 543d 71df 7f3d f3c0 913d b6fd 6bbc
00000020: 2c1f 453b efec 353d 36e0 84bd 66d1 cabb
00000030: 03d7 153d e04d 01bb 63cc 7dbd db08 543c
00000040: 006a 92bc a994 5a3d c46e 78bd c087 ee3b
00000050: d3a7 41bc fc4f d0ba 1853 a13d 6384 363a
00000060: f084 61bb caf6 a8bd fe2a 2cbd 9ec8 8fbd
00000070: e15c c53b f12a 9bbc 994e d13c 80b6 903d
00000080: bc29 9a3c d450 7dbd 14bb 58bd e854 21bd
00000090: 0947 47bd 88e1 6c3c 57d1 aabd 819b 88bd
000000a0: bdfe 78bc 5efe 73bd 3fc6 603d 91a0 ea3c
000000b0: c44c 8a3d 69d7 233d 14ed bdbc 2df7 54bc
000000c0: 2416 273d 67f5 a1bd 8862 ac3c 64cc a2bd
000000d0: bd92 183d 4482 e7bc a842 eb3c c585 093d
000000e0: e359 5f3b 4190 313c 9283 02bd 2308 3a3b
000000f0: 849d 4d3d d28e 923d 0d74 c8bc 89e8 a43c
00000100: dcf4 aa3c ee05 0f3d 1182 f63c f9ee ec3c
00000110: 3032 81bd 9869 73bc fa9e 31bd f9bf 933d
00000120: be10 08bd 53a5 1b3d 023e bd3c 16c3 fb3c
00000130: d8ff aa3c b31e 01bc b996 e7bc 74aa ae3d
00000140: 6ca5 aa3c 757f 853d 96dd e93c 23c1 ac3d
00000150: 688e c33c 9887 edbc 24e2 6d3c 1f28 83bd
00000160: a4b4 533d 1a29 7dbd fa25 433d bedd f93c
00000170: 0425 b1bd ee7c f5bc 5a0b 96bc 2e25 ffbc
00000180: 65cf be3c 7ac3 39bd 8b67 983d ec07 6cbc
00000190: 9f1f 303d 296f 22bd 0b5d 50bd 48b9 8c3d
000001a0: 99d8 a2bd 428a 66bb 50f2 37bd 7287 10bd
000001b0: 61c5 d7bb 2657 d13c ba64 17bc 644c 4c3c
000001c0: 24dc a03d f902 7d3c 93c3 643d f780 bcbc
000001d0: 0211 a6bc 07af 90bd 69bc 39bd f647 02bd
000001e0: 4c61 9d3c 2450 9ebc 3503 9dbd 0ec4 f3bc
000001f0: bc3d 9d3d e7c4 19bd f87c 80bd df63 233d
0.017156951 -0.08582753 0.080999635 -0.026403004 0.051866755 0.06246895 0.0711688 -0.014403751
0.0030078394 0.04441541 -0.06488077 -0.006189513 0.036582004 -0.0019730255 -0.061962496 0.012941564
-0.01787281 0.05336443 -0.06065251 0.0072793663 -0.011819798 -0.0015892978 0.07877177 0.0006962476
-0.0034411512 -0.08250196 -0.042033188 -0.070206866 0.006023035 -0.018941374 0.025550174 0.07066059
0.018818729 -0.06184466 -0.052912787 -0.039387614 -0.04865173 0.014458068 -0.0834071 -0.06670285
-0.015197453 -0.059568755 0.054876562 0.028641017 0.06752923 0.040000353 -0.023184337 -0.012998384
0.0407926 -0.07908135 0.021043077 -0.07949141 0.037249316 -0.028260358 0.028718308 0.03357484
0.0034080676 0.0108376155 -0.031863756 0.0028386198 0.050199047 0.07156147 -0.0244694 0.020130413
0.020868711 0.034917764 0.030091317 0.028922545 -0.06308401 -0.0148567185 -0.043364502 0.0721435
-0.03321909 0.037999462 0.023100857 0.030732673 0.020873949 -0.007880854 -0.028270112 0.08528605
0.020830832 0.06518451 0.028548043 0.084352754 0.023871616 -0.02899532 0.014519248 -0.06404137
0.051685944 -0.061806776 0.04764364 0.030501243 -0.08649638 -0.029966798 -0.01831596 -0.031145658
0.023292253 -0.045352437 0.07441624 -0.014406186 0.042998906 -0.03965679 -0.050869983 0.06871277
-0.07951469 -0.0035177623 -0.04490882 -0.03528542 -0.0065848087 0.02555425 -0.009240324 0.012469385
0.078544885 0.015442603 0.055850577 -0.023010714 -0.020271782 -0.07064634 -0.045345698 -0.03180691
0.019211434 -0.019325323 -0.07666627 -0.029756572 0.076777905 -0.037541296 -0.06273836 0.039890166
