weights/checkpoint_actor_0.pth (torch_old, 87203 bytes, 18 tensors)

bn0.weight f4 [24]
00000000: 66dc 613f b33d 6a3f b806 c43e 0e95 753f
00000010: d4e8 c73e 47d4 193f 785d 833e 142c 4b3f
00000020: 66d6 703f e461 083e d241 6f3f d6f4 173f
00000030: 4a91 5e3f ca55 113f 57b8 3d3f e8da db3e
00000040: 63ac 623f 67eb 123f 2e7d 883e 82a0 203f
00000050: 2a0d 8a3e 68fa e13e 0206 983e 57e9 543f
0.88226926 0.91500396 0.38286376 0.95930564 0.3904482 0.60089535 0.25657248 0.7936413
0.94077146 0.13318592 0.9345981 0.59357965 0.86940444 0.5677153 0.74109405 0.4294045
0.8854429 0.57390445 0.26658005 0.62744915 0.26963168 0.44136357 0.29692084 0.8316855

bn0.bias f4 [24]
00000000: 0000 0000 0000 0000 0000 0000 0000 0000
00000010: 0000 0000 0000 0000 0000 0000 0000 0000
00000020: 0000 0000 0000 0000 0000 0000 0000 0000
00000030: 0000 0000 0000 0000 0000 0000 0000 0000
00000040: 0000 0000 0000 0000 0000 0000 0000 0000
00000050: 0000 0000 0000 0000 0000 0000 0000 0000
0.0 0.0 0.0 0.0 0.0 0.0 0.0 0.0
0.0 0.0 0.0 0.0 0.0 0.0 0.0 0.0
0.0 0.0 0.0 0.0 0.0 0.0 0.0 0.0

bn0.running_mean f4 [24]
00000000: bb72 acc0 397f f2be aedd 7f40 daa6 493f
00000010: 6ece 953e f37d 4540 aedd 7f40 daa6 493f
00000020: e39e bac0 0264 f8be 20fc 8140 6f88 2a3f
00000030: 232c 913e 3b88 4140 20fc 8140 6f88 2a3f
00000040: 3abf c5c0 5847 fcbe 0886 9340 385a 0b3f
00000050: 23f4 9e3e a35d 3640 0886 9340 385a 0b3f
-5.389005 -0.47362688 3.9979053 0.7877022 0.29259056 3.0858123 3.9979053 0.7877022
-5.8318954 -0.485138 4.062027 0.6661443 0.28353986 3.0239398 4.062027 0.6661443
-6.179593 -0.4927318 4.610111 0.5443454 0.31045637 2.8494651 4.610111 0.5443454

bn0.running_var f4 [24]
00000000: 0b2c 8841 30cd 843f 933b a443 2989 e940
00000010: 17b7 2342 e3b3 a040 933b a443 2989 e940
00000020: 77da 7a41 7ab5 893f 757b b643 f21f 0141
00000030: 392e 3242 de3c b440 757b b643 f21f 0141
00000040: 46d8 6c41 d35b 8d3f f3ee c043 52b9 1341
00000050: 6ee4 3e42 240d d840 f3ee c043 52b9 1341
17.021505 1.0375118 328.46542 7.297993 40.9288 5.021959 328.46542 7.297993
15.678336 1.0758507 364.9645 8.070299 44.54514 5.63243 364.9645 8.070299
14.802801 1.1043648 385.8668 9.232744 47.723076 6.751604 385.8668 9.232744

bn1.weight f4 [128]
00000000: 495a 023e 616e 593e f827 033f 49c0 923e
00000010: e923 b13e e526 773e e099 603f 3184 343e
00000020: 4b9c 203f ada6 d93e ca65 d03e 9cde 403f
00000030: f20c 223f ada7 3e3f 4967 fd3e 43cf ee3e
00000040: 42fd 223f 6900 933e 87ac 173f 9403 6d3f
00000050: 13bc 243f 14d9 ce3e a963 293f 830f 1c3f
00000060: c97b 323f 82b8 753e 42d5 89b9 6b74 783e
00000070: 9ec5 833e bedf 643f 04a4 e63e 81b5 133f
00000080: 8d6f 2d3f b2bb c33e 6176 3c3f 5948 ab3d
00000090: 796d a33e 001b 903e a546 fc3e d953 973e
000000a0: 76a1 173f 8521 043f bce1 3c3f 69e9 ba3e
000000b0: 0ef6 373e 4dc3 a83e 7ab0 7a3f 9cba 133f
000000c0: f4f6 663f 2251 0f3e c2c9 d23a 04dc d43d
000000d0: 0a9b bd3e aeca 3c3f f4ae 343f a846 053f
000000e0: 8f61 a73e e3fa 813e 0173 113f fb1e 053f
000000f0: 733a 433f b6bd a23e c196 143f 1fa0 db3d
00000100: cc2b 6a3e 5fdc 3e3f 6557 d93e 8eb9 a33e
00000110: aaac 143f 849d 2b3f 3aa3 6a3e e385 f53e
00000120: 8d83 253f 779f 093f 09fa 843e 3fb7 ee39
00000130: 5163 753e 9677 fd3e ebb7 d73e 6c53 073e
00000140: a826 3d3f a4cc 8f3e 3c26 193e 7caa 5a3e
00000150: c52a 5b3e cb13 473e a10d 3b3f 1160 e33e
00000160: 6d3c 1a3f b949 063e 5b4b 593e 0693 b73e
00000170: 2d72 db3e a5f4 c83e 6b72 a13e ed69 0b3f
00000180: 88be f23e 22d8 fe3e 9df8 de3e 68b0 ad3e
00000190: 5af4 8c3e 9fb0 b93e 59b8 9e3e f87e 3c3e
000001a0: c126 1e3f 5ef5 103f 7463 563f 1fbc f43e
000001b0: 8d69 a63e f172 463f f24c 113f a153 aa3e
000001c0: f30d 9d3e 6fc3 3bbe e034 023f 6185 e13e
000001d0: 2dc4 0b3f 8fec 593e 0176 183f 2604 843e
000001e0: 9a96 c03e 371c 0c3f 9367 073f 946c 283f
000001f0: d854 5b3f 4a17 7a3e 3999 063f 44df 953e
0.12729754 0.21233512 0.5123286 0.28662327 0.3459771 0.24135931 0.87734795 0.17628552
0.62738484 0.42509976 0.4070266 0.75339675 0.63301 0.744746 0.49492863 0.46642503
0.6366769 0.2871125 0.5924763 0.92583585 0.6434948 0.40399992 0.66167694 0.6096117
0.6972013 0.23996165 -0.00026289566 0.2426316 0.25736707 0.89403903 0.4504701 0.5769883
0.6774834 0.38229138 0.7361813 0.083634086 0.31919459 0.281456 0.49272648 0.29556158
0.59230745 0.51613647 0.73781943 0.36506203 0.17964956 0.32961503 0.9792553 0.5770662
0.9022057 0.13995793 0.0016081857 0.10393527 0.37032348 0.73746765 0.7057946 0.5206094
0.3269162 0.25386724 0.5681611 0.520004 0.7626106 0.31785363 0.5804253 0.107239
0.2286827 0.7455501 0.4244949 0.31977504 0.58075964 0.67037225 0.22913828 0.4795371
0.64653856 0.5375895 0.25972012 0.00045531426 0.23963667 0.495053 0.42132506 0.13215417
0.7388711 0.28085816 0.14955992 0.21354097 0.21403034 0.19441144 0.7306767 0.4440923
0.6024845 0.1311406 0.21220152 0.35854357 0.42860547 0.3924915 0.31532606 0.54458505
0.4741099 0.4977427 0.43549052 0.3392365 0.27530175 0.36267564 0.3100002 0.1840781
0.61777884 0.566244 0.83745503 0.47799775 0.32502404 0.77519137 0.56758034 0.3326693
0.30674705 -0.18336271 0.5086193 0.44047073 0.54596215 0.21281646 0.5955506 0.25784415
0.376149 0.5473055 0.52892417 0.6579068 0.85676336 0.24422947 0.5257755 0.292719

bn1.bias f4 [128]
00000000: 4df5 38be f4bd acbd eb95 86be d15b 08be
00000010: 2f40 a3bd e2b6 07be a34a d6bd cedd 99bd
00000020: e055 a8be 7e9c 48be 9022 2dbe d7cf b2be
00000030: da0d 7fbe b9ed e1be fb41 b5bd 7f50 8d3d
00000040: 39f9 78be d228 28bd 0cd7 89be eca5 97be
00000050: 7503 a9be b76c 86be 7c27 b8be d7a8 99be
00000060: a7a4 94be 1ae9 85bb 584f 15bc aaf8 9abe
00000070: 0d34 28be b948 a1be f3d0 88be 3481 79be
00000080: 3b03 c0be 2352 69be 9825 a3be 1fb8 1bbe
00000090: 0dc6 41be 9398 3dbe 1645 bbbe 4240 13bd
000000a0: bacd 8ebd 9174 3bbd c1b5 bfbe 7b8f 43be
000000b0: 26bc 2abc 6784 2bbe f383 60be c34c 14be
000000c0: 3445 1ebf ad87 6b3c f1d8 0ebc bdaa 8cbd
000000d0: bc6e 91be 590e 64be c024 9cbe cb58 bebd
000000e0: 3e42 44be 688f 96be 0421 74be 6198 e3bd
000000f0: 24fd d1be c864 aabd c728 6cbe c827 cfbc
00000100: c84a 38be 89a7 e93d d0d3 b2be 57f9 81be
00000110: 35c5 09bf a6b0 ccbd c427 e2bc 9d90 8fbe
00000120: e714 a5be 5c86 09be 5e27 6dbe 74e3 edbc
00000130: 2478 63bd 4338 3fbe ff5e 9ebe 59d1 e4bd
00000140: 5abb ffbd 5426 9fbe fb75 25be 0ac6 52be
00000150: 67c3 6fbe e152 cabb 9c38 d0ba 3960 87be
00000160: e3de 15bf e3bc 33bd dd7f 1cbe 05be 3ebe
00000170: 6133 96be 55ab 96bd 30cc 93bd 7f7d 33be
00000180: 150c 45be 2d74 c0be 8258 15bd 6b50 12be
00000190: 7361 c9bd 2c23 75be bbc8 8abe 6db0 73be
000001a0: a530 99be 20ee aabc 8c94 a3be 4140 7ebe
000001b0: 451a f13c 2ef1 80be da8b cebe fa6a d0bd
000001c0: 9b30 dcbd 6036 95bd 124e a1be a15c 98bd
000001d0: 2cf2 d9be 48df 47be ed2f d5be cd10 3ebe
000001e0: fa4e 81be d798 3dbe 43ed dabe 7410 c4bd
000001f0: beab 8fbe 19f0 3bbe 8ba2 f8be cbc7 72be
-0.18062325 -0.08434668 -0.26286253 -0.13316275 -0.079712264 -0.13253358 -0.104634546 -0.07513009
-0.32878017 -0.19590947 -0.16907716 -0.34924194 -0.24907628 -0.4412668 -0.088504754 0.06900119
-0.24313821 -0.041054554 -0.2692188 -0.29618776 -0.3301045 -0.26254818 -0.35967624 -0.30011627
-0.2903187 -0.0040866258 -0.009113155 -0.3026784 -0.16426106 -0.31500795 -0.26721916 -0.24365693
-0.37502465 -0.22785239 -0.3186462 -0.15206955 -0.18923207 -0.18515234 -0.36576146 -0.035949953
-0.06972833 -0.045765463 -0.37443355 -0.19097702 -0.010420835 -0.16749726 -0.21925335 -0.14482407
-0.61824346 0.014375609 -0.008718715 -0.06868503 -0.28404796 -0.22271098 -0.30496788 -0.0929428
-0.19165894 -0.29406285 -0.2384072 -0.11113048 -0.41013443 -0.08320004 -0.2306243 -0.025287524
-0.17997277 0.11408908 -0.34927225 -0.25385544 -0.5381654 -0.099946305 -0.027606852 -0.2804002
-0.3224251 -0.1343016 -0.23159549 -0.029039122 -0.055534497 -0.18673806 -0.3093185 -0.111727424
-0.12486906 -0.3108393 -0.16158287 -0.20583358 -0.23414384 -0.0061744307 -0.0015886012 -0.264406
-0.58543223 -0.04388131 -0.15283151 -0.18627174 -0.29336074 -0.07356898 -0.0721668 -0.17528342
-0.1924289 -0.37588635 -0.03646136 -0.1428849 -0.0983304 -0.23939198 -0.2710627 -0.2379777
-0.29919925 -0.0208655 -0.3194927 -0.24829198 0.029431472 -0.25184005 -0.40341073 -0.10176654
-0.10751458 -0.07285762 -0.31504875 -0.074395426 -0.42567575 -0.19518769 -0.41638127 -0.18561096
-0.25255567 -0.18515335 -0.4275914 -0.09573451 -0.28060716 -0.18353309 -0.4856151 -0.23709027

bn1.running_mean f4 [128]
00000000: d1bd a23f 5d27 cbbe 87fe aac0 0540 a0c0
00000010: 4997 1040 6203 623f e1ba 1ebf 0252 1c3f
00000020: 3970 5e40 ab1c 7040 eddc bbc0 02f6 bdbf
00000030: 5b3d 803f 6d4b 00c1 c072 5940 19ff 1fc0
00000040: bc5b 4440 cea1 fdbf 8b71 c0c0 5690 4ec0
00000050: 05e3 abc0 fec6 81bf 4ef9 15c0 fc0a 6bc0
00000060: c490 b440 057c a140 9c28 c23f 5c6e 9cc0
00000070: d417 bfbe ab68 afc0 86a4 3a40 6df0 7540
00000080: 222d a940 5c3e 6340 b3b4 15c0 b59d a33f
00000090: 4aaa a73e 60eb 0a40 bb4f ba3e 338f 0fc0
000000a0: eb10 253f 5158 4e40 a97d 4240 afa7 89c0
000000b0: 7618 07bf 6752 5cc0 f122 9d3c 8aca 8640
000000c0: 41d6 143f df81 8cbe bb7d 9c3e e24a 3e3e
000000d0: a2ca 0bc0 94ed 93c0 4c57 00c0 b320 2140
000000e0: a003 8740 65ea be40 b99a a2bd cc27 3940
000000f0: a61a 44be ae64 ed3e f2ef 2140 cf61 4740
00000100: d304 e5c0 fe29 263f 19c2 4940 00c9 9bc0
00000110: eb01 8c3f 5c56 acbf 0929 bd40 f798 8040
00000120: 6fbb 6ac0 03cf 31c0 1cae 4fbf d0a9 773e
00000130: 5487 403f a54d 44c0 4f74 693e 62cc c73f
00000140: fde2 4dbf 1ca2 f8bf 6d6a d7bf c3a8 243e
00000150: 7d92 00c1 793e 54bd 522c 17bf 4186 7940
00000160: 1b6e a9c0 2d06 f43e 128b c640 b8bb 45c0
00000170: badf 963f 6b6f 84c0 e0be 2bc0 b584 3140
00000180: 20f2 aebe cb44 c63f 71f7 12c0 b10c 2c40
00000190: 3fa9 13c0 bb79 fbc0 3113 62bf 2c85 55c0
000001a0: cb76 9fbf 9b97 c940 dd0f ffbe 1c3b 1840
000001b0: a82a a840 554e 83c0 b989 883d 6634 27c0
000001c0: dd6b 9fc0 3f73 b140 c1d7 8ac0 15e1 8040
000001d0: 5a7e 2e40 60cf 9cc0 2db8 4a40 12c5 3bc0
000001e0: 8792 5340 dfd0 04c0 2852 39c0 9961 69c0
000001f0: e995 4e40 a7e7 a740 1e80 df3e 76f5 80c0
1.2714177 -0.3967847 -5.34357 -5.007815 2.2592337 0.8828641 -0.62003905 0.61062634
3.4755995 3.7517498 -5.8707185 -1.4840701 1.0018724 -8.0184145 3.3976288 -2.499945
3.068099 -1.9815004 -6.01386 -3.2275596 -5.3714623 -1.0138853 -2.3433414 -3.6725454
5.6426716 5.046389 1.5168643 -4.8884716 -0.37322867 -5.481527 2.9162917 3.8427994
5.2867594 3.550681 -2.339154 1.2782503 0.32747108 2.1706161 0.36388955 -2.2431152
0.6447894 3.2241404 3.0389197 -4.301719 -0.527717 -3.4425294 0.0191817 4.212224
0.58139426 -0.27442834 0.30564675 0.18583253 -2.1842427 -4.622751 -2.0053282 2.5176208
4.2191925 5.9661126 -0.07939667 2.893054 -0.1915079 0.46365875 2.53027 3.1153448
-7.156839 0.64907825 3.1524718 -4.868286 1.0938085 -1.3463855 5.911259 4.0186725
-3.66769 -2.77826 -0.81125045 0.24185872 0.75206494 -3.067239 0.22798274 1.5609248
-0.8042448 -1.9424472 -1.6829354 0.16080002 -8.035764 -0.05181739 -0.59052 3.8988192
-5.2946906 0.47660962 6.2044764 -3.0895824 1.1787026 -4.138601 -2.683525 2.7737248
-0.34169102 1.5489744 -2.2963526 2.6882746 -2.307205 -7.8586097 -0.88310534 -3.3362532
-1.2458128 6.2997565 -0.4981679 2.3786077 5.255207 -4.103312 0.066668935 -2.6125731
-4.981917 5.545318 -4.338837 4.027476 2.726462 -4.9003143 3.1674912 -2.9339032
3.3058183 -2.0752485 -2.8956394 -3.646582 3.2278998 5.247028 0.43652433 -4.0299635

bn1.running_var f4 [128]
00000000: 0e75 9f41 e65d 7942 62ee cb41 92ae 5041
00000010: 7ac0 9242 2111 1242 3017 1642 2805 2e42
00000020: bcf8 1042 336d 1c42 0bf4 e341 4707 0f41
00000030: 45eb 7c41 b041 5541 b22e 9441 9c02 6c41
00000040: 25f5 9240 9bc1 5041 7460 b041 9166 2b41
00000050: c9ec a741 1ca8 5841 9e8e 5f42 befc 8341
00000060: b9ff 4641 61af 1042 435e 2a41 6103 0642
00000070: edaa 4941 4d55 0642 dc3c 1c42 5911 1241
00000080: 11f2 0b41 e8ec 2442 fe43 9541 32f6 d941
00000090: 20f0 7f42 be26 a241 a30c 6e42 a4b9 8042
000000a0: 02b7 9a41 ff1b 8a41 19f8 9241 2de7 a541
000000b0: a750 6242 be49 3742 cc8e 0c42 015a 0b42
000000c0: 7733 8841 70a5 2342 d912 7d40 25f7 c541
000000d0: ac7c 1742 3fcd 3941 0ade ab41 d152 1642
000000e0: 1d1d 2d42 447f 6f41 44c0 6342 6cfc d140
000000f0: c88b 8941 00a4 2642 ba26 6e42 2f2c 1142
00000100: e5ab c241 83f3 5d41 8211 6d42 1f69 da41
00000110: ff18 3342 8588 6a42 b1f9 0242 d71a 8241
00000120: c3c4 ca41 895e 9841 4414 1b42 a3b3 a240
00000130: 1d04 5042 43e2 6141 aaa4 b241 017a 1a42
00000140: 97cf fb40 dbcb 6541 3058 2a42 d257 fb41
00000150: 2445 8f41 36ed 2f42 57b9 ad42 6447 1242
00000160: 1d22 b441 c47f f341 bfc8 2941 be08 ac41
00000170: 91cd aa41 82b2 af41 83f3 6d41 971e 0241
00000180: 5408 1d42 c097 2141 0212 ce41 602d 2b41
00000190: 0bb3 c441 d9db 9f41 ab48 c041 8764 ef41
000001a0: 05ec f341 2198 7b41 637a a041 0f23 4142
000001b0: 7d94 3d41 a5ca d141 c889 9741 38a9 1a42
000001c0: 4a3d e241 2947 c241 45ab be41 dd8a 6241
000001d0: 03f9 a441 5d3f 9e41 26b2 8e41 6503 0d42
000001e0: cd05 9441 5b06 0d42 2aad ed42 09a4 fd41
000001f0: 2800 2f41 792b 0142 31f5 a141 51a5 0142
19.932156 62.341698 25.491398 13.04262 73.37593 36.516727 37.522644 43.505035
36.242905 39.10664 28.494162 8.939277 15.807439 13.328537 18.5228 14.750637
4.592425 13.047267 22.047096 10.712541 20.990618 13.541042 55.889275 16.49841
12.437432 36.17127 10.648013 33.5033 12.60423 33.5833 39.059433 9.129235
8.746598 41.231354 18.6582 27.245213 63.984497 20.268917 59.51234 64.36258
19.33936 17.26367 18.371141 20.737879 56.578762 45.822014 35.13945 34.837894
17.02513 40.91156 3.9542754 24.745676 37.87175 11.612609 21.483418 37.580875
43.27843 14.968571 56.93776 6.562063 17.193253 41.660156 59.53782 36.293148
24.333933 13.871951 59.267097 27.301329 44.77441 58.63332 32.74384 16.263105
25.346075 19.04616 38.76979 5.0844283 52.004017 14.11774 22.330402 38.619144
7.8690906 14.362269 42.58612 31.417881 17.90876 43.98165 86.86199 36.569717
22.516657 30.437386 10.61151 21.504269 21.350374 21.962162 14.871951 8.132468
39.258133 10.099548 25.758793 10.698578 24.587423 19.982347 24.035482 29.924086
30.490244 15.724641 20.05976 48.284237 11.848752 26.223948 18.942276 38.665253
28.279926 24.284746 23.833628 14.158902 20.621588 19.78094 17.836987 35.253315
18.502832 35.256207 118.83821 31.705095 10.937538 32.292454 20.244722 32.41144

bn2.weight f4 [128]
00000000: 2551 8d3f 96f3 423f c675 a93f 0229 553f
00000010: 2881 bd3f 7e7e 933f f24b a73f 8346 503f
00000020: da31 bd3f 4a90 a13f b610 7a3f 2c27 413f
00000030: 789e ac3f 69af 7f3f bc94 4d3f 5fc4 bc3f
00000040: 483b 8e3f 4a01 333f 2a29 803f 7faa 553f
00000050: 7bb6 9f3f c4fa 5b3f 6773 5a3f ffd1 323f
00000060: f929 383f d73c 953f ead5 af3f 8f4c 403f
00000070: 44df 843f e4e3 963f e673 9e3f 4d64 383f
00000080: 5121 ae3f b4b0 923f 46bc 9c3f 3d08 4e3f
00000090: 71a3 823f 9a80 963f 4e25 833f 5a30 4a3f
000000a0: 255e ab3f afde b53f b86c 543f c05a 8f3f
000000b0: 410e 633f 8c11 593f 2c01 a73f 1e28 ae3f
000000c0: be91 253f eecc 263f 33b7 cd3f 32eb 993f
000000d0: ae7f 523f 8e1c 923f 6bb8 213f a53a 8f3e
000000e0: af77 4c3f 31b5 a63f 8e12 be3f 5edb 9f3f
000000f0: 2c3d 043f d656 363f 2e7f 2a3f d79e b43f
00000100: 8ebc 813f e556 653f 8f43 bc3f c938 663f
00000110: dc73 5f3f 5101 b43f e0b2 653f b7d6 363f
00000120: 97b1 203f 8bdd b73f af14 b93f 7230 a83f
00000130: 1234 513f 6b60 223f dd35 2e3f 7280 9f3f
00000140: c016 be3f c725 b13f 732c 9f3f c91d 823f
00000150: 3176 883f 8a81 1a3f 663a 5d3f 77ad 053f
00000160: 15e1 753f 80ff 2d3f 2ceb 833f 40ca 703f
00000170: 9a71 453f aee6 303f 1de8 3f3f 87c6 a73f
00000180: d069 743f 9a93 ab3f 17c9 553f 76c7 203f
00000190: 5d7a 843f 8e55 2b3f 49ca 893f 1be6 073f
000001a0: 07f8 a43f b381 4e3f 49f5 c33f c0e3 6e3f
000001b0: 77ad ab3f dc2e 3f3f 7dc1 ca3f e07b 5f3f
000001c0: 471b a93f 7949 b93f b0c1 763f 7ff4 963f
000001d0: ab1b 603f ed8b 603e a0da 9e3f 529f 173f
000001e0: 51c1 b63f 22bc b13f d5a8 a43f bee9 243f
000001f0: 1d65 1a3f e5f7 a03f 30c9 b43f 3382 2d3e
1.1040388 0.7615293 1.3239067 0.832657 1.480504 1.1522977 1.3070052 0.8135759
1.4780838 1.2622159 0.9768175 0.75450397 1.3485861 0.9987703 0.80305076 1.4747428
1.1111841 0.6992384 1.0012562 0.8346328 1.2477564 0.8592951 0.8533234 0.6985168
0.71939045 1.1659192 1.3737156 0.7511682 1.0380635 1.1788297 1.2379119 0.72028047
1.3603917 1.1460176 1.2244956 0.8048132 1.0206128 1.1757996 1.024576 0.7898003
1.3388106 1.4208583 0.8297839 1.119957 0.88693625 0.847924 1.3047233 1.3605993
0.6467551 0.6515645 1.6071533 1.2024901 0.82226074 1.1414964 0.63172024 0.2797443
0.7987012 1.3024045 1.4849412 1.248882 0.5165584 0.7122625 0.6660031 1.4110974
1.0135667 0.89585716 1.4708117 0.899304 0.8728616 1.4062902 0.89726067 0.7142138
0.6277098 1.4364485 1.4459437 1.3139784 0.8172008 0.6342837 0.6805094 1.2461073
1.4850693 1.3839654 1.243544 1.016534 1.0661069 0.6035391 0.86417234 0.5221781
0.9604657 0.6796799 1.0306144 0.9405861 0.7712647 0.6910199 0.7496355 1.3107461
0.9547396 1.340442 0.83509964 0.62804353 1.0349842 0.6692742 1.0764858 0.5308549
1.2888192 0.80666655 1.530923 0.9331627 1.3412312 0.74680877 1.5840298 0.87298393
1.3211449 1.4475547 0.96389294 1.1793364 0.8754222 0.21928377 1.2410469 0.5922748
1.4277745 1.3885539 1.2864023 0.6441916 0.60310537 1.2575651 1.4123898 0.16944198

bn2.bias f4 [128]
00000000: e21a 93bc 1546 a0bd 259c a0bc 6148 8bbe
00000010: 1c33 94be a508 57bd bb20 16be c1b1 2bbe
00000020: e1fa adbd 7b73 9fbe 8da2 3dbe abf3 43be
00000030: cbdf f7bd 6332 6fbe ecdd 26be 7c97 7dbe
00000040: a426 55be e5d8 70bc 8c35 8abe 78e0 08be
00000050: 4cef e1bd a7ef 84be 01ad 0dbe 6cb9 813d
00000060: 61a0 53be 12c5 4fbe 07b9 87be e564 78be
00000070: 4d94 88bc 1a3c 85bd f040 9bbe d6f5 1f3e
00000080: 3fbd c5be 54e1 1bbe 59cd 74be 2041 88bd
00000090: a2ef acbd 6850 0dbe 0878 d8bd 7054 b1be
000000a0: b3ad 87be b3cb 7fbd 93dd cdbd a011 9dbe
000000b0: 0cfd 6bbe c433 25be b430 ecbd 44e8 62be
000000c0: f954 473c 2b9f bb3d a6ad d9bc b657 82be
000000d0: d5d2 34be 1b1b 86be 6723 41be f384 ba3d
000000e0: 3edf 593c 4601 70bd 58a1 75bd d0a2 98be
000000f0: 5234 82be 66a5 85be 1dcc 18bc 0311 af3a
00000100: ce78 c7be 4695 4dbe 9c52 f4bd 1cd8 a4be
00000110: 0db4 9abe 1924 6cbd d963 23be 3fe7 26be
00000120: 1bf2 55be 1242 8cbe e220 29be f669 2abe
00000130: 421c 58be ba51 41be 8e13 febd 1dfe c7bd
00000140: a469 abbd 389b c8be e5fc 3dbe 7fd6 2cbd
00000150: d004 1ebe a99c dfbd aa7a 17be 9bac dcbe
00000160: 01e4 db3d 11bf 93be 5b74 15be 31e7 25be
00000170: 09ae 0dbc 2509 adbe 396a 10be 91cd 2abe
00000180: a24c 4cbe a3c2 5cbd 580f 863d f475 05bc
00000190: 38e7 72be 7978 73bc c117 a1be d2f1 b23d
000001a0: 04fe 483d e5b8 33be 7a19 bfbe a2ae 0a3d
000001b0: 05dd cabe 9ddc d3be 804e 47bd dcb4 26be
000001c0: b706 17be 123f 0abd dc0c 56bd 7de7 2abe
000001d0: e08a 0fbe 71f9 bd3d d4a9 17be 954e 8abe
000001e0: ed91 7fbe 8aa8 8cbe b62e 71bd d1de e2bd
000001f0: 050c 2cbe 6f47 5dbe 137d e1be bc39 213d
-0.017957155 -0.07825867 -0.019605706 -0.27203658 -0.28945243 -0.05249848 -0.14660923 -0.16767026
-0.08495117 -0.31142792 -0.1851904 -0.1913592 -0.12103232 -0.23359065 -0.16295594 -0.24764818
-0.20815521 -0.014700149 -0.26993978 -0.13366878 -0.110319704 -0.2596409 -0.13835527 0.063341945
-0.20666648 -0.2029002 -0.26508352 -0.24257238 -0.016672278 -0.06505604 -0.3032298 0.15621123
-0.38620946 -0.15222675 -0.23906459 -0.066530466 -0.08444144 -0.13800204 -0.10569769 -0.34634733
-0.2649971 -0.062450122 -0.100520276 -0.3067751 -0.23045748 -0.16133028 -0.11532727 -0.22158915
0.012166255 0.09161218 -0.02657206 -0.25457543 -0.17658551 -0.26192555 -0.18861161 0.09107389
0.013297854 -0.058594964 -0.059968323 -0.29811716 -0.25430542 -0.26102751 -0.009326008 0.001335651
-0.38959354 -0.20076475 -0.11929819 -0.32196128 -0.30215493 -0.057651613 -0.15956058 -0.16299151
-0.20893137 -0.27394158 -0.1651645 -0.16641983 -0.2110453 -0.18878832 -0.124060735 -0.09765265
-0.08369759 -0.39180923 -0.18553503 -0.042196747 -0.15431523 -0.109185524 -0.14792886 -0.43100438
0.10736848 -0.2885671 -0.14595167 -0.16201474 -0.00864745 -0.3379604 -0.1410302 -0.1667998
-0.19951108 -0.053896558 0.06545895 -0.008145798 -0.23721015 -0.014860266 -0.31463435 0.0873753
0.049070373 -0.17551 -0.37324125 0.03385795 -0.3962175 -0.41379252 -0.048658848 -0.1627993
-0.14748655 -0.033751555 -0.052258357 -0.16689868 -0.1401782 0.09276093 -0.14810878 -0.27013078
-0.2495801 -0.27472335 -0.058882438 -0.11077655 -0.1680146 -0.21609281 -0.44040737 0.0393617

bn2.running_mean f4 [128]
00000000: 9062 48bf 7967 f8bd 2412 0ebe 65b2 083f
00000010: a137 babe c70d ad3d e687 39be f600 66be
00000020: dd05 e9bc 520d eebd 415e abbd a139 c0bd
00000030: 048b 2e3e 2c5f bb3e 5277 8f3e 01da 8abe
00000040: 3c5e c43e 82c7 2b3f b7c3 0a3f b429 5b3c
00000050: 5c92 62be 6562 3ebe 31d7 033d 64e2 03bf
00000060: fc95 bdbe 545d e2bd f87c 903e 7de4 27bf
00000070: 3a02 43be 15ca 823b dd96 7fbe fb37 d6bd
00000080: dc1b d73e 3080 603e da93 6abe c781 a73e
00000090: a411 c1bc 1466 0b3f 3705 29bf 8a9f 383f
000000a0: 985a e73d 6ea9 503f a781 3b3d 3af4 41be
000000b0: b889 0e3f 0e6e ccbe 8a2a b3be dfe2 f43e
000000c0: 58be 8cbc 90ff dfbd c401 b6be 324a 893e
000000d0: facd d0bd d85d 22be d2f7 bd3c 0a04 15bf
000000e0: ac94 9bbe d1a6 373e 602f be3d eec9 273d
000000f0: ec35 353f 22ea 0c3f 15f8 d8be 946d c33e
00000100: 5404 fa3e f292 453e 50a2 acbd 18f0 053f
00000110: 792b 47be 3b68 4abf 3e4a 11be 014c 6e3e
00000120: e2c3 e73e a1d6 ef3e 3862 303e e0d4 72be
00000130: 62a5 66be e0b2 1cbe c372 81be 1f5c a83e
00000140: 210a d8be 0f14 f03e 2cfe 5f3e fce3 edbd
00000150: ca7f b13e dc83 29be 6fc7 35be 3267 d13e
00000160: a819 0dbf f837 943e fe8e bebe 9a1f 23be
00000170: a52b 21be 9c7d 923e e52d 1f3d aaf7 a139
00000180: 1206 0a3d f12e 8ebe 98c0 65be 8a8f 65be
00000190: 5c06 56bd 49d5 ac3c 9cd2 b9be 2f38 53be
000001a0: c386 5bbe 3805 b8be 64c5 023f 18af e0be
000001b0: 5f3c e33e 3aaf f73e 541f acbe d094 a5bd
000001c0: 6d88 5bbd e55e 8dbe 692a 4dbe 7730 d43e
000001d0: e3b3 3dbe a08c c9be 0c71 11bf 14c0 153e
000001e0: 4a7c c8bd bde1 1cbe b59d babe 24e0 b43d
000001f0: 5a63 843b 7125 1fbe 19b2 3d3e 91fc f6bd
-0.78275394 -0.12129111 -0.13874108 0.5339721 -0.36370566 0.084498934 -0.18118247 -0.22461304
-0.028445179 -0.116236344 -0.08367587 -0.09385992 0.17045218 0.36596048 0.28020722 -0.2711945
0.38353145 0.671013 0.5420489 0.013376642 -0.22126144 -0.18592222 0.032187644 -0.5151732
-0.37028491 -0.11052957 0.28220344 -0.6558302 -0.19043818 0.003991375 -0.24959894 -0.10459896
0.42013443 0.219239 -0.22907963 0.327162 -0.023567982 0.54452634 -0.6602358 0.7211844
0.11296576 0.8150853 0.045777943 -0.18940821 0.5567889 -0.39927715 -0.34993392 0.4782934
-0.017180607 -0.109374166 -0.35548222 0.2681442 -0.10195537 -0.15856111 0.023189459 -0.5820929
-0.30386865 0.17934729 0.0928638 0.04096406 0.70785403 0.5504476 -0.42376772 0.3816954
0.48831427 0.19294336 -0.08429396 0.5231948 -0.19450177 -0.79065293 -0.14188477 0.2327118
0.45266634 0.46843436 0.17224967 -0.23714018 -0.22524026 -0.1530261 -0.2528287 0.32882783
-0.42195228 0.46890303 0.21874303 -0.1161575 0.34667808 -0.16554207 -0.17751859 0.40899044
-0.55117273 0.2894895 -0.3721847 -0.15930024 -0.15739305 0.28611457 0.038862128 0.00030892837
0.033697195 -0.27770188 -0.2243675 -0.22418037 -0.05225216 0.021097796 -0.36293495 -0.20626901
-0.21438126 -0.35941482 0.51082444 -0.43883586 0.44381997 0.48375875 -0.3361765 -0.08085024
-0.053596903 -0.2761146 -0.2003571 0.41443226 -0.18525653 -0.393651 -0.5681312 0.14624053
-0.09789331 -0.15320487 -0.36448446 0.08831814 0.004040164 -0.15541627 0.1852497 -0.12059892

bn2.running_var f4 [128]
00000000: 3b44 293e bd04 f43d 5dd6 aa3e 4d88 e73d
00000010: a284 9f3d dc10 0d3e bf66 d63d f917 bf3d
00000020: be78 353e 02f3 013e 2800 113e 28d8 2f3e
00000030: dd8c fb3d b543 173e 97e8 da3d 8bb5 4e3e
00000040: fcda dc3d b84c 333e abf7 103e 8d10 b93d
00000050: 562b 023e f8fe 263e 8b84 323e 83c2 433e
00000060: 5071 173e 338b 183e 81a1 f33d 1aae a23d
00000070: 1253 fd3d 7bb6 903e 494f 8f3d d0e8 513e
00000080: 41b6 553e 0945 463e c188 e93d cf10 2b3e
00000090: 1f67 b53d 5faa df3d acf0 6c3d 89a5 243e
000000a0: e8a8 4d3e 84d5 a53d 66cc 343e e658 fe3d
000000b0: 6556 183e 688b 453e 418d 9f3d 5279 d93d
000000c0: 9f79 d23d 843f 7d3e 3b52 733e 2510 133e
000000d0: c516 593e 6ed1 d83d 89f5 1d3e f2aa 4b3e
000000e0: 749e 103e 512e 133e 9288 913d 2fa4 af3d
000000f0: 0d71 fd3d 9504 6c3e 47da 0d3e 8ee3 393e
00000100: f287 c43d 4745 d63d bb37 143e cb2e d83d
00000110: d9ac 993d b409 d13d e6ab ea3d 260b e03d
00000120: 929a d33d ac3f 1b3e 28d1 e03d 8fc5 d33d
00000130: ce18 bc3d 5b21 0b3e 2cc9 c63d bb04 953e
00000140: d9b8 273e e44f d33d b35f 813d b270 333e
00000150: 9aad 4b3e 7415 e83d 0c5a f93d 4d57 093e
00000160: 2877 803e 5da2 e23d 0d4f cc3d 0bf8 3a3e
00000170: 5833 5c3e 5897 a53d e3c9 8a3d 3e4b 4e3e
00000180: 8542 2c3e 2fa2 173e cfb3 293e 52e5 163e
00000190: 9f95 233e 9deb 033e ae44 913d 70a5 723e
000001a0: 6c7e 413e 6963 e73d a921 cf3d 395a bf3d
000001b0: ce8d df3d 974d e73d 7576 3a3e 1db9 423e
000001c0: fb06 083e 3534 243e 2f6a 593e f24c 273e
000001d0: 7be7 213e 7f40 8c3e cd59 973e 9871 4c3d
000001e0: 1eec 193e 92d1 ec3d ba7d 433e 86fb b83d
000001f0: 765a 863d 89ec 153e 8c95 ad3d 3ae8 363e
0.16529934 0.11914966 0.3336667 0.11305294 0.077889696 0.13775963 0.10468816 0.09330744
0.1772184 0.12690356 0.14160216 0.17172301 0.12282727 0.14771922 0.10688894 0.2018644
0.107839555 0.17509735 0.14156978 0.0903636 0.12711844 0.163082 0.17433374 0.19117169
0.14789319 0.1489685 0.11896039 0.079433635 0.1236936 0.28264222 0.06997544 0.20498967
0.20870306 0.19362272 0.11403037 0.1670563 0.088575594 0.109211676 0.05784671 0.16078772
0.20083964 0.080973655 0.17656097 0.124193 0.14876707 0.1929146 0.07790614 0.10618843
0.10277104 0.2473126 0.23761837 0.14361627 0.21200092 0.105868205 0.15425695 0.19889429
0.14122945 0.14373137 0.07106127 0.085762374 0.12375078 0.23048623 0.13852797 0.18153211
0.09596242 0.10462432 0.14474384 0.105558 0.07503671 0.10206929 0.11458568 0.109396264
0.10332216 0.15161008 0.109773934 0.10340416 0.091844186 0.13586943 0.09706339 0.29105172
0.16379108 0.10317972 0.06317081 0.17523459 0.19890442 0.11332217 0.12175378 0.13412209
0.2509091 0.110661246 0.09976015 0.18258683 0.21503961 0.08085507 0.06776788 0.2014589
0.1682225 0.14807962 0.16572498 0.14735916 0.15975045 0.12882848 0.07093178 0.23695922
0.18895882 0.11298258 0.10113842 0.093433805 0.10915719 0.11294096 0.1820925 0.19015928
0.13283913 0.1603554 0.21231912 0.16337946 0.15810959 0.27392957 0.295607 0.04991302
0.15031478 0.1156341 0.1909093 0.09032349 0.06560223 0.14641012 0.084757894 0.17862025

fc1.weight f4 [128, 24]
00000000: 825c 023c bf24 e0bd cba3 6ebc 4996 d13d
00000010: f47f 293e a39e 113e 1166 b13d ed53 d53d
00000020: bdec 74bd 9149 44bd 5cb5 623d 070d e33d
00000030: 7e53 963b ebfc 4dbe 7ee0 ff3d 728f 233e
00000040: 367a 0abe 0edb 893c 0b8a ffbc 5202 463e
00000050: dce0 223c 7a5f 0dbf f861 323d c4b2 783e
00000060: e37c 9fbd 09df ff3d 16ac 28bd add1 1f3e
00000070: 2e1f 56bd dbc7 5ebe bf7d 44bd f77f 253e
00000080: 3df0 bebd c36d 243d 19a0 2e3e 89b2 8cbd
00000090: 3b4b 4cbd ea9c 7ebe 53b7 603e b762 6bbd
000000a0: 9a7a 35bd 9564 133e 9666 36bd 3709 00bd
000000b0: e864 afbc bd21 acbe ac01 5abd fbe7 19bd
000000c0: ed1c b13e f4e5 8c3e 1c82 7dbc 3199 1bbe
000000d0: c5e2 c73d b356 41bf 4c3a ce3c 67c5 f0bd
000000e0: b778 3d3e b63d 8e3d 4f1d 1d3d ca18 54be
000000f0: 3635 dc3d d79b 403b 242f 123d cc83 72be
00000100: 1525 353d b67d ed3c cd35 123c e03c d33c
00000110: 2a53 253d 87eb 443e 033f 39ba d30f 2b3c
00000120: be70 5f3e ac06 ee3e 30ef e33c 43ee 61be
00000130: ca39 72be 280d f0bd 1d6c 853c 49ec 33be
00000140: 1130 5f3e 6b4c ab3e 280d eebc c48f 8ebd
00000150: 6d5c 22be d7cf babe 9ca6 2d3d 4264 62bd
00000160: e0d4 503d 9db8 073e 4899 4f3d c132 74bb
00000170: b894 9ebb b025 f5bd 25cd 05bd 5255 623d
00000180: f228 debd ffd0 23be 9e11 7abd a9cb 97bd
00000190: e342 503d 5641 f13d 74b2 55bd 3c54 b8bc
000001a0: f735 cf3c a262 81be c22d 2b3e 0bdf ac3c
000001b0: cb4c 74bd 7221 d03c e16b 813e b24b 2bbd
000001c0: 3784 703d 33e2 17be 7429 cbbb 9fc5 34bb
000001d0: 5ae2 06be 24f0 e9bb eb97 ba3d 60e0 cb3c
000001e0: b03d 1fbe 53c7 27be 91dd 8fbd ef8f 3a3b
000001f0: 1360 af3d 9ef7 8d3e 6add a1bc 48cb a2bd
00000200: d445 2cbd a63c 63be c629 03be 4969 1c3e
00000210: 967b 2bbe a6e8 48be faae 7fbd 429f 8f3d
00000220: 5b65 32be 6c75 12bd 20d4 00bd c2ea cb3e
00000230: dd42 03be 9f82 cfbe 9b58 903d 5ef8 923e
00000240: 6c73 9dbc c307 ab3d a407 a73c 5028 123e
00000250: 7639 8e3e 807d 5cbd 8530 25bb 5cab 0f3d
00000260: 014b aabc 44ca a6bc 28de 4ebd efd8 06bd
00000270: bee1 0c3e ae72 80be f5d9 8c3d 2999 11be
00000280: 49a7 09bc 6d7e 4bbe e3c5 283d 0d3e 56be
00000290: 2273 eb3e ffee f7bd fb37 7ebd 2d9c 10be
000002a0: acfb e5bc 8f8d ad3e 5f2a 283e 06ce b03e
000002b0: be98 d03d b864 963e 0611 a43d f85c 9d3e
000002c0: 2518 98bb 6eca 963e efd2 2cbd fd0f 6f3d
000002d0: c7c0 113e 3af1 8aba c3ef 8e3c 6eb5 33bc
000002e0: 3c2a 2a3e 4897 b23e b32a d93c 6bb7 06be
000002f0: 90fa da3d f724 46be 4dd0 2c3d 2993 20be
00000300: 34f6 9a3c be22 1ebd b938 debc fd26 98be
00000310: 941c 113d 40b6 313e ec73 bd3d 964d 56be
00000320: 1bb1 363d cea1 8ebc 282c 313e ef5a cebd
00000330: e43c 6abc de68 4a3e 04d1 e63d 4637 13bd
00000340: 0060 52be e476 72bd 92b9 30bd ce02 efbd
00000350: dca4 1d3d 672c a33e 3076 ffbc 5642 1abe
00000360: a7b0 c8bd a6ab 103e 3473 af3d f1ef 323e
00000370: 6dbd 173e 2e0b 243e 83b7 fe3d 256b 193e
00000380: 98ee 10be 7a64 153d 72f0 fd3d 17e5 933c
00000390: d943 853d df90 c03d 27f7 ee3d 0bb4 e7bc
000003a0: 2e8c 12bd 52bb ac3d e415 95b7 c76d 27be
000003b0: de67 bf3d 9ee5 9f3c af1b a6bd 3037 b6bd
000003c0: e176 823e 1515 153f 22b6 8b3c 5bda e4bd
000003d0: 7c46 e93d 5e19 afbd 7397 383c 6370 d73c
000003e0: a3cc 5e3e e885 153f 9a96 8b3d 5f32 8fbd
000003f0: 3e4a 023e 051f 40be 0a3b 11bd 899b 28be
0.007956626 -0.10944509 -0.0145654185 0.10233743 0.16552716 0.14220671 0.08662046 0.10416398
-0.059796084 -0.04792172 0.05534874 0.11086469 0.0045875898 -0.20116012 0.1249399 0.15972689
-0.13523182 0.016828086 -0.031193754 0.19336823 0.009941306 -0.5522381 0.04355046 0.24286944
-0.07787492 0.124937125 -0.04117974 0.15607329 -0.05227583 -0.21755926 -0.047971483 0.16162096
-0.093231656 0.04014374 0.1705326 -0.068699904 -0.049876433 -0.24864545 0.21944933 -0.05746719
-0.044306375 0.14393838 -0.044531427 -0.031258788 -0.02141042 -0.3361949 -0.05322425 -0.03757475
0.3459238 0.2751919 -0.015472915 -0.15195157 0.0976005 -0.7552292 0.025174282 -0.117564015
0.1850308 0.06945364 0.03835803 -0.20712581 0.10752337 0.0029389763 0.035689488 -0.23683089
0.044224817 0.028990608 0.00892396 0.025785863 0.040362515 0.19230472 -0.00070665794 0.0104407845
0.21820351 0.46489465 0.027824014 -0.22063546 -0.23654857 -0.11721259 0.016286904 -0.17570604
0.2179568 0.3345674 -0.029059008 -0.06961015 -0.1585557 -0.36486694 0.04239522 -0.055271395
0.050984263 0.13254018 0.05068329 -0.0037261697 -0.004839506 -0.11970079 -0.032666344 0.05525715
-0.108476534 -0.15997694 -0.061051957 -0.07411892 0.05084504 0.1178004 -0.05217214 -0.022501104
0.025294287 -0.25270563 0.16716674 0.021102449 -0.059643548 0.025406573 0.25277618 -0.041820236
0.05871984 -0.14832382 -0.00620001 -0.0027583612 -0.13172284 -0.0071392227 0.09111007 0.024887264
-0.15550876 -0.1638463 -0.07024682 0.0028467139 0.085632466 0.2772798 -0.019758899 -0.07948929
-0.04205878 -0.22191104 -0.12808904 0.15274538 -0.16746363 -0.19619998 -0.06242273 0.07012798
-0.17421477 -0.035756513 -0.0314523 0.39827543 -0.12818475 -0.40529343 0.0704815 0.28705114
-0.019220077 0.0835109 0.020389386 0.1427319 0.27778214 -0.053830624 -0.0025205922 0.03507553
-0.020787718 -0.02036012 -0.050504833 -0.032921728 0.13757989 -0.25087494 0.068775095 -0.14218582
-0.0084017 -0.19872446 0.041204344 -0.20922108 0.45986277 -0.12106132 -0.062065106 -0.14122076
-0.028074108 0.33897063 0.16422413 0.34532183 0.10185383 0.29373717 0.080110595 0.30734992
-0.00464155 0.29451317 -0.04219335 0.058364857 0.14233695 -0.0010600456 0.017448312 -0.010968549
0.16617674 0.34881043 0.026509618 -0.13155906 0.10692322 -0.19350038 0.04219084 -0.15681137
0.018916227 -0.03860735 -0.027126657 -0.29717246 0.035427645 0.17354679 0.09250626 -0.20928034
0.044602495 -0.017411139 0.17302 -0.10075938 -0.014296744 0.19766566 0.11270335 -0.035941385
-0.20544434 -0.059195414 -0.043145724 -0.11670457 0.0384873 0.31869814 -0.031184286 -0.15064368
-0.09799319 0.14127979 0.08566895 0.17474343 0.14818354 0.1601989 0.12437346 0.14982279
-0.14153516 0.036472775 0.12399377 0.018053574 0.065070815 0.09402632 0.11668234 -0.028284093
-0.035778217 0.08434166 -1.7772378e-05 -0.1635047 0.09345983 0.01951867 -0.08110749 -0.08897245
0.25481322 0.58235294 0.017054621 -0.111744605 0.11390397 -0.0854976 0.011266577 0.026298707
0.2175775 0.5840745 0.06815834 -0.069920294 0.12723634 -0.18761833 -0.035456695 -0.16465582

fc1.bias f4 [128]
00000000: c209 b43d 0796 e03c 2ee3 0cbe f2db 163e
00000010: 1ef5 01bd c178 58bd 3456 2a3e 6801 d5bd
00000020: b7c7 293d e2ce 31be 743c d63d 2b05 a63d
00000030: a1e2 2bbe 9354 e93d b4dc b73c 2be2 d7bd
00000040: 5d2e 323e 4b89 b33d 61e6 923d 6044 9bbd
00000050: fd36 e5bd 9ef2 e0bd ca18 9d3d 0828 613d
00000060: 0234 fabd 6d36 3e3e a08f f33d 019f 9fbd
00000070: 9747 d83d f147 b1bd bc38 833d dbf5 2d3e
00000080: f0de 38be f4dd cfbd b0c0 3cbc 9f5d f93c
00000090: 24e5 2bbe ae82 09be 6924 a0bc 510e f1bc
000000a0: 2453 343d 869d d43c e67b 2b3d 40a7 5d3c
000000b0: f031 c03c 0e0b 41bc 3f2e 963d 25a5 0e3e
000000c0: 69c9 d0bd 7090 d8bd a07c b73d c426 17be
000000d0: 59dc 073e 0929 c13d cd12 f23c 1679 b5bd
000000e0: dd86 c83b a546 25be f60c 3cbe a4d6 443e
000000f0: 1f7c 3bbe 7370 2dbe ce64 a2bd 1ad0 3b3c
00000100: a77e 3f3d fd07 cebd bd47 a2bc cfb5 3abd
00000110: dde6 2e3e 7b69 353e 7cd6 ab3d c357 a0ba
00000120: cac5 1c3e 51c1 28be 6ea9 ae3d 1ffe f2bd
00000130: cd00 233e 26c7 38be b150 9b3d 0ddb 2bbe
00000140: afef f33d 72c1 183d 0b5a 333e 5fa6 1dbe
00000150: 837f 063e f07e 0bbe 2c95 e1bd e106 9f3d
00000160: bab5 0cbd f807 25be f7d9 31be 4a0d 59bd
00000170: 8678 673d 6199 373e 83bb 193e c4b1 593b
00000180: 8039 00be 835d 3abe 1dbf 3a3e 8513 e9bd
00000190: aa06 13bd 89ac 28be dd77 10be 8842 223d
000001a0: 61c3 4ebd 4f85 bf3c d189 ccba 2654 2a3c
000001b0: fcb5 25bd e7cd 01bc 7fd5 b53d 09af 183e
000001c0: 5ab0 303e 9684 2abe 80ac 30be 7be9 f9bc
000001d0: b09e 7fbc b0b5 e63d c8c6 443e 8cc5 563d
000001e0: b375 14be f023 bdbc e52e 073e 9c43 9a3d
000001f0: a5d5 13be e51c 433c 69ce 49be d076 a8bd
0.08790924 0.027415289 -0.13758537 0.1473234 -0.031727903 -0.052849535 0.16634446 -0.10400659
0.04145023 -0.17364076 0.10460749 0.081064545 -0.16785671 0.113930844 0.022444107 -0.10541185
0.17400499 0.08766421 0.071728475 -0.07581401 -0.11192129 -0.109837756 0.07670744 0.054969817
-0.12216951 0.1857545 0.11892629 -0.077939995 0.1056053 -0.086563 0.064073056 0.16988318
-0.18053794 -0.10149756 -0.01152055 0.03044015 -0.16786629 -0.13428757 -0.019548612 -0.029425772
0.0440246 0.02595402 0.041866206 0.013528645 0.023461312 -0.011782421 0.073330395 0.13930185
-0.10194666 -0.10574424 0.08959317 -0.14760882 0.1326765 0.09431655 0.02954998 -0.08860986
0.0061195926 -0.1614023 -0.18364319 0.19222504 -0.18309067 -0.16937427 -0.07929383 0.0114631895
0.046751644 -0.100601174 -0.019809598 -0.045583542 0.17080255 0.17716019 0.08390519 -0.0012233186
0.15309826 -0.16479994 0.0852841 -0.11864876 0.15918274 -0.18044719 0.0758375 -0.1678278
0.119109504 0.03729386 0.17514817 -0.15395497 0.1313458 -0.13622642 -0.110147804 0.07764984
-0.034352995 -0.16116321 -0.17368303 -0.05299119 0.056511424 0.17929603 0.15012936 0.0033217529
-0.12521935 -0.18199734 0.18236966 -0.11380676 -0.035895027 -0.16472067 -0.14108224 0.03961423
-0.050479297 0.023378996 -0.0015605037 0.010396039 -0.040456757 -0.007922626 0.08878612 0.1491052
0.17254773 -0.1665214 -0.17253304 -0.03050684 -0.015601799 0.11265123 0.19216454 0.05243449
-0.14498024 -0.023088425 0.13201483 0.07532427 -0.14436968 0.011908744 -0.19707645 -0.08225787

fc2.weight f4 [128, 128]
00000000: 46fc 963d b7de 10bc f4d4 db3d 005f 683e
00000010: eb3b c2bd 081e ef3c 4998 59be 312c 22be
00000020: 90a0 263d 9780 96bc 2640 8c3d 3d55 aa3c
00000030: bd4f 08be f104 113d ab84 31be b6d5 603a
00000040: ee68 3c3d 1fd0 9e3d 5334 3dbe f284 193e
00000050: 9e53 3bbd c630 813d 3b59 4abe 1ce1 07bd
00000060: 4f8a 1cbc b9d2 07bc 6f0b 21bc 5e52 3cbe
00000070: 4afa dfbd 6405 47be 2212 d13c 0ecb 04be
00000080: 313b 193d 955c 82be 3991 2bbe 3622 38bb
00000090: 84b0 29bd 00c2 0e3e ffd5 c4bd a5be 8fbc
000000a0: 4690 83bc 1e1b 8dbe f741 0b3d aeb7 80bd
000000b0: 9013 01bd 6afd fcbd 4db6 1cbe 4c27 afbd
000000c0: e0a6 693d fa97 013e a188 a0bd 7522 1d3c
000000d0: b4ab 1ebe 2505 e5bc 83e8 063c febe dbbd
000000e0: 8b93 4cbe d26a 5b3e 31d3 2c3d d75f 35be
000000f0: 5591 4fbd dba8 d8bd c5dd 96bd 6c96 2e3e
00000100: cd28 81bd eac8 4cbe 2135 ee3d 2e73 6a3d
00000110: d989 bbbb 5148 823d d9c0 06be a986 ccbd
00000120: c838 55bd 0892 5fbe 4084 02bd 1485 9bbc
00000130: 5ae9 02be 2088 4c3d 8b10 1f3e 635c 25bd
00000140: 109f 53bc 7420 673e 17fe fcbd ff38 2abd
00000150: ef7e d4bd 02ed 69be d1be b23c ae4b 91bd
00000160: 5bd8 243d 5aba e23b e6b1 8dbe 0092 073c
00000170: 67c1 2cbe ad65 41bd 1f4c abbd c315 b6be
00000180: 1047 6ebd c2f6 d4bd cd8c 90bd 967c 4fbe
00000190: 2de1 69bc 1375 0d3e 52bb 09be 3028 253c
000001a0: 35e4 1a3d d3a4 35be bb7a f93d e77f 713e
000001b0: 70ae 0ebf ed0f fcbc 5bec 58bd 2585 763d
000001c0: 89a9 e7bb 3821 db3e 6c11 9bbd a8c6 43be
000001d0: 7e3d f73d 1c22 623e eaf5 063e 52c6 443d
000001e0: 7638 5fbd 9fff 06be 57f7 f1bc 4806 ee3b
000001f0: 9792 ee3c b0b9 e9bd 75c3 15be fd06 a53c
00000200: 3259 ba3c 53df 133e 566a 9a3d b628 46bd
00000210: 9d46 77bb 59d6 57be db45 d63d 8555 d7bd
00000220: 5c03 d93c d1ce 6cbd a27a 0fbd 5f4f 3bbe
00000230: 5b71 7f3e 4978 32bc 1bb6 94bd 1b57 3d3e
00000240: 5154 633d 6e86 3cbd 56fd 84be 7e62 43be
00000250: b67d e0bd de9f 4a3d 6578 193e 61f9 76be
00000260: f935 023d d80a 83be 00b3 573d d15c 463e
00000270: 56f4 ccbc acb2 cfbc 8c66 f3bd 459f af3d
00000280: ad67 a1bd b9a8 383e 0ae8 5ebe afae 2fbd
00000290: 0a57 2abd 88d0 b13d f8db 3bbe 18d0 cfbe
000002a0: a2b9 8d3d d25f b83d 6860 08be 681e 503d
000002b0: 67c5 8a3c 5ed7 c0bd 5a28 983c be1e ffbd
000002c0: 0dbb 15be 4dd1 2dbe 86d9 ef3b 224b e7bd
000002d0: 8159 0d3c 2d18 a73d bd5d 273e 880f 66bd
000002e0: 0bc9 7f3d 156d aebe 2f63 a33d 2835 e8bd
000002f0: 03b9 9c3d 655a e4bd 1761 4fbd 28cf 27bc
00000300: ee9a 153e 2154 093e 0204 d8bd 0ede 12bd
00000310: fbd2 3cbd 0851 af3d 08c8 15bd 613b 8fbd
00000320: ed8e b2bd a06b e6bd 4871 ba3d 887a debc
00000330: 6026 eb3c 1a11 abbd 0e2d 873e f518 633d
00000340: 35fe 2bbe c7e2 30bc b091 933c 082d e6bc
00000350: 4b93 22be 3810 01be 546a 20be e105 803d
00000360: a6e1 6f3e 1560 093c e468 93be 2659 cb3d
00000370: 91ac 36be 187c 90bd 5919 903c c540 4fbc
00000380: 6598 823e e632 8b3e bf80 143d 6585 cabd
00000390: d731 59bd ac67 093d 15fa 3ebe 09c9 75bd
000003a0: 49a7 c43a 0dc7 20be 2e4f 883e 1c1a a23d
000003b0: ee1c b93c 8b54 2a3c 5ecf 183e c61a 1abe
000003c0: c681 5c3e 86cc 723c d911 60bd b48c ce3d
000003d0: 1613 2abd e3ea cd3d 356b 8dbd 3749 26bd
000003e0: 519e 7fbb eebf 91bd 2dbe c5bd be1a 93bd
000003f0: c203 4cbe 7f2d 6bbd e741 17be 45aa 113e
0.07372336 -0.008842162 0.10733977 0.2269249 -0.09484085 0.029189125 -0.21249498 -0.1583717
0.040680468 -0.018371863 0.06848173 0.020792598 -0.13311668 0.035405103 -0.17335765 0.0008576767
0.045998506 0.0775454 -0.18476991 0.14992121 -0.04573404 0.06308131 -0.19760601 -0.033173665
-0.00955446 -0.008289986 -0.009829386 -0.18390796 -0.10936411 -0.1943565 0.025521342 -0.12968084
0.037409965 -0.2546126 -0.16754617 -0.0028096563 -0.041428104 0.13941193 -0.09611129 -0.017546961
-0.016060006 -0.2755975 0.033998456 -0.06285034 -0.031512797 -0.123530224 -0.15303917 -0.08552417
0.05704391 0.1265563 -0.0783856 0.009590735 -0.15495187 -0.027956555 0.008234146 -0.10729788
-0.19978158 0.21427467 0.042193595 -0.17712341 -0.05067571 -0.105790816 -0.07366518 0.17049569
-0.0630661 -0.19998518 0.11631227 0.05723875 -0.00572322 0.063614495 -0.13159503 -0.09986622
-0.052056104 -0.2183305 -0.031864405 -0.018984355 -0.12784329 0.049934506 0.15533654 -0.04037131
-0.012916341 0.22570974 -0.12353151 -0.041558262 -0.10375773 -0.22844318 0.021819504 -0.07094513
0.040245395 0.0069191875 -0.27674788 0.008274555 -0.16870652 -0.047216106 -0.08364128 -0.35563478
-0.05817324 -0.10398628 -0.070581056 -0.2026237 -0.0142748775 0.13814192 -0.13450363 0.010080382
0.03781529 -0.17738657 0.12181612 0.23583947 -0.5573492 -0.030769313 -0.05295978 0.06018557
-0.0070697707 0.4279878 -0.07571682 -0.1911875 0.120722756 0.22083324 0.13179746 0.048040695
-0.054497205 -0.13183449 -0.029536886 0.0072639324 0.029122634 -0.1141237 -0.14625342 0.020144934
0.02274761 0.1444066 0.07539813 -0.04837867 -0.0037731298 -0.21077861 0.104625426 -0.105143584
0.02649086 -0.057814423 -0.03502906 -0.18291996 0.24945585 -0.010892936 -0.07261296 0.1849026
0.055500332 -0.04602664 -0.2597453 -0.1908054 -0.109614775 0.049468867 0.14987333 -0.24118568
0.031789754 -0.2559421 0.052660942 0.19371344 -0.025018852 -0.025353752 -0.11884794 0.085753
-0.07881103 0.18033113 -0.21768203 -0.0428912 -0.041586913 0.08682352 -0.1834563 -0.4058845
0.06920172 0.09002651 -0.13318026 0.050810248 0.016939832 -0.09416078 0.018573929 -0.124570355
-0.14622135 -0.16974373 0.007319632 -0.11293627 0.008627296 0.08158908 0.16344352 -0.056167156
0.06244759 -0.34067598 0.07977902 -0.11338264 0.07652476 -0.11150054 -0.0506297 -0.010242261
0.14609882 0.13410999 -0.105476394 -0.0358563 -0.046099644 0.08560377 -0.036567718 -0.069937475
-0.08718667 -0.112509966 0.09103638 -0.027158037 0.028704822 -0.08352871 0.26401561 0.055443723
-0.16796191 -0.010796255 0.018013805 -0.028097644 -0.158765 -0.12603843 -0.15665561 0.06251121
0.23425922 0.008384724 -0.28790963 0.09929113 -0.17839266 -0.07054919 0.017590212 -0.01264972
0.25506893 0.2718727 0.036255594 -0.09888724 -0.053026047 0.033546135 -0.18650086 -0.060006175
0.0015003468 -0.15700932 0.2662291 0.07915136 0.022596803 0.010396133 0.14922854 -0.15049276
0.2153388 0.01481927 -0.05470452 0.10085431 -0.041522108 0.10054567 -0.06905214 -0.040597167
-0.0039004276 -0.07116686 -0.09655414 -0.07182835 -0.19923308 -0.057416435 -0.14771233 0.14225109

fc2.bias f4 [128]
00000000: 1480 45bd 35c1 993d 42ce 583d f987 8a3d
00000010: 5b45 103d 6c00 7e3d 471b 5b3d b3f4 06bc
00000020: 4dd1 a8bd 5088 0c3d 6c21 e1bc 2ecc 67bd
00000030: 6d5c 873d 6423 9f3d 92d9 583d 5d41 ebbc
00000040: 26d4 20bd fc0b 993d 6e37 573d 74b3 7bbc
00000050: 56fa 89bd 9db6 20bd fdd4 0ebd 3a57 5abd
00000060: 830f 9abd 3cb5 a3bc 9c93 8f3d 3fce 73bc
00000070: 8838 163d 2db9 c33a 4a57 9cbd 3b7f 903d
00000080: eac9 9a3d 0622 9bbc 35be 003d 0d97 123d
00000090: fdc2 66bd db59 8a3c d6cc 4ebd 2f0b 333d
000000a0: 1a15 8fbd 8692 673b c6fe eebc 352e 9bbd
000000b0: 5dfc 073c 54f8 bcbc 4bba c8bb f927 a23b
000000c0: 769b 913d 07b3 7fbd 7d85 1c3d c0b3 50bd
000000d0: 1c56 253d 9d44 023d 71d2 943d ead6 1bbd
000000e0: 074b 103c 618e a3bc f38d 92bd 52a5 8fbd
000000f0: 84f3 aa3d 24e1 3c3b 513f 553d 65cb a3bd
00000100: 0d2f 903d 2494 4c3d 3e62 383d 1c7a 6c3d
00000110: 1bfb 6ebd 27ae a23b 80a4 9dbd dd35 f0bb
00000120: 376d 923d c85c 393d cc41 4f3d 1146 4bbd
00000130: 733d a0bd 5997 c4bc 4a52 883d e8d4 8c3d
00000140: 272a b13d c987 1d3d af26 a3bb e15f acbd
00000150: 117d 9dbb e9ff 553d 0e0d 013d 960a e1bc
00000160: 8f4b 36bd 7e9c 4c3d 1996 933b 84db c23b
00000170: 12f6 cfbc ec07 153d 753f bebc 167a 5c3d
00000180: 3f81 8f3c e84a d8bc 264a 0ebc 3f46 23bd
00000190: 59d6 863d 45ce c9bc 284f 963d af14 b1bd
000001a0: 9a1b 6a3d 1759 123d 93da 933d 6317 02bd
000001b0: 02d4 7ebd 45e9 013d d263 8ebd 6a37 923d
000001c0: 1418 1e3c e490 7c3d 8260 7d3d 3e17 a1bc
000001d0: 237f 12bd 2444 cbbc 409d 40bd 95ea df3c
000001e0: 75ed 963c 9f8e 69bd 6742 8d3c dff1 a73d
000001f0: e02d 913d c6bd 403d f9e6 2c3c 931e 2c3d
-0.048217848 0.075075544 0.052931078 0.06764216 0.035222393 0.06201212 0.05349281 -0.008237052
-0.08243046 0.034309685 -0.027481757 -0.056591205 0.06609426 0.07770422 0.052941866 -0.028717691
-0.03926482 0.07472989 0.052543096 -0.015362609 -0.06737201 -0.039236654 -0.03487109 -0.053305842
-0.0752249 -0.01998388 0.07010576 -0.014880716 0.036675006 0.0014932506 -0.076338366 0.07055517
0.07558043 -0.018937122 0.031431396 0.035788585 -0.0563383 0.01688855 -0.050488316 0.043711837
-0.06986447 0.0035335138 -0.02917422 -0.07577173 0.008299914 -0.02306763 -0.0061257235 0.004948613
0.0710973 -0.062426593 0.03821324 -0.050952673 0.040365323 0.031803716 0.07266701 -0.038046755
0.00880695 -0.019965352 -0.07155981 -0.07013954 0.08347228 0.0028820718 0.052062336 -0.07997779
0.07040224 0.049945965 0.045015566 0.05773364 -0.05834494 0.0049646082 -0.076973915 -0.0073306398
0.07149737 0.0452545 0.05059986 -0.049627367 -0.078242205 -0.02399795 0.066563204 0.06876546
0.08650618 0.038459573 -0.0049789767 -0.08416725 -0.004806169 0.052246008 0.03150659 -0.027470868
-0.044505652 0.04995393 0.004503977 0.0059465785 -0.02538589 0.036384508 -0.023223618 0.053827368
0.017517684 -0.026402906 -0.008684671 -0.039861914 0.06583852 -0.02463449 0.073393166 -0.08646523
0.05715523 0.035729494 0.07219424 -0.031760585 -0.062213905 0.031716604 -0.06952633 0.07139476
0.009649295 0.061661616 0.061859615 -0.019664403 -0.03576578 -0.024812765 -0.047024965 0.027333537
0.018423775 -0.05702078 0.017243577 0.0820043 0.07088828 0.047055982 0.010553115 0.042021345
