weights/checkpoint_actor.pth (torch_old, 524659 bytes, 6 tensors)

fc1.weight f4 [400, 24]
00000000: b35e 92bd 6df5 233d 589c 69bb dabc 16bd
00000010: 6a87 d3bb 7cab 2cbd e8ce 8dbc e85e 223d
00000020: 89c5 ebbb 7258 ba3d a607 a1bc b905 a4bc
00000030: d42c aebc 56c3 c3bb f130 893c 74fd d0bc
00000040: 1ac6 92bd ebfa 633c e58a 413c d5e6 adbd
00000050: 24f0 3c3c 5016 dfbc 75c2 633d 1e01 8fbd
00000060: b871 983c bc06 323d 5631 3c3c 61e3 f93b
00000070: 4ac1 bcbc b628 cdbc 99b1 4f3b 1197 b1bc
00000080: 9605 64bd 2b48 aa3d 0605 d73c 9930 58bb
00000090: 528a 96bc a2f9 1dbc f2e2 2c3c c1ce 3a3c
000000a0: f6cd 313c 3d1c 513c ed42 863c b558 a3bd
000000b0: 4109 36bd d81f c3bc 5f2c 8bbc 16bb d3bd
000000c0: dfa4 0f3d ee24 91bd 9caf 6a3d 71cf bb3b
000000d0: 225d 8e3d 2662 cb3d 300b 0b3d b9d2 a53c
000000e0: 7608 5dbd b6de 1cbe 5672 6c3c 0842 fb3c
000000f0: 8d7f e2bc d52f 173e 1f2e 39bd 114c 893c
00000100: fc78 7bbc 3fb4 f0bd 6926 aabc 4ceb c0bc
00000110: baba 52bd 62c7 213e a5ac 2cbd a5d6 90bc
00000120: 71f6 fbbc 4fa5 3fbb 966a 5dbd 38a4 17bd
00000130: 9fae bcbb 55ba 263d 0bff fcbc 8a22 37bd
00000140: 269a 32bd 4c47 85bd 11c1 5e3d 1f74 36bb
00000150: d8c7 fe3b 6da4 413d 89a7 a53c b23b 2dbd
00000160: 9730 1fbc 17a5 403c 0786 323d e089 72bd
00000170: f82d 3d3d 5e78 2bbb e9c3 2ebc 86ec 74bd
00000180: 6451 30bd fc07 be3c 6300 e9bc f63a 40bd
00000190: 633f 0dbe 09cc 993b 5e29 81bd a9a8 d2b9
000001a0: 189e 973a ce31 5f3d 9063 6abd efca 81bb
000001b0: e151 b2bd cdae 4ebc 1dfa b93c ce4e 823b
000001c0: 4485 aebc 15ce 53bc 43ea 013d 5f47 343d
000001d0: ead5 a23c 63f6 df3c 9f60 1abd f36c 2e3d
000001e0: 7dbf 93bd aa37 0c3d e209 9ebc 05ec fc3c
000001f0: 752b 223d 67c2 bbbc 3186 a83c 292a 85bb
00000200: 4a93 6abb dd72 be3c 37b0 4f3d 95e1 12bc
00000210: b8ac 163d 1da1 fabc 01f1 ac3c e340 8ebc
00000220: 243d 9bbd d573 16bd 465e 163d cfa9 293c
00000230: 6b6f d73c f3c9 9ebc cd8a be3c c573 f8bb
00000240: 86bd 5dbd e463 2ebc f979 183d 3542 54bd
00000250: fd62 65bb 2ee7 56bd a25e f53c 7654 91bd
00000260: aa45 c43c 712f 66bd fe17 393c f6d6 5ebd
00000270: 98b4 66bd 3651 07bc 1646 083d 7762 bfbd
00000280: 1989 acbc 19e4 6fbc c931 91bd 8539 2bbb
00000290: 1fe8 ad3b edcd 39bd 8d98 ad3c a304 b8bc
000002a0: 0694 36bd fc78 8fbb 3534 c63b b6ce 9d3d
000002b0: 56ba f8bc 7925 92bc b966 ccbc 38e4 6a3a
000002c0: 7c22 51bd 1990 e33c d217 063a f11e bd3c
000002d0: 258f 5e39 a849 163d 611e c83c bfe3 333c
000002e0: 29f6 723d d9fc 0fbb 131c e7bc d82a ad3d
000002f0: d88b 903b ded9 e63c b79f 683d 428a 073a
00000300: c39c 3dbd 9b9a cebd b715 603c da28 f63c
00000310: 4e9b 97bb e56f 923d 96f9 0e3d fa58 923d
00000320: 2737 47bd edc4 40bd 5cf3 383d 76a6 923c
00000330: 4516 42bd 97e5 ec3c 9480 423d 3928 3cbb
00000340: 03cb 1eb9 239e f7bc f7af 65bd 2871 803d
00000350: 5e1f 8e3c f751 92bc 07d1 4cbd d3c7 6d3c
00000360: 200c d3bc f772 023d 549f 2a3c 97bf e6bc
00000370: b780 533d 801f 40bd 62b7 253d d9d2 f839
00000380: 03c7 99bc 0fe2 9b3c feea 333d 892d 27bd
00000390: 09bc 6b3d 62c3 82bc f860 953c b9d1 42bd
000003a0: 5a38 2b3d 36c5 36bc 12c8 bb3b 2edd a8bc
000003b0: 7cac 553d be6a d4bc 40de 983b 87ed 92bd
000003c0: b0d6 a13c 0a86 81bd 6bd7 38bd 0b11 a23c
000003d0: c1ef 66bd 945c 8f3b b032 ef3c 6d65 7bbc
000003e0: 1b2b cebb 7c2d 92bd 50b6 ae3c c121 4ebc
000003f0: d880 5ebc 07e6 59bd 2cca cebc 9f2b 31bd
-0.07146969 0.04002898 -0.0035646167 -0.036801197 -0.0064553516 -0.042155728 -0.017310575 0.03964129
-0.007195179 0.09098901 -0.019656967 -0.02002226 -0.02126161 -0.0059742136 0.01674697 -0.02551148
-0.07166691 0.013914804 0.0118129 -0.08491293 0.011531863 -0.02723232 0.05560537 -0.06982635
0.018608913 0.043463454 0.011486372 0.0076259826 -0.023041386 -0.025043827 0.003169155 -0.02167848
-0.05566939 0.08314546 0.026247513 -0.003298795 -0.018376503 -0.009642037 0.010552155 0.011401833
0.010852328 0.01276308 0.016389335 -0.07975904 -0.04444242 -0.023818895 -0.016988931 -0.10338418
0.035069343 -0.07087122 0.05729638 0.005731516 0.069513574 0.0993083 0.033946216 0.020242082
-0.053963147 -0.15319332 0.014431557 0.030671135 -0.027648712 0.1476434 -0.04521 0.016759904
-0.015348669 -0.11753129 -0.020770269 -0.023549698 -0.051447608 0.15798715 -0.042156834 -0.017680475
-0.03075716 -0.0029242819 -0.054056726 -0.037021846 -0.005758121 0.040705044 -0.030883333 -0.044710673
-0.04360404 -0.065077394 0.05438334 -0.002784021 0.007775288 0.04727595 0.020221489 -0.042293258
-0.009716175 0.0117581105 0.04358485 -0.05921352 0.046186417 -0.0026164274 -0.010666826 -0.05979588
-0.04304637 0.023197167 -0.028442567 -0.04693123 -0.13793711 0.0046935123 -0.06306718 -0.00040179983
0.0011567501 0.054490857 -0.057223856 -0.003960959 -0.087070234 -0.012614918 0.022702271 0.0039766794
-0.02130378 -0.012927552 0.03171755 0.044013377 0.019877393 0.027339166 -0.0376898 0.04258437
-0.07214258 0.034232773 -0.019291822 0.030874262 0.039592225 -0.022919847 0.0205718 -0.004063864
-0.0035793358 0.02324813 0.05070516 -0.008964916 0.03678581 -0.030594403 0.021111013 -0.017364925
-0.07580021 -0.03673156 0.036711 0.010355427 0.026298245 -0.019383406 0.023259545 -0.00758216
-0.05413582 -0.010643933 0.037225697 -0.051820952 -0.0035001629 -0.052466564 0.029952351 -0.07096188
0.023959 -0.056197587 0.011297224 -0.05440422 -0.05632457 -0.008259108 0.033269964 -0.093449526
-0.021061467 -0.014641785 -0.07089574 -0.0026126814 0.005307212 -0.0453624 0.021190906 -0.022463148
-0.04457476 -0.004378436 0.006048704 0.077054426 -0.03036229 -0.017840134 -0.024951326 0.0008960399
-0.051058277 0.027778672 0.0005115244 0.023086043 0.00021224895 0.036691338 0.024428548 0.010979592
0.059316788 -0.0021970777 -0.028211629 0.084554374 0.004411202 0.028180059 0.05679294 0.00051704433
-0.046292078 -0.100880824 0.013677052 0.030048776 -0.004626668 0.071502484 0.034905992 0.07145877
-0.04863658 -0.047062803 0.04515396 0.01790164 -0.04738452 0.02891807 0.047485903 -0.0028710498
-0.00015143682 -0.030226773 -0.056076016 0.06271583 0.017348941 -0.01786135 -0.05000403 0.014512974
-0.025762618 0.03184792 0.010413963 -0.028167529 0.051636424 -0.04690504 0.04045809 0.0004745934
-0.018771654 0.019028692 0.043925278 -0.04081491 0.05755237 -0.015962306 0.018234715 -0.04756329
0.041801788 -0.011155417 0.0057306373 -0.02061328 0.052166447 -0.025929805 0.004665166 -0.07174211
0.019755691 -0.06324394 -0.045127314 0.019783517 -0.05638099 0.00437505 0.029198974 -0.015344006
-0.0062917597 -0.07137582 0.021327168 -0.01258129 -0.013580523 -0.053197887 -0.025242887 -0.04325449

fc1.bias f4 [400]
00000000: 9d3d b63d c3ad f13b 7f9c e1bd 3ca6 afbd
00000010: bf1b 1d3e 1d42 083e e15a a93d 23b9 233e
00000020: c413 02be 1e52 77bd 6831 d0bc 060d b9bc
00000030: 765f 573e 664f 70be 7848 8d3d cc84 4b3e
00000040: de90 d9bd da4c 423e 83ce 2cbe 0df1 8c3c
00000050: f4eb 9ebd 4bbc c63d 1e7b d63d 53d4 3e3d
00000060: 51b2 19bd 0e03 9ebd c916 50be cc53 813d
00000070: 613d 373e 584b 1cbe ebb5 d2bc 3944 ba3d
00000080: f113 f43d 8526 a03d e3db 083e 3777 ab3c
00000090: 9fed 77bd 52ea 11be d35a 65be a101 49be
000000a0: 0573 053e ff47 4d3e 6abb 4a3e 00fd 2d3e
000000b0: c754 003d bc58 073e 0411 363d 507a 04be
000000c0: be68 02bb 8fde 40be 1572 1d3e f26a 193d
000000d0: 7bcd 343e 7a0c 39bc 5b0f 273e 6bbd c23d
000000e0: 711e 57bd 8a7d d93c a65b 153e bd40 42bb
000000f0: deb2 403e 3a56 423d c4c0 97bd 4c96 c7bd
00000100: 747b f1bd c46a 073e da5a 263e 5cac c2bd
00000110: 7608 3abe f818 0a3e 0793 4ebb 6214 0cbe
00000120: d599 613d b9c6 17bd 16b0 0d3e 93b6 183d
00000130: 9fed e3bd ce45 54bd b37b 0bbe 6b35 f43d
00000140: c249 a63d 3ca2 123e fb1a 1fbe aaae dabd
00000150: 55be f1bd 9cc5 18be 8da4 3abe 4c58 38be
00000160: 81cc 023e 5077 97bd ab72 0bbd 617b 423d
00000170: a578 983d fc9d 683d f66e 01be 433f 3d3e
00000180: 758c 83bc 0aac 03be 0e3d 2a3e 9943 01be
00000190: b51a bdbd 19a7 c63d 44f7 933d 9519 c3bd
000001a0: c284 a33b 33ed febc 51a8 9b3d 7905 043d
000001b0: c277 813d 4b93 263e f4eb 01be ab70 20be
000001c0: 0467 29bd 54d6 83bd 0646 e0bd 7566 4c3e
000001d0: 5402 293e 1ddc 1e3e 7a31 d8bd a566 27bd
000001e0: 85f6 12be fd72 94bd 967f 203e 1981 0b3d
000001f0: f708 4f3d e59d 60be b53e ad3d 92eb 073e
00000200: df78 f2bc ddd2 283e 9ac2 aa3d d360 84bd
00000210: 7c00 27be 7f25 7dba 1bb4 3bbe 8814 a5bd
00000220: 12cb 8a3d cda7 a4bd bbed 53bc d819 9ebd
00000230: dd1c 223e f314 203e 742d 303e 3646 61be
00000240: ea0e 49bd e63c 9f3d 7e1c e23d e894 e73b
00000250: 40d2 e73d 9474 89bb 31a7 ce3c f60a 163e
00000260: 6076 283e 1aee 9bbd 250e debd 89ca 553d
00000270: 6977 2e3e 63b2 aabb 2ef7 3b3e fc1c b7bc
00000280: 4ea4 0bbe ad9b 16bc effc 1ebe dd35 403d
00000290: 746b 49be b253 393e d62a e6bd 48e0 2b3e
000002a0: 9337 0dbe 0889 4fbd 8265 cdbd cf3c d03d
000002b0: f76b e33d a3db 30be aaa8 2ebe 1015 473d
000002c0: 937e 5fbc 272a 173c 0af0 b03d 87ee 16bd
000002d0: cacf 173e 74a3 a93b 5dcd 9fbd 15b1 703d
000002e0: 2668 1dbe 7c75 cbbd 988e e63c 4435 b6bd
000002f0: bf28 46be a420 e83d e24e 9a3d f3a8 4c3d
00000300: c37e dd3d a204 20be f0d6 cfbd 5dc2 84bd
00000310: 315e 3d3e 835c e2bd ee90 03be cdc8 bebd
00000320: 5100 3dbc cbbb 733d cf60 0f3e 0544 393e
00000330: 675d af3b 688b 2a3e 0ed5 cd3d 7977 fc3d
00000340: 6969 3abe 2c92 6d3c 6606 b73c 3bc9 4cbe
00000350: 77cb ddbd ffe3 1d3e c774 953d 9986 7d3e
00000360: a454 ec3d 4994 a4bb c2a3 313e ea1e 333d
00000370: 2119 1d3b 03ef d7bd fc93 213e 1436 bf3d
00000380: 0b3d 1a3e c1ce 26bd 50b6 0dbe 20f2 7c3d
00000390: a1b3 933d 7ffd 05be aa59 873d 6f37 43bd
000003a0: 79ae 433e 5d13 b53c be2b d3bd 15c7 183e
000003b0: 07b1 933c 8b8b 52bd 6bca 033e 7ce6 343e
000003c0: 9bf8 a23d 6c17 c1ba dcf4 283e caa5 99bd
000003d0: dfc3 3d3e be56 e9bd 7633 2b3c 3e5e 393e
000003e0: 08b0 a43d 72b0 89bd 90ab 063e 970e dd3d
000003f0: df3b 1cbe b41d 41bb e1b3 03be 9689 eabc
0.088984706 0.0073754503 -0.110161774 -0.085766286 0.15342616 0.1330647 0.08269287 0.15988593
-0.12702852 -0.060381047 -0.025414184 -0.022589218 0.21032509 -0.23467788 0.06898588 0.19874877
-0.10623334 0.18974629 -0.16875653 0.017204786 -0.07759848 0.09703883 0.104727015 0.046589207
-0.03752357 -0.077154264 -0.20321192 0.06314811 0.17894508 -0.15263116 -0.02572151 0.09095044
0.11917866 0.07819847 0.1336513 0.02093087 -0.060529348 -0.14249542 -0.22397928 -0.19629528
0.13032158 0.20046996 0.19798055 0.16991043 0.03133085 0.13217443 0.04444982 -0.12937284
-0.0019898857 -0.188349 0.1537555 0.037455507 0.1765651 -0.011294479 0.16314451 0.09508785
-0.052519266 0.02654912 0.14585742 -0.0029640638 0.18818232 0.047445513 -0.07409814 -0.09745464
-0.11791125 0.13224322 0.16245595 -0.09505531 -0.1816729 0.13486087 -0.003152074 -0.1367965
0.055078346 -0.03705475 0.13836703 0.03728349 -0.11129307 -0.051824383 -0.13621406 0.11924251
0.08119537 0.143197 -0.15537636 -0.10677846 -0.11803881 -0.14919132 -0.18226834 -0.18002433
0.12773325 -0.07395804 -0.034044903 0.047480945 0.07444886 0.05679129 -0.12639984 0.18481164
-0.016058186 -0.12858596 0.16624853 -0.12623443 -0.092336096 0.0969984 0.072248966 -0.09526364
0.004990191 -0.031118965 0.07600463 0.03223178 0.0632167 0.16267125 -0.12687665 -0.1566798
-0.04135801 -0.06437364 -0.10950856 0.1996096 0.16504794 0.15513654 -0.10556312 -0.040869374
-0.14351852 -0.07248495 0.1567367 0.034058664 0.05054566 -0.21935232 0.08459226 0.13273457
-0.029598651 0.16486688 0.083378986 -0.0646378 -0.16308779 -0.00096567714 -0.18330424 -0.08060557
0.06777014 -0.08039818 -0.012935097 -0.07719773 0.15831323 0.15632991 0.17204839 -0.2199944
-0.04908649 0.07775287 0.11040591 0.0070673116 0.11319399 -0.0041948054 0.025226207 0.14652619
0.16451406 -0.07613774 -0.108425416 0.052195106 0.17037739 -0.0052092536 0.1835601 -0.022352688
-0.13636896 -0.009192389 -0.15526174 0.046926368 -0.19669896 0.18098333 -0.11238639 0.16784775
-0.13790731 -0.050667793 -0.10029127 0.10167848 0.11104577 -0.17271285 -0.17056528 0.04860407
-0.0136410175 0.0092263585 0.08639534 -0.03684857 0.14825359 0.005176956 -0.07802842 0.05876263
-0.1537176 -0.09934518 0.028144166 -0.08896878 -0.19351481 0.11334351 0.07534577 0.04996581
0.108151935 -0.15626767 -0.10148418 -0.06482384 0.18492962 -0.110528015 -0.12848255 -0.093156435
-0.01153572 0.059505265 0.14001773 0.18092354 0.0053517106 0.16654742 0.100504026 0.12327475
-0.18204273 0.014500182 0.022341918 -0.19998638 -0.108298235 0.15419005 0.07297664 0.24758376
0.115395814 -0.00502256 0.17347625 0.043730654 0.0023971277 -0.10543635 0.15779108 0.093364865
0.15062349 -0.04072452 -0.13839078 0.061754346 0.07211996 -0.13084982 0.06608899 -0.047660287
0.19109525 0.02210396 -0.103110775 0.14919694 0.01802875 -0.05140261 0.12870185 0.17666048
0.07957574 -0.0014731712 0.16499656 -0.07502325 0.1853175 -0.11393498 0.010449281 0.18102357
0.08041388 -0.067231074 0.13151383 0.107937984 -0.15257214 -0.0029467167 -0.12861587 -0.02863006

fc2.weight f4 [300, 400]
00000000: 3924 45bc 1d32 d03c 1bdb 02bb 233d 243c
00000010: 0572 23bd 4de1 30bc 81a0 53bd edf7 263b
00000020: 7cfa debc 430c 473d d47d 913c 7e83 e5bb
00000030: dac4 133c f343 85bd f47b 3abd 7164 8d3c
00000040: d523 3d3a 5f74 903c 8421 7cbd d7e2 e4bb
00000050: cb4a 0fbc 51f0 383d de30 0ebd b964 d2bb
00000060: 5617 dabc ab30 d6bc 47c3 d13c 442e 9b3c
00000070: dea5 9abb 69d0 dbbc ff7c 493d 5a75 f8bc
00000080: 52ed d2bc f9e0 0a3d 5848 183a 3e82 cb3b
00000090: b712 eb3c 3093 45bb 2a10 ae3c 6070 063d
000000a0: 8150 093c 1a64 22bc 82e4 5fba f944 cabc
000000b0: f01e 1ebd fc7d 313d ad46 0f3d b33e fe3b
000000c0: 44dc 3c3b c50e 033d 743b 06bd b981 133d
000000d0: 5355 54bb a511 df3a 5166 233d d2ff 4cbd
000000e0: 12f6 273c 7a86 9fbc 95b6 10bd ea53 8d3c
000000f0: d4ed 11bc c12c 9c3c 05f3 573d 054f 4c3d
00000100: 30b3 13bd 137a 5abc 5879 09bd a634 c8bc
00000110: 2197 073d ae06 813c fa6c bd3d b52a 03bc
00000120: 60dc 5e3d e961 5b3d 3b90 4cbd f055 c8bb
00000130: 5e74 efbc 746d 263d ba89 553d 61d6 623d
00000140: a3e1 a7bb 7dbf e03c c942 70bd b75d 083d
00000150: 1211 403c c567 13bd 1931 863c 8c99 5a3d
00000160: a17e 0fbc 2b11 95bd 786c 073d e9cc 00bd
00000170: b768 1d3a b2ad 3ebd 9ffe 03bd d5b2 0dbd
00000180: 470a aabb 9017 b1bc a846 0ebd 31c6 76bc
00000190: 96bf 293d 28a3 593d f16c 9d3c 21ae 4cbd
000001a0: f7b8 c4bc cdf1 6ebc 54d0 26bd 89dd f4bc
000001b0: 3627 5ebd f7d6 33bc 3527 4bbd b6fa 1abb
000001c0: 9377 61bd 6dec 9cbc 04bc b23c f39a 7cbc
000001d0: 1a43 03bd 7d5b 0dbd fd63 3fbd a7ab 293d
000001e0: 70b7 633d bac6 24bd 31ec da3c bbcf ac3d
000001f0: 8b91 cbbc d372 fe3b bb58 433d 6139 2e3c
00000200: d50c 43bd 0883 aabb 3095 63bd ff96 853d
00000210: 8104 e7bc f888 60b9 6b83 473d dcaa 00bd
00000220: 21ea 683c 4a89 ee3c 3d68 383d e49e c23c
00000230: a5a7 b2bc 910c 8fbc 71f4 f23c 52ef 94bc
00000240: 4cd4 053c d362 3c3d 43d1 843c 3965 d13c
00000250: a6ef 8b3c 5d09 2b3d 6137 99bb a80b 3b3d
00000260: bc09 ff3c 69b4 373d 2179 e63c 0467 893b
00000270: deee 333c ad68 c3b9 49da c53c 11d7 a1bc
00000280: 3184 ba3b d400 f93b f648 fa3c 2d45 49bc
00000290: d4c2 52bd 0095 2e3d ef82 023d 157a 3abc
000002a0: 8818 973c 8ae9 38bd 6968 e6bb b9db 99bc
000002b0: c8e7 c9bc 5ba3 923c d819 17bd 1db8 303c
000002c0: 2e70 4c3d b2de 52bd 4388 2e3d fba2 7d3c
000002d0: 3e63 d83c 385c 2d3c 7e8a 58bd de03 efbc
000002e0: 3121 993d 5826 213c ac9a 103c 796d 243d
000002f0: ae18 03bd cc32 c43c daad 183d 30f0 253d
00000300: 06fe cfbc eeb2 2a3d 2cc5 40bb 026d e2bb
00000310: bd16 403c d04b 953c 4607 0dbc 5ed1 f7bc
00000320: a691 16bd 0012 573d 47e9 98bc 7eb1 2cbd
00000330: d292 ba3b 7530 01bd 8a3c fc3c d02d a0bc
00000340: c142 033d 7dc4 43bc c06b a0bd 7768 8e3c
00000350: b2f2 893b a760 9ebc de82 243b 6612 d4bc
00000360: 5822 27bd 5de4 7a3d d987 143d beaa debb
00000370: 865e f4bb 6743 493d 8a0a eabc 8614 c83c
00000380: 5c6a 52bd 99e5 14bd 37a0 e0bc 9bf2 c8bc
00000390: 270d 03bd e8d4 713c 3d3e 08bc ee9c a8bc
000003a0: 0dbe 673c 3d3d 2b3c b0b5 853d 6706 15bd
000003b0: 3f2f 1f3c d503 c43c b772 243c df8e 383d
000003c0: 2f80 fbbc db0c 00bd 656d 2d3d e919 103d
000003d0: 3586 46bd 952d 6fbb 9d25 e73b d2a5 083c
000003e0: 01ea 313d 7e01 253d 8d4a 89bb 79fa 583c
000003f0: 22a4 1b3d cd89 173d 5f9c 9ebd 0137 eb3c
-0.012032562 0.02541452 -0.0019967023 0.010024342 -0.03990366 -0.010795903 -0.05166674 0.0025477365
-0.02721905 0.048595678 0.017760195 -0.0070042005 0.009019101 -0.06507101 -0.045528367 0.017259808
0.0007215117 0.017633615 -0.0615554 -0.006985049 -0.008745859 0.04515106 -0.034714572 -0.0064206985
-0.026622456 -0.026146254 0.02560581 0.01894296 -0.00471948 -0.026832776 0.04919147 -0.030329395
-0.025747929 0.033905957 0.000580912 0.0062105944 0.028695447 -0.0030147545 0.021247942 0.032822013
0.00838101 -0.009911561 -0.0008540825 -0.024691092 -0.038603723 0.04333304 0.03497951 0.007758939
0.0028817812 0.031996507 -0.032771543 0.036012385 -0.003239949 0.0017018808 0.0398925 -0.050048657
0.010251539 -0.019473303 -0.035330374 0.017251927 -0.0089068 0.01906431 0.052721996 0.049880046
-0.03605956 -0.013334769 -0.033562988 -0.024439167 0.033103112 0.015750255 0.09249301 -0.008005788
0.054409385 0.05356017 -0.049942236 -0.00611376 -0.029230293 0.040631726 0.0521333 0.05538023
-0.0051233335 0.027435059 -0.05865744 0.0332925 0.01172282 -0.035987634 0.016380833 0.05336909
-0.008758218 -0.07278665 0.03306243 -0.031445418 0.00060046784 -0.046552368 -0.032225247 -0.034594376
-0.0051892134 -0.02161768 -0.03473535 -0.015061901 0.041442476 0.053134114 0.019216986 -0.04997075
-0.02401398 -0.014584017 -0.04072602 -0.029890792 -0.054236613 -0.010976545 -0.049597938 -0.002364797
-0.055045675 -0.019155705 0.021818168 -0.015417802 -0.032046415 -0.03451108 -0.046726216 0.041423466
0.05559486 -0.040228583 0.026723953 0.08438059 -0.024849674 0.007765153 0.04769204 0.010633797
-0.04761966 -0.0052036084 -0.0555622 0.06522941 -0.02820039 -0.0002141333 0.048709314 -0.031412944
0.014215977 0.029118199 0.045021284 0.023757406 -0.021808455 -0.017462047 0.029657574 -0.018180523
0.008168291 0.045992684 0.016213065 0.025560962 0.017082047 0.041756976 -0.004675791 0.045665413
0.031132571 0.044849787 0.02813393 0.0041931886 0.010982243 -0.00037271288 0.024151938 -0.019755872
0.005692028 0.0075989757 0.030552369 -0.012284559 -0.051455334 0.042622566 0.03186315 -0.011381646
0.018444315 -0.045144595 -0.0070314896 -0.01878153 -0.024646655 0.01790016 -0.03688988 0.0107860835
0.04991167 -0.05148191 0.042610418 0.015480752 0.02641451 0.010581069 -0.05286645 -0.029176649
0.07477034 0.009835802 0.008825939 0.040143464 -0.03200596 0.023950003 0.037275173 0.040512264
-0.025389683 0.041674547 -0.0029414399 -0.0069099674 0.011724171 0.018224627 -0.008607691 -0.030251201
-0.036759995 0.0525074 -0.018665923 -0.042161457 0.005693772 -0.031540353 0.030790586 -0.019553095
0.032046083 -0.011948702 -0.07833052 0.017383797 0.0042098397 -0.019333197 0.0025102417 -0.02588768
-0.040804237 0.06125294 0.036262367 -0.0067952564 -0.007457557 0.049136546 -0.028569479 0.024423849
-0.051370963 -0.036351774 -0.027420146 -0.024529746 -0.031994965 0.014760233 -0.00831562 -0.020582642
0.014144433 0.010451612 0.06528795 -0.03638306 0.009715854 0.023927609 0.010037116 0.045058127
-0.030700771 -0.03126226 0.042340655 0.03518096 -0.048467834 -0.0036495675 0.0070540444 0.008340316
0.043436054 0.040284626 -0.0041897953 0.013243311 0.037998326 0.03699665 -0.07744669 0.028712751

fc2.bias f4 [300]
00000000: 0789 1ebb c266 bbbc 0b4a e23c 27dd 113d
00000010: 99e3 7e3d 40c0 423c c66e 1dbc 2dbb 9fbc
00000020: d5ba 4bbd bc47 a13d 3d1d dfbc cc06 543c
00000030: a792 b4bc f4da 06bd 128e babc 536a 423d
00000040: 7f04 333a ee40 c7bc 79b1 673d c15e 11bd
00000050: 0a6a 4dbd d1ac acbc 23b8 fcbc 6a59 9d3c
00000060: 140b 103c b867 1ebc 8c39 35bb 9635 2fbd
00000070: e43f 3b3d 7ad7 16bc 57a0 4ebd 0155 513d
00000080: 3c47 a53d b6c1 d8bc 77b6 683c dfae 6a3d
00000090: bf04 dc3c 3874 1abd 877f ed39 7a6e 99bc
000000a0: dcec 65bd abcc 17bd f5a2 5dbb 5ca7 403c
000000b0: da26 3e3d d861 8e3c 7fae 6cbd dc3e b0bc
000000c0: 36e9 1bbd 1e0c 0e3d 4a0c 353d 771d 18bd
000000d0: 6f5b d8bc 1bd6 f5bc 307e babc 1030 343d
000000e0: 29b5 a2bc e5df 893d 0b5e b7ba d5df a7bc
000000f0: 0d16 a33d 9e8b 143d dbe3 00bc cad5 4fbc
00000100: ca60 333d cc8e 2b3d 3d2d b9bc c545 0a3b
00000110: 7843 b4bb 957e b93c 96d4 46bd ed55 8a3b
00000120: 7f3b 65bd ea41 753d 7004 d8bc f2dd ab39
00000130: 404b c9ba 8406 37bd 8d1f 523d 813a e2bc
00000140: 344f 48bd 899c 5bbd 4d31 18bd d7f5 b73c
00000150: d78c b23b 8ace 4cbc 47de 41bd b45c 503d
00000160: 170e aa3b 328b 213d c9c1 cf3c 07e1 5abd
00000170: ca44 5dbd f15b a0bc 9368 913d f74b 923c
00000180: 3a4d e13c a9fd 003d 5e0c ce39 5d67 f6bb
00000190: 1432 a5bc a7b7 ad3d f88b 24ba 4737 56bd
000001a0: 947f 903d 0f08 89bc f7c7 4abd 3d27 03bd
000001b0: 0af4 823d 3ae2 31bc 7e7a f23c 5e87 0837
000001c0: 1c12 0f3d d762 59bd 86d8 793c 1a8c 0fbc
000001d0: cd3b 4338 1e9c d13c ef39 913c 3a12 20bd
000001e0: a417 9ebc 6781 f03c 22ea cd3c 5f5b f53c
000001f0: 54fe d03c 28db 483d e3e4 d63d cc66 31bd
00000200: 2316 08bc 51de 1bbd 4d61 9b3d 0f4d 34bd
00000210: cf9c 2e3d 4940 cd3c c5da 4bbc b2fe 41bd
00000220: 50b6 54bd 0366 e73b d5aa adbc 58ed 2fbd
00000230: fb57 23bc 1405 4a3d 8c99 203d 8665 51bd
00000240: fb94 793b 1a9d 59bd c69e 623d 237c aabb
00000250: 0a1b 953d 896c e53a 3261 573d 991b a5bc
00000260: bf7c 993c d599 b6ba 77ac 8f3c 612f d6bb
00000270: 7ee1 a5bc 0970 193b c9c7 043b d6e6 623c
00000280: 938c 17bc 0d41 36bd adcb cdbc 1ccd 5c3c
00000290: 1da0 573d 2998 7e3d 3d7b 063d ee47 1e3d
000002a0: 01bd 2a3d 2bd1 fb3c 90cf c6bc fceb 863c
000002b0: e7a1 3c3d f6ff 4b3c fa09 c23c f12d 063b
000002c0: f67d debc 3d9a 93bc 5ed8 71bc cd96 8a3b
000002d0: 49a8 ab3c 5f1a 053d a927 3a3c f070 293b
000002e0: 8bcc ecbc b565 543d 30e2 de3c 1481 a5bb
000002f0: 05b5 1e3d eac1 18bb 8368 763d faca 45bd
00000300: 2395 fc3c 5c76 3fbd 8fac 45bd 065e ec3b
00000310: 4da4 5e3d 061f 8dbb 8b5c e33c 24d8 243d
00000320: 4230 b4bb 9ac1 713d 5285 963d 9c5a 743d
00000330: eddf e9bc ff41 8f3c 4965 a53d d45c 11bd
00000340: acdf cdbb ae3f 863d 5b22 aebc ce82 533d
00000350: 99b9 843c 28ae 733d 92d1 c23b 9b76 b9bc
00000360: 4321 153d 95de bc3b 9fc8 a9bc 4a7f 17bd
00000370: 8c58 8cbc ab82 97bb f34c 313d be1e 533d
00000380: 3d89 c13c 1689 833c 051c 1d3c c6f1 e43a
00000390: 9132 1ebd fc6e 913b c6ce 0c3d 511b b3bc
000003a0: 800d 003d 941d 2c3c d55e e2bc 5d4c 583d
000003b0: 6ac5 663c 9529 8a3b 55b9 c5bc c415 cbbb
000003c0: 9183 0fbd 0499 2abd ae63 17bd 5de8 dc3a
000003d0: 2afb 23bd 016a c1bc 8294 79bc 883a 6a3d
000003e0: bf93 023d fe19 e43a cee7 fb3c 8d02 a13d
000003f0: acce 8a3c a78c d9bb ff27 e23c 026a f23c
-0.0024190561 -0.022876147 0.027623197 0.035611298 0.062228773 0.011886656 -0.00960893 -0.019498432
-0.049738724 0.0787501 -0.027235622 0.012941074 -0.022042586 -0.032923654 -0.022772823 0.04746468
0.0006828978 -0.024322953 0.056565735 -0.035490755 -0.050149955 -0.021078499 -0.030849522 0.019207675
0.008791704 -0.009668283 -0.0027652709 -0.042775713 0.045715228 -0.009206647 -0.05044588 0.051106457
0.080702275 -0.026459556 0.014203659 0.057295676 0.026857732 -0.03770849 0.00045299178 -0.018729437
-0.05613409 -0.03706042 -0.0033819054 0.011758652 0.04642377 0.01738064 -0.0577836 -0.021514349
-0.038064204 0.034679525 0.044201173 -0.037137475 -0.026410786 -0.03000932 -0.022765249 0.04399115
-0.019861775 0.067321576 -0.0013989819 -0.020492474 0.0796319 0.03626596 -0.007866825 -0.012685249
0.043793477 0.04188423 -0.02260458 0.0021098715 -0.005501207 0.022643367 -0.04854258 0.004221669
-0.055964943 0.059877314 -0.026369303 0.00032781024 -0.0015357509 -0.04468395 0.05129962 -0.027615787
-0.04890366 -0.05361608 -0.037156392 0.022456093 0.0054489183 -0.012500415 -0.04733112 0.05086966
0.005189668 0.039439388 0.025360959 -0.05343726 -0.05402068 -0.019575091 0.07100024 0.017858488
0.027502645 0.03149191 0.00039300596 -0.007519646 -0.02016548 0.084822945 -0.00062769605 -0.05229881
0.070555836 -0.016727475 -0.049507108 -0.032019842 0.06394203 -0.010857159 0.029599424 8.137749e-06
0.03492938 -0.053072777 0.015249377 -0.00876143 4.6547317e-05 0.025587138 0.01772782 -0.039079882
-0.019298382 0.029358579 0.025136057 0.029950796 0.025511898 0.04903713 0.104928754 -0.043310925
-0.008306059 -0.038053814 0.07586918 -0.0440188 0.042630013 0.025055068 -0.012442295 -0.047362037
-0.05193168 0.0070617213 -0.021199623 -0.042950958 -0.009969707 0.04932125 0.039208934 -0.05112221
0.0038083184 -0.05312834 0.0553272 -0.0052027865 0.07280548 0.001750366 0.052582927 -0.020154761
0.018736241 -0.0013931344 0.017538292 -0.0065364097 -0.020249125 0.0023412725 0.0020260683 0.013848981
-0.009249824 -0.04449563 -0.025121534 0.013476636 0.05264293 0.06215683 0.032832373 0.038642816
0.041684154 0.030739387 -0.024268895 0.016469948 0.04605284 0.012451163 0.023686398 0.002047416
-0.027159672 -0.018017882 -0.014761059 0.0042294026 0.020954268 0.032495853 0.011361995 0.002585467
-0.028906127 0.051854808 0.027207464 -0.0050507877 0.038746852 -0.002330894 0.060158264 -0.048289277
0.030832833 -0.046743736 -0.048260268 0.007213357 0.05435591 -0.004306677 0.027754089 0.04024519
-0.005498917 0.059022523 0.073496476 0.059656724 -0.028549159 0.017487524 0.08075959 -0.03548892
-0.0062827673 0.06555115 -0.021256616 0.051638417 0.016201781 0.05949226 0.005945393 -0.022639563
0.036408674 0.0057638385 -0.020725546 -0.036986627 -0.017132066 -0.004623731 0.043286275 0.05154299
0.02362501 0.016056579 0.0095892 0.0017467074 -0.038622443 0.004438279 0.034376882 -0.021863611
0.031262875 0.010505099 -0.02763311 0.0528072 0.014085153 0.0042163827 -0.024136225 -0.006197663
-0.03503758 -0.041649833 -0.036960296 0.0016853918 -0.04003445 -0.023610117 -0.015233161 0.057184726
0.031879183 0.0017402766 0.030750182 0.07861815 0.016944252 -0.0066390815 0.027606962 0.029591564

fc3.weight f4 [2, 300]
00000000: ff6c 723b b66d c0bc 79d5 793d f343 b53c
00000010: 9387 d53c ba57 ff3a a32b a8bc a232 11bd
00000020: c969 fa3b ade2 7a3d 4b88 96bb 5bfb e53c
00000030: 812a a83a 5c3f 00bd a0a4 633b 9903 e93c
00000040: 7e29 9cbc 7b7a b7bb 11fa e63c 6ae4 1a3c
00000050: 81e3 56bc 4320 f7bc fb3a 8f3c 8cb8 bdbb
00000060: e165 c1ba e024 843b 16cf 8dbc c1aa 6b3b
00000070: 81d0 8dbc 75bd 4dbc f573 d7bb 415c 1cbc
00000080: 3257 debb cc8f a6bc b814 d13c 340d 033d
00000090: fef2 cabc 3211 1fbd b176 593c 3882 093d
000000a0: e0a7 84bc a858 bd3b 7207 22bc fdae 19bc
000000b0: 9500 003d 4379 e63c eb6c 243b 15f4 293c
000000c0: aa6b f23b 8f69 8ebc 8b52 043d c5d2 c13b
000000d0: 54cd 293b 4e3a 653c 9e9d 883c fe49 fd3c
000000e0: 0e46 21bd d23f 4fbd 419c 073c 3847 003b
000000f0: 8dd1 8b3c 0bb6 08bd 224a edba e0a7 15bd
00000100: 24b2 6b3d bc8c 9a3b d74a 9c3a d4ed f7bc
00000110: 9bd6 b23c e912 013d 1a6e 01bc 20e5 d53c
00000120: e38d 48bc 8f6b 303c 438f 853c 7d30 b03c
00000130: fc66 123d 9202 0f3c b351 8ebc 8f3b cfbc
00000140: b9be 103c 0788 0e3c 0834 a2bc 0ce7 cebc
00000150: 0377 ef38 c200 70bb dd14 52bb 6597 423d
00000160: b071 fcbb 8991 873b 8911 9abc 049d 923c
00000170: b4c1 a33c de77 9ebb 248d 063d 5157 8c3c
00000180: 93ab cfba dd41 16bc 2ee0 983c ffa0 5339
00000190: f862 12b9 dcf7 563c 68fc 113d a72a 2a3c
000001a0: 1d31 173d 679a 0ebd a1be 5fbc 3fe4 c63c
000001b0: e182 d73c 856d 653c 2d41 e03c 8965 a0bc
000001c0: eedb 9f3c d769 b8bb 221f c43c 8983 c3bc
000001d0: e844 dcba c55e ac3c 80bc 9cbb ef5c 8dbc
000001e0: 7014 e23c dabe 2d3b ee4a 023d d74c 943c
000001f0: fa3a 2fba 2b38 a73c 11c3 193d 7ec9 34bc
00000200: 6dcc 77bc 8e10 87bc 2125 033d e859 74bb
00000210: b35a e5b9 324d 923c 8061 ecbc 4d47 003a
00000220: bbc2 b0ba 577b aa3c 4ac3 03bb 238b 743b
00000230: 031f 95bc a7be f83c 830d 403b 42d6 33bb
00000240: b636 99bc 273b 383c 0bfb dd3c 6170 4f3c
00000250: 7164 3e3d 3996 243c 005f 063d 4e65 9a3c
00000260: 8696 ecbc 3d71 bebc 60c9 823b 5ba6 cabc
00000270: a952 663c c141 d73c d630 73bc 2e97 bfbc
00000280: 3b6e 063c 8900 60ba b6f5 ddbc 7630 033d
00000290: 3662 493d 7896 42bc 1f54 243d 42c1 863c
000002a0: f07e 84bc f187 15bd cbdc c5bb 61cc a83c
000002b0: c97f 4b3c e37a e23c 744a 3b3c 9664 51bc
000002c0: 0734 30bb 7d00 bdbb 765d e1bb c1c4 4bbb
000002d0: 6480 ac3b 322c 0a3d 471f 123c c963 803c
000002e0: 9d48 013c 1b24 62bc 5cf2 82bc dc65 f83c
000002f0: d0ef 123c 92f7 8b3a dd4b 5c3d bf25 333b
00000300: 34de b23b bcdf b5bb 1cbb c13a 60f6 063c
00000310: 0661 e23c f121 1e3d 7141 03bd 7ee1 e93c
00000320: 9510 493c de70 dd38 bfeb e6bc 2282 76bb
00000330: 1df3 8c3c cd45 1c3d d3b8 83bb 4834 7c3c
00000340: 97bc 08bd a54b 1c3d 48f3 d9b9 40f9 0dbd
00000350: 1536 a8bc cdba 66bb 3178 a2bc bd70 4bbc
00000360: f15e 173d eb95 d63c d9ab a0bc 1a3f 08bc
00000370: 88b2 ea3c b07b c13c cefa 0b3d 1d08 53bc
00000380: 77a5 bd3c 56e8 e43c 63dd 6338 2ff1 0f3c
00000390: ffbe d73c 7852 573b 6801 363c 9194 083d
000003a0: 226b 80bc 7975 1c3c b049 b23b 2203 1f3d
000003b0: bf32 88bc 00bc ce3c 3746 0c3d 8cad a13c
000003c0: 764f 153d a365 7aba bd25 f1bc 3a72 183d
000003d0: de04 003c 3ed2 003d 1ab1 63bc bf7f 123d
000003e0: b532 6b3d a9e1 e53c c262 6abc 4d68 153d
000003f0: ef1b 8f3c 5872 ab3c 8632 68bc d29d 4c3c
0.0036991236 -0.023489814 0.0609946 0.022127127 0.026065623 0.0019481101 -0.02052862 -0.035448678
0.007642005 0.06125133 -0.004593884 0.028073957 0.001283005 -0.031310424 0.0034735575 0.028444098
-0.019062754 -0.0055993176 0.028195413 0.009453872 -0.013115765 -0.03016675 0.017484179 -0.005789822
-0.0014755094 0.004032716 -0.01731066 0.0035959932 -0.017311336 -0.012557377 -0.0065751025 -0.009543479
-0.006785297 -0.02033224 0.025522575 0.031995013 -0.02477407 -0.038834758 0.013272927 0.033571452
-0.01619333 0.005778391 -0.00988947 -0.009380099 0.031250555 0.028133994 0.0025089334 0.010373135
0.0073980885 -0.017384319 0.03230528 0.0059150183 0.0025909739 0.013990952 0.01667672 0.030919071
-0.03937345 -0.050597973 0.008277 0.00195737 0.017067695 -0.033376735 -0.0018103758 -0.03653705
0.057542935 0.004716484 0.001192416 -0.030264772 0.021830847 0.031512175 -0.007899785 0.026110232
-0.01224086 0.0107678315 0.016303664 0.021507496 0.035742745 0.00872864 -0.017372942 -0.025296954
0.008834534 0.008699424 -0.019800201 -0.025256656 0.00011418576 -0.0036621545 -0.0032055893 0.047507662
-0.0077039823 0.004137222 -0.01880719 0.017897137 0.019989826 -0.0048360666 0.032849446 0.01713148
-0.001584398 -0.0091709765 0.018661585 0.00020182504 -0.00013960514 0.013120618 0.035641104 0.010386146
0.036912072 -0.03481522 -0.013656289 0.024278758 0.026307525 0.014003162 0.027374828 -0.019579666
0.01951405 -0.0056278515 0.023940627 -0.023866432 -0.0016805204 0.021041283 -0.004783213 -0.017256228
0.027597636 0.0026511461 0.03180974 0.018103046 -0.00066845084 0.020412525 0.037539545 -0.011034368
-0.0151244225 -0.016487386 0.03201783 -0.0037285034 -0.0004374586 0.017859075 -0.028855085 0.0004893437
-0.0013485769 0.020810766 -0.0020105415 0.0037314377 -0.018203264 0.030364348 0.0029304929 -0.002744094
-0.018702846 0.011244572 0.027097246 0.012661071 0.046482507 0.0100455815 0.032805443 0.018847134
-0.028880369 -0.023247356 0.003991291 -0.024737528 0.014057794 0.026276471 -0.014843186 -0.023387518
0.008204992 -0.00085450016 -0.027094703 0.032028638 0.049165927 -0.011876695 0.040119287 0.016449574
-0.01617381 -0.036506597 -0.0060382835 0.020605268 0.012420603 0.027646488 0.011431325 -0.012780329
-0.002688648 -0.0057678805 -0.0068775965 -0.0031092616 0.005264329 0.033733554 0.00891859 0.015672581
0.0078908475 -0.0138025535 -0.015984707 0.030322008 0.008968309 0.001067864 0.053783286 0.002733573
0.0054586176 -0.005550353 0.0014780494 0.008237451 0.027634155 0.038606588 -0.03204483 0.028549906
0.01227202 0.00010559124 -0.028188584 -0.0037614186 0.01720577 0.038152505 -0.0040198355 0.015393324
-0.03338298 0.038158078 -0.00041570724 -0.03466153 -0.0205336 -0.0035206557 -0.019832702 -0.012417016
0.036955778 0.026194533 -0.019613193 -0.008315826 0.028649583 0.02361855 0.034174733 -0.012880352
0.023150189 0.027942818 5.43272e-05 0.00878553 0.026336191 0.0032855552 0.011108734 0.03334481
-0.015676085 0.009549492 0.005440913 0.038821347 -0.01662576 0.02523613 0.03424665 0.019736074
0.036452733 -0.0009551888 -0.02943694 0.03721831 0.00781366 0.031450503 -0.013897205 0.03576636
0.057421405 0.028061705 -0.014305772 0.036476422 0.017469374 0.020928547 -0.014172202 0.012488799

fc3.bias f4 [2]
00000000: 217e 19bc 8451 6fbd
-0.00936845 -0.05842735
