weights/checkpoint_critic.pth (torch_old, 567862 bytes, 6 tensors)

fcs1.weight f4 [400, 48]
0	0x3cf31b93	0.029676234
1	0xbc2a3fe1	-0.0103912065
2	0xbbaefb3c	-0.005340008
3	0xbdd35d4d	-0.1032053
4	0xbced3347	-0.028955115
5	0x3b5aa0d7	0.0033360028
6	0xbc202f52	-0.009776907
7	0xbe0d86ec	-0.13821
8	0x3a57003b	0.00082016335
9	0x3ca34d81	0.019934418
10	0xbb7bcddb	-0.003842226
11	0x3cda86db	0.026675632
12	0xbcd7cac3	-0.026341802
13	0x3b16b466	0.002299571
14	0xbbeb7d93	-0.0071866005
15	0x3cf59bf7	0.029981596
16	0x3d2fcc82	0.042919643
17	0x3d1d74da	0.038441516
18	0x3be1f66b	0.0068958304
19	0xbd9c23e1	-0.07624031
20	0xbc9b9c42	-0.018995408
21	0x3cf35adb	0.02970641
22	0xbc97aa58	-0.018513843
23	0xbce024a6	-0.027361225
24	0x3d20b5ea	0.039235987
25	0xbd8403d0	-0.0644604
26	0xbd06a9ce	-0.032876782
27	0xbd0f2655	-0.034948666
28	0xbc80ca5b	-0.01572149
29	0xbd4d3e78	-0.050108403
30	0x3bad6217	0.0052912342
31	0x3c9ffee6	0.019530725
32	0x3d43b752	0.04778225
33	0xbd0b0b5c	-0.03394638
34	0xbd11fd35	-0.035641868
35	0x3d3654ed	0.044514585
36	0x3bcd9f8a	0.006275122
37	0x39111d16	0.00013839113
38	0x3bcc1707	0.006228331
39	0xbc14c6cb	-0.009080599
40	0x3d7f64b4	0.062351897
41	0xbd13792c	-0.03600423
42	0x3b16d91d	0.0023017593
43	0xbd9e2782	-0.07722379
44	0xbcd2d3c6	-0.025735747
45	0x3c9bc033	0.019012546
46	0xbc09622b	-0.0083852215
47	0xbd8e38dd	-0.069444396
48	0xbaff5e23	-0.0019483011
49	0xbd115c95	-0.035488684
50	0xbc829979	-0.015942322
51	0xbc79dae1	-0.015249939
52	0x3d2f3915	0.042779047
53	0xbcb10782	-0.021610025
54	0xbbee64e4	-0.0072752107
55	0xbd358fc4	-0.04432656
56	0x3d93b2d4	0.07211843
57	0x3cca6669	0.024707036
58	0x3ccb971d	0.02485233
59	0xbc2a8242	-0.010407032
60	0x3cc6eb15	0.024282018
61	0xbbb9d25a	-0.005670828
62	0xbbbd4a3c	-0.0057766717
63	0xbd0ff4b1	-0.035145465
64	0x3d255b57	0.04037031
65	0xbc4f0a05	-0.012636666
66	0xbd760efe	-0.06007289
67	0xbcc5498e	-0.024082925
68	0x3ca7e792	0.020496164
69	0xbd922af6	-0.071371004
70	0x3c05c3b3	0.008164334
71	0x3bef72e6	0.007307398
72	0x3c81be3f	0.015837787
73	0xbd66828f	-0.056276854
74	0xbbb86f14	-0.005628476
75	0x3b60738b	0.0034248556
76	0xbc951ca5	-0.018202135
77	0xbca1832e	-0.019715872
78	0x3c942824	0.018085547
79	0xbcf99ebe	-0.030471202
80	0x3d00e142	0.031464823
81	0xbd3195c4	-0.04335572
82	0xbc4e3032	-0.012584733
83	0x3adc9f28	0.00168321
84	0xbd850d71	-0.06496704
85	0x3a349361	0.0006888416
86	0xbbd3711e	-0.0064526936
87	0x3ceba3fe	0.028764721
88	0x3b7ae769	0.0038284904
89	0xbb723275	-0.0036956344
90	0xbd423502	-0.047413833
91	0x3d37df03	0.044890415
92	0xba9008e2	-0.0010988975
93	0xbb889c78	-0.004169043
94	0x3a81dd7c	0.0009907926
95	0x3c841593	0.016123569
96	0x3d44ebc6	0.048076414
97	0x3d5b697c	0.053567395
98	0xbc74611e	-0.014915733
99	0x3daeca9b	0.08534738
100	0x3d0f51bf	0.03499007
101	0x3d124c09	0.035717044
102	0xbbc3f44f	-0.0059800516
103	0x3dae431d	0.085088946
104	0xbcbb2c9b	-0.022848418
105	0x3d7967db	0.06089006
106	0x3c4f1128	0.012638368
107	0x3c67af5a	0.014140928
108	0x3d5a6993	0.05332334
109	0x3d2ad526	0.04170718
110	0x3c39ff50	0.011352375
111	0xb997b199	-0.00028933285
112	0x3d2544c4	0.040348783
113	0x3da05ab0	0.07829797
114	0x3b4f08df	0.003159098
115	0xbc806a47	-0.015675677
116	0x3c30a3ae	0.010781212
117	0x3d347d04	0.044064537
118	0xbcc3ec72	-0.023916457
119	0x3d55be59	0.052183483
120	0xbc8a7db6	-0.016905647
121	0x3c32a8d4	0.01090451
122	0xbd155d3b	-0.036465865
123	0xbd3c5aaa	-0.0459849
124	0x3cece403	0.028917318
125	0x3d0dbdd2	0.034604855
126	0xbc8c47aa	-0.017124016
127	0xbda79f4d	-0.08184681
128	0xbcb1c498	-0.021700189
129	0xbc9250c0	-0.01786077
130	0x3bd81f6b	0.006595542
131	0x3c9ca38c	0.019120954
132	0x3d02b7a8	0.03191343
133	0x3d2b7c7f	0.041866776
134	0x3cd10f06	0.025519859
135	0xbcd2e3be	-0.025743362
136	0x3beb9d5f	0.007190391
137	0xbcc8139e	-0.024423417
138	0xbd946343	-0.07245495
139	0x3d16cc3d	0.03681587
140	0xbd3a3029	-0.045456085
141	0x3a630ab4	0.00086609577
142	0xbd80c739	-0.06287999
143	0xbd6570eb	-0.05601589
144	0x3cb76097	0.022384925
145	0xbd2e6e84	-0.042585865
146	0xbb0440e7	-0.0020180286
147	0x3c8c361d	0.017115647
148	0x3cb3a6fc	0.02193021
149	0xbd4ce97b	-0.05002735
150	0x3961cf8c	0.0002153499
151	0x3c5d635e	0.0135124605
152	0x3cca2bef	0.024679152
153	0xbd6880aa	-0.05676333
154	0xbc33150f	-0.010930314
155	0x3d3c7efd	0.046019543
156	0x3cdb3e04	0.02676297
157	0x3d604e37	0.05476209
158	0x3d348906	0.04407599
159	0x3d853e05	0.0650597
160	0x3d4df0f7	0.05027863
161	0xbd240d21	-0.040051583
162	0xbd12d70a	-0.03584961
163	0x3d2c938b	0.042132895
164	0xbbcc9b65	-0.0062441104
165	0x3cec2291	0.028825076
166	0x3c9ff1e6	0.019524526
167	0x3d556f6d	0.052108217
168	0x3d909282	0.07059194
169	0xb94213f6	-0.00018508718
170	0x3c217fd7	0.00985714
171	0x3de53f22	0.11193682
172	0x3c29638d	0.010338676
173	0x3cb52533	0.022112465
174	0xbca7f2d9	-0.020501541
175	0x3d66b988	0.05632928
176	0x3d9c93a4	0.07645348
177	0x3d9a5b18	0.07536906
178	0x3d577eeb	0.052611273
179	0x3d188409	0.037235294
180	0x3c90c232	0.017670725
181	0xbcb1b7e3	-0.02169413
182	0x3c946e29	0.018118935
183	0x3dbb7605	0.0915337
184	0x3d0ea2f4	0.034823373
185	0x3dcb99d9	0.099414535
186	0xbc9ada82	-0.01890302
187	0xbc1574c7	-0.00912208
188	0x3d6501e9	0.055910025
189	0x3d580d29	0.052746926
190	0xbc9ec008	-0.019378677
191	0xbb68755d	-0.0035470345
192	0x3d02d584	0.031941906
193	0x3cccaf6a	0.024985988
194	0xbcc8bad8	-0.024503157
195	0x3e05a90d	0.13052769
196	0xbd83c4de	-0.06434034
197	0xbb737b88	-0.0037152488
198	0xbc30f682	-0.01080096
199	0x3dd1bcf2	0.102411166
200	0x3d9ebeee	0.07751261
201	0x3c304bc1	0.010760249
202	0x3cfd60d7	0.030929966
203	0x3d73e7db	0.059547286
204	0xbc756445	-0.014977519
205	0x3d1de6e2	0.038550265
206	0x3d3bd4ac	0.045857117
207	0x3c7ab954	0.015302975
208	0x3cf1ef35	0.029533008
209	0xbd003d67	-0.031308558
210	0x3d029f6d	0.03189032
211	0x3c3c596c	0.011495929
212	0x3c8baed9	0.017051147
213	0x3d65f17c	0.0561385
214	0xbd17419a	-0.036927797
215	0x3c4c069c	0.012452748
216	0x3d0b45c0	0.034002066
217	0xbbfbb30d	-0.0076812566
218	0x3c7c53ec	0.015400868
219	0x3d5530b8	0.052048415
220	0xbc208992	-0.009798424
221	0x3b52ec4e	0.0032184306
222	0x3cabd109	0.0209737
223	0x3c84153a	0.016123403
224	0x3c6980fe	0.014251946
225	0xbccb12e6	-0.024789285
226	0x3d13f503	0.036122333
227	0x3d5310c4	0.05152966
228	0xbd2feed3	-0.04295237
229	0xbd2f62ae	-0.042818718
230	0xbd025f38	-0.03182909
231	0xbca86acd	-0.02055874
232	0x3d93929a	0.072056964
233	0x3ca4146e	0.020029273
234	0x3ce7b882	0.028286222
235	0xbc22b562	-0.00993094
236	0xbd40ac78	-0.04703948
237	0x3d20f729	0.03929821
238	0xbd103aa9	-0.035212193
239	0xbc378a74	-0.011202443
240	0x3d6607c9	0.05615977
241	0xbb78f031	-0.0037984962
242	0x3cbd3d34	0.023100473
243	0xbce5d973	-0.02805779
244	0xbd18e9e4	-0.03733243
245	0xbcdbd038	-0.026832685
246	0xbcb84fcd	-0.02249899
247	0xbca29f51	-0.019851359
248	0x3d7d4238	0.06183073
249	0xbcacd464	-0.02109737
250	0xbcde6f9d	-0.02715283
251	0x3cae6c07	0.021291746
252	0x3c4dc5b6	0.012559345
253	0xbc6c53f2	-0.014424311
254	0x3c491f80	0.012275577
255	0xbb6765fa	-0.0035308586

fcs1.bias f4 [400]
0	0x3d9c9997	0.076464824
1	0xbe0298e8	-0.12753642
2	0x3d537d21	0.051633004
3	0xbc8a3140	-0.016869187
4	0x3d37110e	0.044694
5	0xbdad2893	-0.084550045
6	0xbe0fadfe	-0.14031217
7	0xbb0ed869	-0.002179647
8	0xbcfeaa03	-0.031086927
9	0x3d051177	0.03248736
10	0xbe0edd00	-0.13951492
11	0x3de1e5b6	0.11030142
12	0xbd5c4638	-0.053777903
13	0x3d04c7ca	0.032417096
14	0xbdd153dd	-0.10221074
15	0xbd83d2be	-0.0643668
16	0xbc99382f	-0.018703548
17	0xbe248876	-0.1606768
18	0x3c42f646	0.0118995365
19	0x3dce7307	0.100805335
20	0xbe00e57b	-0.1258754
21	0xbc1ea1c7	-0.009682125
22	0xbe1cedda	-0.15325108
23	0xbd2093cf	-0.03920346
24	0xbdb9bf23	-0.090696596
25	0xbe35fb3f	-0.17771624
26	0x3d426307	0.04745772
27	0x3d375f14	0.044768408
28	0xbbb0f783	-0.0054005994
29	0x3c7028ce	0.014658166
30	0xbd7b69a9	-0.061380062
31	0x3d970dc4	0.073756725
32	0xbde5e7b2	-0.11225833
33	0xbd2f34c8	-0.042774945
34	0xbd9041ab	-0.07043775
35	0xbd4997ca	-0.049217023
36	0x3d9a9294	0.07547489
37	0x3e0c24fc	0.13685983
38	0x3dcdc756	0.10047786
39	0xbd8847e4	-0.06654337
40	0xbe155f81	-0.14587213
41	0xbde4ca95	-0.11171452
42	0xbda14c15	-0.078758396
43	0xbc6e7566	-0.014554357
44	0x3d835c4b	0.06414088
45	0x3dbc180b	0.09184273
46	0x3dba040f	0.09082805
47	0xbdbe77a2	-0.09300162
48	0x3dbaa122	0.09112765
49	0xbe414ac4	-0.18876177
50	0xbd154c8f	-0.036449965
51	0xbb33f8f6	-0.0027461625
52	0xbd82e5ed	-0.06391511
53	0xbd4429f5	-0.047891576
54	0xbd079a42	-0.033106096
55	0x3d506021	0.050872926
56	0x3d71c4a8	0.059025437
57	0xba5f9845	-0.0008529465
58	0x3d8aba73	0.067738436
59	0x3db39048	0.08767754
60	0xbc5523e7	-0.013009048
61	0x3dbc91b8	0.09207481
62	0xbe5c59ab	-0.2151858
63	0xbdb1c726	-0.08680563
64	0xbe335eff	-0.17516707
65	0xbb624772	-0.0034527448
66	0xbd982429	-0.07428772
67	0x3d57c9f8	0.052682847
68	0xbdf342db	-0.11877986
69	0xbb31b689	-0.0027116856
70	0x3df5922b	0.1199077
71	0xbe268817	-0.16262852
72	0x3cdad839	0.026714431
73	0xbe1dbd7c	-0.15404314
74	0x3d1e9442	0.03871561
75	0xbd887a8e	-0.066640005
76	0xbdf256d6	-0.11832969
77	0x3cd52d9d	0.026022727
78	0x3d135f5a	0.035979606
79	0xba90d9d5	-0.0011051247
80	0x3d9051ec	0.07046875
81	0xbc82d7e8	-0.015972093
82	0xbd99b19e	-0.07504581
83	0x3e550095	0.20801003
84	0xbdd6b67a	-0.104840234
85	0x3da25295	0.079259075
86	0x3d8b1a7b	0.0679216
87	0xbe21bab8	-0.15793884
88	0xbd7ce02e	-0.061737232
89	0xbc1e5642	-0.00966412
90	0xbde7b663	-0.113140844
91	0x3c2dffc7	0.010620064
92	0xbda566ea	-0.0807627
93	0xbe00b212	-0.12567928
94	0x3d2fc85c	0.042915687
95	0x3d48db65	0.049037356
96	0x3db97fd0	0.090575814
97	0x3c1cddd4	0.009574372
98	0xbd8f182d	-0.06987033
99	0xbe0081df	-0.12549542
100	0xbad413c6	-0.0016180209
101	0x3daec6ce	0.08534013
102	0xbb92c342	-0.004478843
103	0xbddea2b7	-0.10870879
104	0x3dc16848	0.09443718
105	0xbc53599d	-0.012899783
106	0x3b5bbde5	0.0033529934
107	0x3de89321	0.113561876
108	0x3e00fc53	0.12596254
109	0x3dc01fc0	0.09381056
110	0xbe239b1f	-0.15977143
111	0x3c09a7e4	0.008401845
112	0x3db13554	0.0865275
113	0x3dcf41af	0.1011995
114	0xbe0b54bf	-0.13606547
115	0x3da2f70e	0.07957278
116	0xbdca7557	-0.09885662
117	0xbdb11558	-0.08646649
118	0xbe14e2de	-0.14539668
119	0xbdbfc621	-0.09363962
120	0xbd59bd58	-0.053159088
121	0xbd0f5857	-0.034996357
122	0xbdbe8deb	-0.093044125
123	0x3e03f556	0.12886557
124	0xbe136132	-0.14392546
125	0x3dcbceda	0.09951563
126	0xbe1c564b	-0.15267293
127	0x3da7c209	0.08191306
128	0xbde5204c	-0.11187801
129	0xbd7ed70e	-0.06221681
130	0x3bb434b1	0.0054994454
131	0xbcee22aa	-0.029069263
132	0xbe01934b	-0.12653844
133	0xbd68abc7	-0.056804445
134	0xbe378fa8	-0.17925894
135	0xbdfa0e52	-0.12209763
136	0x3d70a8fb	0.058754902
137	0xbd011d05	-0.031521816
138	0xbd9cdae1	-0.07658935
139	0x3da81f04	0.08209041
140	0xbcaabac3	-0.020841008
141	0x3da77e97	0.08178442
142	0x3d310a4d	0.043222714
143	0xbc63ebcf	-0.013911202
144	0xbd8bfcb6	-0.0683531
145	0xbdb7e774	-0.08979693
146	0x3dd02c9c	0.101647586
147	0x3ba23170	0.004949741
148	0x3d9ae2af	0.07562768
149	0x3d75178e	0.059836917
150	0xbd8f9eca	-0.070127085
151	0xbe2a825a	-0.16651288
152	0x3d294492	0.04132516
153	0xbd9ba700	-0.07600212
154	0xbc391416	-0.011296293
155	0xbcc4dbf3	-0.024030661
156	0x3de52bc3	0.111899875
157	0x3e3aa59c	0.18227237
158	0xbe0a2fe4	-0.13494831
159	0xbdc19bce	-0.094535455
160	0xbe0ce58b	-0.13759439
161	0x3c6d9421	0.014500649
162	0xbe03f2a6	-0.12885532
163	0xbe387b8c	-0.1801588
164	0xbe12f5d8	-0.14351594
165	0xbe0dac52	-0.13835266
166	0x3d81a746	0.06330733
167	0xbd9bcbb4	-0.07607213
168	0x3c90bcd1	0.01766816
169	0xbd8b28cc	-0.06794891
170	0xbd60ddd6	-0.05489906
171	0xbd702551	-0.058629338
172	0xbe021bab	-0.12705867
173	0x3d0e02d9	0.034670684
174	0xbda10838	-0.07862896
175	0x3b653fe4	0.0034980709
176	0xbe29630e	-0.16541693
177	0x3b03ff60	0.002014123
178	0x3d700ae6	0.058604144
179	0xbdd4763a	-0.103741124
180	0x3c61886b	0.013765435
181	0xbe38fd94	-0.18065482
182	0xbd9e367b	-0.07725235
183	0x3dd2dee3	0.102964185
184	0x3c984d4a	0.018591542
185	0x3cb5c6c2	0.022189502
186	0x3c6e5693	0.014547008
187	0xbc049c66	-0.008093929
188	0xbddf0f9a	-0.10891648
189	0x3cdd5460	0.027017772
190	0xbd95b2b1	-0.07309473
191	0xbc73eb2d	-0.014887613
192	0xbdd36910	-0.103227735
193	0x3d981465	0.07425765
194	0xbda83807	-0.08213811
195	0xbde13d37	-0.10998004
196	0xbca9f099	-0.020744609
197	0x3c888d2d	0.01666888
198	0xbe0f3e5b	-0.1398863
199	0x3e0afb1a	0.1357235
200	0x3daa2681	0.08308125
201	0xbdbd7611	-0.09251035
202	0xbe3ab06f	-0.18231367
203	0xbb568a5a	-0.0032736273
204	0xbd02cbf2	-0.03193278
205	0xbe3d0513	-0.18458967
206	0x3db73872	0.08946313
207	0xbda9ac7b	-0.08284851
208	0x3cf7e992	0.030262742
209	0x3d33bfd4	0.043884113
210	0xbe1f32ad	-0.15546675
211	0xbdd1b240	-0.102390766
212	0x3d19ec80	0.03757906
213	0xbd1e63c0	-0.038669348
214	0xbd7fdf15	-0.062468607
215	0xbd7d18b0	-0.061791122
216	0xbdc76bba	-0.09737344
217	0x3ddd8c31	0.10817755
218	0xbe2023ac	-0.15638608
219	0xbdd77f0a	-0.10522278
220	0xbdc11d4a	-0.094294146
221	0x3cb201a3	0.021729296
222	0xbe0ee31e	-0.13953826
223	0x3dc259bf	0.09489774
224	0x3dbc9fb6	0.0921015
225	0x3d69bc1a	0.057064153
226	0x3dc1486c	0.094376415
227	0xbcc1e141	-0.02366698
228	0xbe38a763	-0.18032603
229	0x3d2da223	0.042390954
230	0x3c9262f7	0.017869456
231	0xbd6a876d	-0.05725806
232	0xbe01737c	-0.1264171
233	0x3d9f5b56	0.07781093
234	0xbc0088aa	-0.007845083
235	0x3d9db666	0.07700805
236	0xbdc72597	-0.097239666
237	0xbdfe204d	-0.12408505
238	0x3d617ad1	0.055048767
239	0xbe3c293f	-0.18375109
240	0xbe0fa03e	-0.14025971
241	0x3d9fdfe9	0.07806379
242	0x3cc3373c	0.023830049
243	0x3d80d1e9	0.06290037
244	0x3da9e901	0.08296395
245	0xbc99c700	-0.018771648
246	0xbd4afbb4	-0.04955645
247	0x3d55729e	0.05211126
248	0xbd1ae77f	-0.037818428
249	0x3d919ec5	0.07110361
250	0xbd7ec862	-0.06220282
251	0xbd869756	-0.06571834
252	0xbdf7d5b0	-0.121013045
253	0xbe63bd8d	-0.22240277
254	0xbda8568e	-0.08219634
255	0xbda2ea11	-0.07954801

fc2.weight f4 [300, 404]
0	0xbda1fe89	-0.07909877
1	0xbd333352	-0.043750115
2	0xbd6ee11d	-0.058320154
3	0xbcaf0f71	-0.021369668
4	0x3c926894	0.017872132
5	0xbcc86467	-0.024461938
6	0xbd68b6e2	-0.056815036
7	0xbd9644a4	-0.07337311
8	0xbd68c432	-0.05682773
9	0x3d022486	0.031773113
10	0xbcc754dc	-0.024332456
11	0xbce7e203	-0.028306013
12	0xbce89648	-0.028391972
13	0x3d2a9515	0.041646082
14	0xbc3578c4	-0.011076156
15	0x3d01ac84	0.031658664
16	0x3cf025a6	0.029314827
17	0x3d3535b4	0.04424067
18	0xbd399848	-0.045311242
19	0x3bce5fc2	0.0062980363
20	0xbd691042	-0.05690027
21	0xbc2ab2e0	-0.010418624
22	0xbdb600b0	-0.0888685
23	0x3d075b0c	0.033045813
24	0x3ce14e79	0.027503239
25	0xbcee712e	-0.029106703
26	0xbd2675f8	-0.040639848
27	0x3c8a8a94	0.016911782
28	0x3c991117	0.018684907
29	0xbd522376	-0.05130335
30	0xbd214683	-0.039373886
31	0xbca68514	-0.020327128
32	0xbc32ef29	-0.010921278
33	0xbda84192	-0.082156315
34	0xbd102572	-0.03519196
35	0xbcaa05e6	-0.020754766
36	0x3bfbef6d	0.007688454
37	0xbc6ffabb	-0.014647181
38	0x3ca9aa60	0.020711124
39	0x3d08ee83	0.033430588
40	0xbc34ee9f	-0.01104322
41	0xbd4f7d8d	-0.050656844
42	0xbd8584f0	-0.065194964
43	0x3c89a7c4	0.01680363
44	0x3c96186b	0.01832219
45	0xbd717d93	-0.058957648
46	0xbda8762e	-0.08225666
47	0xbbf4a651	-0.0074661155
48	0xbd6286e4	-0.055304423
49	0xbd60c29b	-0.05487309
50	0xbcb8bbea	-0.022550542
51	0xbd6cb320	-0.057788014
52	0x3c25d391	0.010121242
53	0xbcc8bce9	-0.024504142
54	0xbb63886a	-0.003471876
55	0xbda95c5f	-0.082695715
56	0xbc431604	-0.011907104
57	0xbd949248	-0.072544634
58	0xbd1ab4aa	-0.03776995
59	0xbd19ff3d	-0.03759693
60	0xbd2f906b	-0.042862337
61	0xbd598cdc	-0.05311285
62	0x3bb327e2	0.005467401
63	0x3d373d14	0.044735983
64	0xbd0a3a9a	-0.033747293
65	0xbe01f90d	-0.12692662
66	0xbdc0e16f	-0.09417998
67	0x3c86a759	0.01643722
68	0xbc1359c5	-0.008993571
69	0xbcbb29eb	-0.022847136
70	0xbc481bc6	-0.012213653
71	0xbb3f3f92	-0.0029182178
72	0x3cc9650e	0.02458432
73	0x3c3c2645	0.011483734
74	0xbd65e830	-0.056129634
75	0xbcb3a8d2	-0.021931086
76	0xbd975aae	-0.07390343
77	0xbcc54592	-0.024081025
78	0xbd4acac2	-0.04950977
79	0xbd1134fb	-0.035450917
80	0xbccb0f42	-0.024787549
81	0x3d064b96	0.032786928
82	0xbc3d3d26	-0.011550223
83	0xbd2c148a	-0.042011775
84	0xbda70291	-0.081547864
85	0xbd5c0195	-0.053712446
86	0xba1dfcc3	-0.0006026739
87	0xbce39706	-0.027781975
88	0x3c01f9bb	0.007933076
89	0xbd0c8e81	-0.03431559
90	0xbd01ba3b	-0.031671744
91	0x3c98ef05	0.01866866
92	0xbd3c50cc	-0.04597549
93	0x39c5cd00	0.00037727505
94	0x3d2a6392	0.041598864
95	0xbcbb609a	-0.022873212
96	0xbd3f333b	-0.046679717
97	0xbc9d770f	-0.01922181
98	0x3c67a6f8	0.01413893
99	0xbcedae9f	-0.02901393
100	0xbd3c16b2	-0.04592008
101	0xbafe28df	-0.0019390843
102	0xbd20109c	-0.03907834
103	0x3c2d8e0e	0.0105929505
104	0x3cf873bb	0.030328622
105	0xbbedb50a	-0.0072542476
106	0xbc9bed52	-0.019034062
107	0xbd0c2096	-0.034210764
108	0xbc3cf696	-0.0115334
109	0x3d309c8e	0.043118052
110	0xbd76130c	-0.06007676
111	0xbc519627	-0.012792147
112	0xbbfa3b00	-0.007636428
113	0xbd853dcc	-0.065059274
114	0xbd831bd9	-0.06401796
115	0xbcc4018a	-0.023926515
116	0x3cd5f4f4	0.02611778
117	0x3c27e0ab	0.010246436
118	0x3d54527f	0.051836487
119	0x3c48fa1c	0.012266662
120	0x3ba956f9	0.0051678387
121	0x3d04c6ee	0.032416277
122	0x3afca2ed	0.001927463
123	0x3c206caf	0.009791537
124	0x3d2c03d2	0.04199583
125	0xbcecdc7b	-0.028913727
126	0xbcff1316	-0.03113703
127	0x3c1ee49e	0.009698061
128	0xbcdf2a2f	-0.027241794
129	0xba2f021b	-0.0006676034
130	0xbd729f57	-0.05923399
131	0xbd9a0db0	-0.07522142
132	0xbd863651	-0.06553329
133	0xbc811748	-0.015758172
134	0x3cb4d8b9	0.022075998
135	0xbd9c781c	-0.076400965
136	0x3a29e0bf	0.0006480328
137	0x3c946e0a	0.018118877
138	0xbd5ff84c	-0.054680154
139	0xbd6d2fc1	-0.05790687
140	0xbd04a2d7	-0.03238186
141	0x3c41851b	0.01181152
142	0xbd4b0694	-0.04956682
143	0xbd8f7008	-0.0700379
144	0xbc898451	-0.016786726
145	0xbd792001	-0.060821537
146	0xbd887df4	-0.06664649
147	0xbccb095f	-0.024784742
148	0x3c42ca89	0.011889108
149	0x3cdbdec5	0.026839623
150	0x3c9109d9	0.017704891
151	0x397ba35b	0.0002399808
152	0xbd544a08	-0.051828414
153	0xbd1c1dc4	-0.038114324
154	0xbcbe0c36	-0.023199182
155	0x3b0e1058	0.0021677222
156	0xbd8705d5	-0.06592909
157	0xbe010e38	-0.1260308
158	0xbcaee208	-0.021348014
159	0xbb9ce379	-0.004787859
160	0x3d5614d4	0.052265957
161	0x3d04f2ff	0.0324583
162	0xbbcbf42b	-0.0062241754
163	0x381f30e4	3.7954087e-05
164	0xbd4c617f	-0.049897667
165	0xbc4c29d3	-0.012461144
166	0xbcb629e0	-0.022236764
167	0xbd3de96d	-0.04636519
168	0x3bcc1bbe	0.006228893
169	0xbb920d1a	-0.0044571282
170	0xbd9c5580	-0.07633495
171	0xbc9945ba	-0.018710006
172	0xbc3dfff6	-0.01159667
173	0xbd541535	-0.051778037
174	0xbce04ac6	-0.027379405
175	0x3d59b2db	0.053149085
176	0x3c09b09e	0.008403925
177	0xbd0085e6	-0.031377696
178	0x3c97a611	0.018511804
179	0xbd9857be	-0.074386105
180	0xbb041add	-0.0020157613
181	0x3b1d3027	0.0023985
182	0xbd782a24	-0.060587063
183	0xbd0e0634	-0.034673885
184	0xbc364744	-0.0111253895
185	0xbd122b6c	-0.03568594
186	0x3bf3c61b	0.0074393875
187	0xbcc77ab8	-0.024350509
188	0xbc7de51d	-0.015496519
189	0xbd0ca60a	-0.034338035
190	0xbc289837	-0.010290197
191	0xbc7522f1	-0.014961944
192	0xbd337b7e	-0.043818943
193	0xbd15ea79	-0.036600564
194	0xbcea5fe6	-0.028610181
195	0xbd4a390a	-0.049370803
196	0x3c300920	0.010744363
197	0xbd5925ee	-0.05301469
198	0xbce530cf	-0.027977375
199	0xbd5c54fd	-0.05379199
200	0xbd27e405	-0.04098894
201	0xbd7f1dae	-0.062284164
202	0x3bbe5b69	0.005809237
203	0xbca896e4	-0.020579763
204	0xbc1b37ab	-0.0094737215
205	0x3c8233a7	0.01589377
206	0xbc3c9616	-0.011510393
207	0xbbf39433	-0.007433438
208	0xbd33946b	-0.043842714
209	0xbd6df073	-0.05809064
210	0xbc9e84de	-0.019350465
211	0xbd2df2a9	-0.042467747
212	0xbd6aa2e5	-0.057284255
213	0x3c177f9e	0.009246735
214	0x3d172cd4	0.036907986
215	0x3d0090ad	0.031387974
216	0xbd3317c0	-0.04372382
217	0xbb3b8e80	-0.0028618872
218	0xbc87610a	-0.016525764
219	0x3ce3acd3	0.02779237
220	0x3af082df	0.001834955
221	0x3cc4488e	0.023960378
222	0xbc5275b8	-0.012845449
223	0x3c40b0b1	0.0117608765
224	0xbc20cbe2	-0.009814234
225	0xbd3d20a7	-0.046173718
226	0xb9db4f03	-0.00041829803
227	0xbcdd6305	-0.027024755
228	0xbc751046	-0.014957493
229	0xbd67edbb	-0.0566232
230	0xbcb7a279	-0.02241634
231	0x3ceb70f0	0.028740376
232	0xbd20854b	-0.039189618
233	0xbce94d18	-0.028479144
234	0xbd558094	-0.052124575
235	0x3acd08ad	0.0015642844
236	0x3d6c2452	0.057651825
237	0xbcfcc003	-0.030853277
238	0xbd60fa30	-0.054926097
239	0x3cb1e7e8	0.021717027
240	0x3c4370d0	0.011928752
241	0xbce9704d	-0.028495932
242	0xbda0ad53	-0.07845559
243	0xbd4cc34a	-0.04999093
244	0x3d40a16a	0.047028936
245	0x3d122208	0.035676986
246	0xbc12872c	-0.00894336
247	0xbdbe7dc3	-0.09301331
248	0xbd47bcc0	-0.04876399
249	0xbc9663e1	-0.018358173
250	0xbbbe2381	-0.0058025722
251	0xbd23b442	-0.03996683
252	0xbd311dd6	-0.043241344
253	0xbc8152fe	-0.015786644
254	0x3c196744	0.009362999
255	0x3d1dc156	0.038514458

fc2.bias f4 [300]
0	0xbc866657	-0.016406221
1	0x3d8a99ca	0.06767614
2	0xbd178dea	-0.037000574
3	0x3bd05514	0.0063577984
4	0xbd52c8e0	-0.0514611
5	0x3c50cc69	0.012744048
6	0xbcb74fa0	-0.022376835
7	0xbc364c21	-0.011126549
8	0xbcc36791	-0.023853095
9	0x3d1d3b6d	0.03838675
10	0x3cc5ca18	0.024144217
11	0x3c547986	0.012968427
12	0x3d4bf5a6	0.049794815
13	0xbd5bbbfa	-0.053646065
14	0x3c2c080b	0.0104999645
15	0xbdb9f7d2	-0.09080471
16	0xbd1ccef6	-0.03828331
17	0xbd55a935	-0.05216332
18	0x3cf15eef	0.029464213
19	0x3ccf8f9c	0.025337033
20	0x3b15d8e1	0.0022864866
21	0xbb7ea610	-0.0038856305
22	0xbc436961	-0.01192698
23	0x3cc56244	0.024094708
24	0x3b9bc01e	0.0047531268
25	0x3b64f482	0.0034935777
26	0xbd1f1499	-0.038838003
27	0x3cea7efe	0.028625008
28	0x3c9d40ae	0.01919588
29	0xbcbfb359	-0.02340095
30	0x3d094644	0.033514276
31	0xbcbbcfec	-0.022926293
32	0xbc89f711	-0.016841443
33	0x3c47dd6c	0.012198787
34	0x3c2562d7	0.010094366
35	0xbd62d129	-0.055375252
36	0xbca17854	-0.019710697
37	0x3c84c932	0.016209219
38	0xbafb3ba7	-0.0019167558
39	0x3b71d245	0.0036899012
40	0x3c81d8e6	0.015850496
41	0xbd3a386c	-0.045463964
42	0xbd2c3a64	-0.042047873
43	0x3cca75f8	0.024714455
44	0xbcb947f4	-0.022617318
45	0x3c8c1b92	0.01710299
46	0xbc01d02f	-0.00792317
47	0xbd2c0f08	-0.042006522
48	0xbcb14215	-0.021637956
49	0xbd525197	-0.05134734
50	0xbbe7306a	-0.007055332
51	0x3c9a419b	0.018830111
52	0xbab0d49a	-0.0013491095
53	0x3ab9e33b	0.00141821
54	0x3cb22b86	0.02174927
55	0xbd411b97	-0.047145452
56	0x3ce2b711	0.027675183
57	0x3daf6c2d	0.08565555
58	0xbd1e4df0	-0.038648546
59	0x3d185ffe	0.03720092
60	0x3d06b40b	0.032886546
61	0xbd14654a	-0.03622941
62	0xbd583dbf	-0.05279326
63	0xbd4710bd	-0.048599947
64	0xbb96483a	-0.004586247
65	0xbc2914ca	-0.010319898
66	0xbcc52f23	-0.024070328
67	0xbd13b059	-0.03605685
68	0xbc77799b	-0.015104677
69	0x3c58dff2	0.0132369865
70	0x3d08e91b	0.03342543
71	0x3bb0454e	0.0053793555
72	0x3c82e07a	0.01597618
73	0x3cb386df	0.021914897
74	0x3cde91c4	0.027169116
75	0xbcb507ef	-0.02209851
76	0x3c7a85d8	0.0152907
77	0xbcd61945	-0.026135096
78	0x3cb1c780	0.021701574
79	0x3c9a2481	0.018816235
80	0xbca44329	-0.020051556
81	0xbd14f9dd	-0.0363711
82	0x3cba8fe9	0.0227737
83	0x3d0497e9	0.032371435
84	0xbaa36ab7	-0.0012467717
85	0xbd89c969	-0.06727869
86	0xbcf78311	-0.030213865
87	0xbb9d26f8	-0.004795905
88	0x3cf2472e	0.029574957
89	0xbd3258ae	-0.043541603
90	0xbd370383	-0.044681083
91	0x3d019c85	0.03164341
92	0xbced2ee0	-0.028953016
93	0xbc3ec7f4	-0.011644352
94	0x3dd7cb1c	0.10536787
95	0x3c9b1970	0.018933028
96	0xbd33cde3	-0.04389752
97	0xbc35ea61	-0.011103244
98	0xbc408936	-0.011751464
99	0xbd3793c7	-0.044818666
100	0xbd20b248	-0.039232522
101	0xbd182794	-0.03714712
102	0xbd68cdf3	-0.056837033
103	0xbd5d5b2c	-0.054042026
104	0xbcdc1693	-0.026866233
105	0x3a9e9ac0	0.0012100562
106	0xbcf5262b	-0.029925426
107	0xbbb14564	-0.0054098833
108	0x3d10cc33	0.03535099
109	0x3cf28f19	0.02960925
110	0x3cac21a5	0.021012137
111	0x3c68386c	0.014173608
112	0x3bfbb526	0.0076815067
113	0xbcab85b6	-0.020937782
114	0x3cd4a4d4	0.025957502
115	0xbc8e46da	-0.017367769
116	0x3c077023	0.008266482
117	0xbcc0e537	-0.023546798
118	0x3c39a7c9	0.011331507
119	0x3bec84d6	0.0072179837
120	0xbce3ac2d	-0.02779206
121	0xbbdcaae8	-0.006734241
122	0xbc9ff717	-0.019527001
123	0xbd1e094a	-0.038583077
124	0xbd00c188	-0.031434566
125	0xbd789754	-0.060691193
126	0x3d1904bf	0.03735804
127	0xbce87c3b	-0.02837955
128	0xbd1a78ce	-0.037712865
129	0x3c59b60e	0.013288034
130	0xbbfc314d	-0.007696307
131	0xbbcdc061	-0.006279037
132	0xbd3b6269	-0.045748148
133	0xbc76771a	-0.015043044
134	0xbd12a4f7	-0.035801854
135	0xbcc764b1	-0.024340006
136	0xbc3b3204	-0.011425499
137	0x3c4cf700	0.012510061
138	0x3c608139	0.013702684
139	0xbbf90f71	-0.0076007177
140	0x3cc12c32	0.023580644
141	0x3d14609e	0.036224954
142	0xbd5e5bf4	-0.054286912
143	0xbd514b30	-0.051097095
144	0x3cea90d1	0.028633507
145	0x3c508c16	0.012728712
146	0xbd0069e4	-0.031350985
147	0xbc3308c0	-0.010927379
148	0x3d0e5292	0.034746714
149	0xbd26dc76	-0.04073759
150	0xbd01dc9b	-0.031704526
151	0xbbe8c512	-0.0071035707
152	0xbd51c1ad	-0.051210094
153	0x3ab6bad0	0.0013941173
154	0xbd75731d	-0.059924234
155	0xbd47bba8	-0.048762947
156	0xbd38f7aa	-0.045158066
157	0xbcf68802	-0.03009415
158	0xbd1ca2bb	-0.03824113
159	0xbd4a8e15	-0.049451906
160	0x3c6227ef	0.013803466
161	0xbd7c68ce	-0.061623387
162	0xbda4836f	-0.080328815
163	0xbd5369ee	-0.051614694
164	0xbc4dcf14	-0.012561578
165	0xbd4e5d91	-0.0503822
166	0x3c300f1f	0.010745793
167	0x3bb539f4	0.00553059
168	0x3d185add	0.03719603
169	0xbd5ea7fc	-0.05435942
170	0xbc7c9f3f	-0.015418827
171	0x3d127bc5	0.035762567
172	0x3cf60373	0.030030942
173	0x3b5a54c5	0.0033314687
174	0xbda2c790	-0.0794822
175	0xbcb3a86c	-0.021930896
176	0x3bd0a079	0.006366786
177	0x3cbf0458	0.023317501
178	0x3d9577ac	0.07298216
179	0xbd00d6b4	-0.031454757
180	0x3b2de9cd	0.0026537061
181	0xbdb9e003	-0.0907593
182	0xbd0bc051	-0.034118954
183	0xbcf49ef5	-0.029860953
184	0xbd2796ae	-0.040915184
185	0x3aa80f02	0.0012821855
186	0xbcad63dd	-0.021165783
187	0xbd864e0b	-0.06557854
188	0x3c2baa65	0.010477637
189	0x3d043199	0.032273863
190	0x3c302008	0.010749824
191	0xbd229203	-0.03969003
192	0xbd4c018c	-0.049806163
193	0xbcb248dc	-0.021763258
194	0xbd965a69	-0.07341463
195	0xbd6f59bd	-0.05843519
196	0xbb92a3b6	-0.0044750823
197	0x3c9c891d	0.01910835
198	0x3c901075	0.017585972
199	0x3ce06bfb	0.02739524
200	0x3d04c20a	0.032411613
201	0xbd25c2e3	-0.04046906
202	0x3c35984a	0.011083672
203	0xbcda06b3	-0.026614523
204	0xbba00c99	-0.0048843143
205	0xbd2c370f	-0.042044695
206	0x3c84e992	0.016224656
207	0xbd27c358	-0.04095778
208	0xbbc3b457	-0.005972426
209	0xbd22d3ae	-0.039752655
210	0xbd225fab	-0.039642017
211	0xbcda91dc	-0.02668088
212	0xbb63f959	-0.0034786074
213	0x3bfabf32	0.007652187
214	0xbd587ace	-0.05285149
215	0x3cdeb15b	0.027184179
216	0xbd301c71	-0.042995874
217	0xbc71869e	-0.014741568
218	0xbc885423	-0.016641682
219	0xbd3b183e	-0.045677416
220	0xbd639dc5	-0.055570383
221	0xbd331983	-0.0437255
222	0x3c777c60	0.015105337
223	0xbc308073	-0.010772812
224	0xbc3d4665	-0.011552428
225	0xbd51563f	-0.05110764
226	0xbb4217f1	-0.002961632
227	0xbd0c80c0	-0.034302473
228	0x3c9f921e	0.019478854
229	0xbccc83b1	-0.02496514
230	0x3c60e859	0.013727271
231	0xbd347d40	-0.04406476
232	0xbc6ee1c9	-0.014580199
233	0x3d019e48	0.03164509
234	0xbd231fe9	-0.039825354
235	0x3c676b66	0.014124727
236	0xbc4adf56	-0.012382349
237	0xbd4ba778	-0.049720258
238	0xb9f147ed	-0.0004602069
239	0xbd5cb4cf	-0.05388337
240	0x3ccd1875	0.025036076
241	0xbd2b0c4f	-0.041759785
242	0x3d107915	0.035271723
243	0xbd4d48dc	-0.050118312
244	0xbd14f651	-0.036367718
245	0x3ca8fc3c	0.020628087
246	0xbd13accd	-0.036053468
247	0xbc5d10a0	-0.013492733
248	0xbd6b1d0a	-0.05740074
249	0x3cd6725f	0.026177583
250	0xbd057caa	-0.032589592
251	0x3bc3f9d8	0.0059807114
252	0x3ce25bd1	0.027631672
253	0x3c728259	0.014801585
254	0xbc459261	-0.012058825
255	0xbbb58cda	-0.0055404725

fc3.weight f4 [2, 300]
0	0x3c833921	0.016018452
1	0x3a05ab00	0.00050990283
2	0x3b177450	0.00231101
3	0x38f19052	0.00011518657
4	0xb9f641c6	-0.0004696978
5	0xbb5b8b65	-0.0033499834
6	0xbb9f9a27	-0.0048706713
7	0xb9ecfc4a	-0.00045201398
8	0x3bf8b47f	0.007589876
9	0x3ad99516	0.0016600217
10	0xbc340210	-0.01098682
11	0xbb9f1104	-0.0048543233
12	0x3a5b517a	0.0008366328
13	0xbb9cc85a	-0.004784626
14	0x3bd9b275	0.006643588
15	0xbb349ffd	-0.002756118
16	0xbb919613	-0.004442939
17	0xba44ec5b	-0.00075120264
18	0xbb1963e0	-0.0023405477
19	0x3a28cd41	0.00064392766
20	0xbabffcd1	-0.0014647489
21	0x3b0fd2ca	0.0021945708
22	0xbb42f9c4	-0.0029750923
23	0x3b5b8c79	0.0033500476
24	0xbbff1c25	-0.0077853375
25	0xb896fc5a	-7.1995615e-05
26	0xbb013209	-0.0019713661
27	0xbcca6512	-0.024706397
28	0x3a0cc139	0.00053693686
29	0xbb060b65	-0.002045357
30	0xbab9359f	-0.001413036
31	0xb8e4dc61	-0.00010912936
32	0x3afe4e7f	0.0019402056
33	0xbb222890	-0.0024743415
34	0xba583cc7	-0.00082488026
35	0x3a8ca22e	0.0010729486
36	0x39bfb8cc	0.00036568043
37	0x37a525a8	1.9687068e-05
38	0xbaed25ec	-0.0018092967
39	0xbb37cca4	-0.002804556
40	0x3a80458b	0.000978635
41	0x3aaaca79	0.0013030312
42	0xbb3b3698	-0.0028566476
43	0xb726c760	-9.940792e-06
44	0xbb10e766	-0.002211058
45	0x39e10fda	0.00042927155
46	0xba7518bb	-0.00093496934
47	0xbaa54aec	-0.001261083
48	0x3b740983	0.0037237115
49	0xb89a77df	-7.36562e-05
50	0x3cc176a5	0.023616144
51	0xb9b5ac0d	-0.00034651198
52	0xbb3c948a	-0.002877506
53	0x3c5c85e4	0.013459656
54	0x3a65d8e4	0.0008767976
55	0x3a5f3973	0.00085153355
56	0xbb54c31a	-0.0032464922
57	0x3b336ccf	0.0027378087
58	0x3bcf5562	0.006327317
59	0xba54a10a	-0.0008111155
60	0x3b88adfb	0.0041711307
61	0xbb460a09	-0.0030218384
62	0xba64a9b8	-0.00087228
63	0xba2f779e	-0.00066935446
64	0xba963bde	-0.0011461934
65	0x3bc502d8	0.006012302
66	0x3af0acd1	0.001836205
67	0x3ca8dc88	0.02061297
68	0xba3f6666	-0.00073013303
69	0xbaf398d9	-0.0018584981
70	0xbb817639	-0.003950861
71	0x3a91fbe7	0.0011137695
72	0x3cd5e84e	0.026111748
73	0x3ab14d97	0.0013527152
74	0xbb1431dc	-0.0022612726
75	0xbad9572f	-0.0016581769
76	0xbaa9d2ba	-0.0012956478
77	0xbbc2d1cf	-0.0059454213
78	0x3b00ac3d	0.0019633912
79	0xbb0047e5	-0.0019574102
80	0xbaad53ab	-0.0013223788
81	0xbb2830ff	-0.002566397
82	0xbb5b9cf2	-0.0033510295
83	0xb95c1d5c	-0.00020991772
84	0xba951ac5	-0.0011375776
85	0x3b774775	0.00377318
86	0xbbc1cc5d	-0.0059142546
87	0xbc98fe7f	-0.01867604
88	0xbb8a21be	-0.004215448
89	0x3ad6ccb1	0.0016387907
90	0xbcf1fdb1	-0.029539915
91	0xbb35a96d	-0.0027719394
92	0x39682524	0.0002213908
93	0x3bd6731a	0.006544483
94	0x3b464fed	0.0030260042
95	0x3a29d2b4	0.00064782356
96	0xb9a5cebb	-0.0003162528
97	0x39889ac0	0.0002605524
98	0xbafa55ae	-0.0019099021
99	0x3b5f8660	0.0034107193
100	0x3bbc74ca	0.005751227
101	0xba29bdf0	-0.0006475141
102	0x3cb3c47a	0.021944273
103	0x3a9bc9fc	0.0011885758
104	0x389d9d41	7.515634e-05
105	0x392d0d38	0.0001650349
106	0xb990d4af	-0.00027624282
107	0xbb6dc792	-0.0036282283
108	0x3b683dd2	0.0035437238
109	0x3a93f8b7	0.0011289333
110	0xbc064b33	-0.00819664
111	0xba7aaab2	-0.0009562179
112	0x3ac547b4	0.0015051276
113	0x3a17aee0	0.0005786251
114	0xbc288f8f	-0.010288133
115	0xba99e116	-0.0011740054
116	0xbb06dcc8	-0.0020578373
117	0x3a9b8e31	0.0011867938
118	0x3b9b72ad	0.004743895
119	0x3c6b9b00	0.014380217
120	0xbca11940	-0.01966536
121	0xbb1c09a8	-0.0023809467
122	0x3b00405b	0.001956961
123	0x3a45a47a	0.00075394625
124	0xbb9de47d	-0.0048184977
125	0xbb2be121	-0.0026226717
126	0xba1f4b0b	-0.0006076551
127	0x39ef356d	0.00045625438
128	0x398aad03	0.00026450315
129	0xbb0ed8f1	-0.0021796788
130	0xbb202fdf	-0.0024442596
131	0xb98f40e5	-0.00027323436
132	0x3b0c887d	0.0021443658
133	0xba3223f1	-0.0006795517
134	0xbb3a0501	-0.002838433
135	0x3a9d98d3	0.0012023695
136	0x3a1bf34c	0.0005949035
137	0xbadb1aee	-0.00167164
138	0xba513401	-0.00079804665
139	0x3b143e80	0.002262026
140	0x3c56452f	0.013078018
141	0x3b0ad46a	0.0021183738
142	0x3a1c3c52	0.0005959916
143	0xba77b166	-0.00094487367
144	0xbbbc1baf	-0.005740605
145	0xbabb6344	-0.0014296551
146	0x3a0624c4	0.0005117173
147	0x3985ede4	0.0002554498
148	0xbb0c2ad9	-0.0021387844
149	0x3b8c1fab	0.004276236
150	0xbbac5fdb	-0.0052604503
151	0x3a054860	0.0005084332
152	0xb9cfdf4a	-0.0003964848
153	0x3be4451d	0.0069662468
154	0xbb8c9051	-0.004289665
155	0xbb087e58	-0.002082726
156	0xbc82172f	-0.015880195
157	0x3b1a48be	0.0023541893
158	0xbae4a4db	-0.001744415
159	0xb9fdf993	-0.00048441868
160	0x3ae2bf7a	0.0017299496
161	0xbbfbc5f3	-0.0076835095
162	0x3bb97950	0.0056602135
163	0x3a50c2cc	0.00079635973
164	0xbbb301d7	-0.005462866
165	0xba767118	-0.00094010076
166	0x3b82edd2	0.0039956355
167	0x3a03bf42	0.0005025753
168	0x3a21f4ec	0.0006178159
169	0xbb4c3880	-0.0031161606
170	0xbaf64492	-0.0018788746
171	0x3ba1511c	0.004922999
172	0xbb16f192	-0.002303217
173	0x3b517a19	0.0031963645
174	0xb8587e3c	-5.1615978e-05
175	0xba631032	-0.0008661776
176	0xbac7954a	-0.0015226987
177	0xbaafa5c6	-0.0013400845
178	0x3b9af482	0.0047288546
179	0xbba7e5c8	-0.0051238276
180	0xbb32cde7	-0.0027283372
181	0xbc72bb0b	-0.014815102
182	0x3ad0b2cc	0.0015922426
183	0x39b24ac8	0.00034006522
184	0xbcbc9202	-0.02301884
185	0x39987d37	0.00029084992
186	0x3b5375ea	0.0032266327
187	0xbac00816	-0.0014650847
188	0xbb90e5ec	-0.00442194
189	0x3adf0ff0	0.00170183
190	0xba2f76fa	-0.0006693449
191	0x3be2c16e	0.0069200313
192	0x3b068a0c	0.002052906
193	0xbc28f147	-0.010311431
194	0x3aaf5414	0.0013376498
195	0xb9d8ca6c	-0.00041349547
196	0xb9179849	-0.00014457213
197	0xbbffdd74	-0.0078083817
198	0xbca3ccd7	-0.019995136
199	0xbaa0a89b	-0.001225728
200	0xb8d24d02	-0.00010027924
201	0xbaf4ce70	-0.0018677246
202	0xbb1ff4c3	-0.0024407364
203	0x3b35dc15	0.0027749587
204	0xbb8095cd	-0.0039241076
205	0xbad24dc7	-0.0016044908
206	0xbb51e679	-0.0032028242
207	0xba5e8caa	-0.00084895885
208	0x3a962462	0.0011454935
209	0x3addb891	0.0016915967
210	0x398d0aba	0.00026901608
211	0xbb7e5da1	-0.0038813131
212	0x3b8fef9f	0.0043925787
213	0x3a7d1984	0.0009654986
214	0x3b0fe956	0.0021959147
215	0x37fc2495	3.0057776e-05
216	0xbb091ad6	-0.0020920536
217	0xbaf03fad	-0.0018329524
218	0x3b851b32	0.00406208
219	0xbab718bd	-0.0013969165
220	0xbc8beac3	-0.017079717
221	0xba2d098d	-0.00066008494
222	0xba9b95d6	-0.0011870216
223	0x3ba2d5d0	0.004969336
224	0xbc02c7cc	-0.007982206
225	0xbaa6cca2	-0.001272578
226	0xbae24b37	-0.0017264847
227	0xbb7dc9e0	-0.0038725063
228	0x3b69aeff	0.0035657284
229	0xbb65cfef	-0.0035066565
230	0x3bd49979	0.006488022
231	0x3b51a91c	0.0031991666
232	0x3b29129e	0.002579845
233	0xba5dd3c4	-0.00084620365
234	0xbb5d91a5	-0.0033808735
235	0x3b02df21	0.001996942
236	0x3bd6e12e	0.006557605
237	0xbb89060a	-0.004181628
238	0xbb9472cd	-0.004530287
239	0xba18a535	-0.00058229576
240	0x3a0391b9	0.0005018968
241	0x3be1537d	0.0068764077
242	0xbad19efd	-0.0015992817
243	0xbc4f5373	-0.012654173
244	0xbac312fd	-0.0014882978
245	0x3b9c518e	0.0047704643
246	0x3aaeabfd	0.0013326403
247	0x3b4cfee6	0.003127986
248	0xbc3cbd78	-0.011519782
249	0x3b05a003	0.0020389564
250	0xbae88848	-0.001774081
251	0xbabf37da	-0.0014588789
252	0x3b006839	0.0019593372
253	0xbb1a55a9	-0.0023549593
254	0xbb03f1c3	-0.0020133115
255	0xbb734124	-0.0037117684

fc3.bias f4 [2]
0	0xbca77f1d	-0.020446355
1	0x3cd5c43f	0.026094554
