weights/checkpoint_actor_1.pth (torch_old, 163978 bytes, 10 tensors)

bn1.weight f4 [256]
0.9951369 0.95568883 0.6547678 1.0442835 0.5366444 0.7479351 0.50437117 0.8462798
1.0084691 0.33296958 1.0709333 0.7392366 0.9400069 0.7255698 0.84023535 0.6261652
0.9672006 0.69378865 0.38229728 0.922097 0.4528944 0.5979934 0.5759106 0.92008305
0.36812153 0.4355887 0.524125 0.4141475 0.6214599 0.282935 0.98928046 0.2635657
0.9198445 0.67720413 0.39659837 0.897543 0.63862306 0.96968895 0.6741129 0.58829254
0.7828194 0.39729252 0.8259761 1.0567392 0.83301747 0.49556452 0.8717688 0.7417547
0.9192044 0.3597863 -0.3054854 0.578419 0.3235715 0.9672514 0.76473933 0.9236581
0.7486439 0.60121506 0.95767885 0.3034421 0.71648204 0.40756878 0.73132914 0.5236389
0.83518237 0.4831795 1.0763268 0.4349278 0.41340846 0.32849723 1.001908 0.7786268
1.0996058 0.2541866 0.16937554 0.33496282 0.41857326 0.8338411 0.87707305 1.0149117
0.43978938 0.3356825 0.8986664 0.5091163 0.8754616 0.6783611 0.9103249 0.3355481
0.44836387 0.8505607 0.64871955 0.5170359 0.8296887 0.9243743 0.32691696 0.3448619
1.0080019 0.47821495 0.5649354 0.3979237 0.53971225 0.7742611 0.6312251 0.29588917
0.6853391 0.29725692 0.31603092 0.31254503 0.17949843 0.45523277 1.1358901 0.6862389
0.71253407 0.20537508 0.4002845 0.4947273 0.75952876 0.24175549 0.43143386 0.41728544
0.7164033 0.47789982 0.5306999 0.38077772 0.39627162 0.45381227 0.48470363 0.21765104
0.99348664 0.58656144 1.0450854 0.6707568 0.2971459 0.9090066 0.48134896 0.41983917
0.4080399 -0.35393077 0.67406434 0.5002987 0.80952543 0.25160557 1.0533546 0.39376375
0.64033294 0.68625575 0.9804878 1.0022848 1.0303351 0.3053496 0.7584239 0.47135645
0.48123392 0.33716068 1.053114 0.24319911 0.8627187 0.8890413 0.81349754 0.35740674
1.0202212 0.70950985 0.6219588 0.10186341 0.80456597 0.5613051 0.4013052 1.0414028
0.7552702 0.26376122 0.47830307 0.61101055 0.84148616 0.48303062 0.3585462 0.5547248
0.2861077 0.8741204 0.9516906 0.23518129 0.76221293 0.91067547 0.7185358 0.5586358
0.82593966 0.90938103 0.8297415 0.63840765 0.5073826 0.65448505 0.63865393 0.61192054
0.90631264 1.184642 0.59568727 0.6045877 0.6966243 0.62488246 0.7925268 0.7606676
0.32217243 0.5372403 1.0130202 0.84245646 0.5729384 0.369538 0.42718583 0.2888047
0.5649969 0.747556 0.86737394 0.8545044 0.30949056 0.2808003 0.6035846 1.037722
0.6478686 0.39445522 0.7995253 0.4623374 0.4820554 0.95702726 0.46870416 0.5585693
0.3507699 0.85782593 0.94606155 0.7831323 0.31011048 0.21306929 0.22378501 0.98466146
0.83675283 1.0191541 0.97229177 0.7406434 0.67778325 0.2613851 0.21093495 0.2647346
0.7810175 0.32657468 0.6402486 0.3939142 0.4691079 0.30647662 0.3146247 0.7294688
0.42759106 0.91118747 0.578661 0.2565681 0.59045184 0.4719696 0.52477175 0.32758668
00000000: 4bc1 7e3f 06a8 743f dd9e 273f 15ab 853f
00000010: 8761 093f ad78 3f3f 781e 013f cba5 583f
00000020: 8415 813f fd7a aa3e 5814 893f 9c3e 3d3f
00000030: 4ba4 703f f1be 393f aa19 573f 5d4c 203f
00000040: 759a 773f 229c 313f 78bc c33e 8d0e 6c3f
00000050: c6e1 e73e 1816 193f e16e 133f 908a 6b3f
00000060: 6d7a bc3e 7b05 df3e 0e2d 063f 240b d43e
00000070: ff17 1f3f dbdc 903e 7c41 7d3f 15f2 863e
00000080: ee7a 6b3f 405d 2d3f f10e cb3e 61c5 653f
00000090: cd7c 233f 893d 783f aa92 2c3f 579a 163f
000000a0: da66 483f ed69 cb3e 2b73 533f 3b43 873f
000000b0: a240 553f a2ba fd3e 3d2c 5f3f a3e3 3d3f
000000c0: fb50 6b3f e935 b83e 9568 9cbe 4513 143f
000000d0: 2aab a53e ca9d 773f f5c5 433f db74 6c3f
000000e0: 20a7 3f3f 3be9 193f 712a 753f c35c 9b3e
000000f0: 5e6b 373f dbac d03e 6338 3b3f 330d 063f
00000100: 83ce 553f 4e63 f73e 14c5 893f dbae de3e
00000110: 46aa d33e ca30 a83e 853e 803f 1654 473f
00000120: e2bf 8c3f bf24 823e c870 2d3e 3f80 ab3e
00000130: 3c4f d63e 9c76 553f dc87 603f a0e8 813f
00000140: 132c e13e 94de ab3e 000f 663f 7255 023f
00000150: 401e 603f 13a9 2d3f 0d0b 693f f6cc ab3e
00000160: f38f e53e 59be 593f 7c12 263f 775c 043f
00000170: 7b66 543f cba3 6c3f a961 a73e bd91 b03e
00000180: 3506 813f 97d8 f43e 9b9f 103f a8bc cb3e
00000190: 952a 0a3f fa35 463f f897 213f c97e 973e
000001a0: 6272 2f3f 0f32 983e cece a13e e705 a03e
000001b0: 70ce 373e 4514 e93e d964 913f 5aad 2f3f
000001c0: a268 363f d84d 523e 17f2 cc3e e64c fd3e
000001d0: 7a70 423f c08e 773e e6e4 dc3e 70a6 d53e
000001e0: 3566 373f 49af f43e f3db 073f 4cf5 c23e
000001f0: 1de4 ca3e 155a e83e 132b f83e eadf 5e3e
00000200: 2455 7e3f e428 163f 5cc5 853f b8b6 2b3f
00000210: 8223 983e a8b4 683f 5f73 f63e 29f5 d63e
00000220: 9bea d03e 6a36 b5be 7b8f 2c3f 9313 003f
00000230: 0f3d 4f3f 72d2 803e 53d4 863f 679b c93e
00000240: dcec 233f 75ae 2f3f 4001 7b3f de4a 803f
00000250: 05e2 833f c856 9c3e 1228 423f a255 f13e
00000260: 4b64 f63e 53a0 ac3e 71cc 863f 3009 793e
00000270: 22db 5c3f 3698 633f 6041 503f 04fe b63e
00000280: 9c96 823f 70a2 353f b138 1f3f c39d d03d
00000290: 09f8 4d3f b1b1 0f3f e077 cd3e b04c 853f
000002a0: 6359 413f b60b 873e 24e4 f43e 306b 1c3f
000002b0: a36b 573f ca4f f73e 5e93 b73e 7202 0e3f
000002c0: b57c 923e 5bc6 5f3f ffa1 733f 5dd3 703e
000002d0: 6320 433f 0722 693f f6f1 373f c102 0f3f
000002e0: c870 533f 32cd 683f f069 543f af6e 233f
000002f0: d3e3 013f 558c 273f d37e 233f d3a6 1c3f
00000300: 1b04 683f 59a2 973f f67e 183f 42c6 1a3f
00000310: f855 323f 4cf8 1f3f 09e3 4a3f 1dbb 423f
00000320: c9f3 a43e 9588 093f a5aa 813f 3aab 573f
00000330: 17ac 123f 1634 bd3e 1ab8 da3e 36de 933e
00000340: a3a3 103f d45f 3f3f 380c 5e3f cdc0 5a3f
00000350: 8c75 9e3e 0fc5 8f3e 8584 1a3f 13d4 843f
00000360: b7da 253f 09f6 c93e b1ad 4c3f 7db7 ec3e
00000370: f7cf f63e bdff 743f fef9 ef3e 66fe 0e3f
00000380: 1d98 b33e 7b9a 5b3f 1731 723f 5c7b 483f
00000390: cdc6 9e3e d62e 5a3e e627 653e c612 7c3f
000003a0: 6f35 563f a473 823f 1de8 783f ce9a 3d3f
000003b0: 3483 2d3f 45d4 853e 55ff 573e 4b8b 873e
000003c0: c3f0 473f cc34 a73e 55e7 233f 1faf c93e
000003d0: e92e f03e 81ea 9c3e 7d16 a13e 78be 3a3f
000003e0: 37ed da3e 9543 693f 2123 143f e55c 833e
000003f0: da27 173f 00a6 f13e 7157 063f 71b9 a73e

bn1.bias f4 [256]
-0.08417452 -0.063648246 -0.083876655 -0.08689141 -0.015477172 -0.008837841 -0.054794982 -0.11119877
-0.1050236 -0.03160069 -0.1229795 -0.03373288 0.043360583 0.057638902 -0.07900762 -0.10421063
-0.06134364 -0.09956907 -0.002423219 -0.013971933 -0.06863465 -0.028992971 -0.08140181 -0.021545678
-0.024463192 -0.013761581 -0.03568026 0.051220883 -0.033960994 -0.2207086 -0.11944946 -0.05581535
-0.05643138 -0.12071573 -0.014211003 -0.04135361 -0.01518967 0.011296502 0.024813164 0.0044870875
0.047056086 -0.051934466 0.06258866 -0.20237452 -0.069863774 -0.06873133 0.020501787 -0.0681227
-0.06458729 0.034660414 0.15025567 -0.07153405 -0.15956333 -0.029886248 0.04988686 0.0035331906
-0.0555261 -0.01916931 -0.028039416 -0.22131777 0.06532051 0.018540118 -0.026507726 0.04180461
0.056808066 -0.082660936 -0.11099898 -0.13170092 0.06643677 -0.030290734 0.0643677 0.020896105
-0.14136183 -0.032905843 0.06444916 -0.06619722 -0.1395075 -0.2643956 0.008393495 -0.10001986
-0.13520715 -0.047736086 -0.07314911 -0.04127509 -0.043471962 -0.041402824 0.011636365 -0.035526272
0.027437348 -0.090701565 -0.035511255 -0.009683979 -0.0652934 -0.022220176 -0.007632051 0.07519558
-0.1324677 0.0006183277 -0.042913232 -0.11646824 0.12012686 -0.06486376 0.07346968 0.018215219
-0.09370557 -0.043860935 0.09339422 -0.1435213 -0.07369028 -0.055691306 -0.14973955 -0.081819154
-0.008798959 -0.06267768 -0.016105732 -0.013137316 -0.113662265 0.0006865531 -0.03440008 -0.0467125
-0.0012117537 -0.026106004 -0.0045217085 0.018004134 -0.04835917 -0.12841912 -0.015196867 -0.035482507
-0.018556729 -0.023634685 0.056732565 0.0024808133 0.02758986 -0.0008955888 -0.040362604 0.0027544803
-0.08725551 -0.113805115 -0.06024794 -0.030506484 -0.06308187 -0.14871301 -0.0366339 -0.08349439
0.045339145 0.07112208 0.07465871 -0.08384698 -0.006583346 0.04705537 0.034920506 -0.051545244
-0.06817039 -0.06362029 -0.13307735 -0.080460735 -0.028247777 -0.106315434 0.02058225 -0.10345157
0.027414871 -0.11623958 -0.03616543 -0.13906062 0.019837953 0.033493277 -0.06300842 0.019482601
0.014605774 -0.09478818 0.13045357 -0.08441142 -0.09182199 0.012443816 0.04413528 -0.04671152
-0.039776016 -0.02291512 -0.044056214 -0.020710524 -0.059497282 -0.007044677 -0.009174759 0.013928207
-0.11817875 -0.020333124 0.052216213 -0.24903548 -0.039735775 -0.072634086 -0.1723062 -0.05470577
-0.20450217 -0.22086252 -0.06667514 -0.03768821 -0.038961403 -0.019311905 0.04919147 -0.022356065
-0.04770255 -0.060402 0.044289354 -0.011101879 -0.15090515 0.042496376 -0.04920843 -0.15060858
-0.07807593 -0.042483274 -0.07047262 0.037983216 -0.0055808495 -0.059911225 0.04439521 0.03495435
-0.03077959 -0.07066939 -0.06317685 -0.1002263 0.1150339 -0.010151347 0.0047933226 0.044186402
0.050458804 -0.007684188 -0.017187092 -0.0019042447 -0.03799775 0.31555706 -0.0352197 -0.03905788
-0.02319296 -0.07644898 -0.048441473 -0.025960326 -0.02565006 -0.12300886 -0.17149763 0.124798976
-0.026015991 -0.01857257 -0.09357146 0.045288626 -0.0054646423 -0.15585938 -0.21326663 -0.060130976
-0.030556956 -0.018344639 -0.012288129 0.07415498 -0.026674572 -0.08484548 -0.099550635 0.102359176
00000000: b163 acbd 035a 82bd 86c7 abbd 20f4 b1bd
00000010: f793 7dbc 98cc 10bc b470 60bd 2ebc e3bd
00000020: 9d16 d7bd ba6f 01bd addc fbbd 7d2b 0abd
00000030: de9a 313d c516 6c3d bfce a1bd 626c d5bd
00000040: 7843 7bbd deea cbbd dece 1ebb 89ea 64bc
00000050: 5390 8cbd ab82 edbc feb5 a6bd 9080 b0bc
00000060: 0867 c8bc 4178 61bc 7725 12bd fdcc 513d
00000070: af1a 0bbd 6f01 62be eba1 f4bd a39e 64bd
00000080: 9724 67bd cf39 f7bd 44d5 68bc 6762 29bd
00000090: 18de 78bc f714 393c fa44 cb3c 6b08 933b
000000a0: e2bd 403d 3cb9 54bd 7c2e 803d 443b 4fbe
000000b0: bd14 8fbd 03c3 8cbd 5df3 a73c ea83 8bbd
000000c0: 5746 84bd 14f8 0d3d 9fdc 193e 7280 92bd
000000d0: 9264 23be 01d4 f4bc 2a56 4c3d 1a8d 673b
000000e0: 566f 63bd f508 9dbc ebb2 e5bc 20a1 62be
000000f0: c2c6 853d 72e1 973c bb26 d9bc 503b 2b3d
00000100: 93af 683d 234a a9bd 6f53 e3bd 9bdc 06be
00000110: 0010 883d 4624 f8bc 36d3 833d 4f2e ab3c
00000120: 28c1 10be 47c8 06bd ecfd 833d 6892 87bd
00000130: 0edb 0ebe dc5e 87be df84 093c 36d7 ccbd
00000140: be73 0abe ea86 43bd 33cf 95bd 1210 29bd
00000150: a80f 32bd 0296 29bd 74a6 3e3c ff83 11bd
00000160: 4ac4 e03c bec1 b9bd 4074 11bd 8da9 1ebc
00000170: 8cb8 85bd 1607 b6bc 4916 fabb 2400 9a3d
00000180: 9da5 07be 4517 223a c9c5 2fbd e786 eebd
00000190: 1205 f63d 4ad7 84bd 4677 963d 1538 953c
000001a0: b5e8 bfbd 86a7 33bd 7845 bf3d 3ff7 12be
000001b0: eeea 96bd 911c 64bd 5355 19be cd90 a7bd
000001c0: 8229 10bc 285d 80bd 2bf0 83bc e63d 57bc
000001d0: c3c7 e8bd ccf9 333a 19e7 0cbd 9b55 3fbd
000001e0: b5d3 9eba 42dc d5bc d72a 94bb 687d 933c
000001f0: 4414 46bd 4d80 03be 48fc 78bc 1b56 11bd
00000200: 4804 98bc 879d c1bc 6860 683d 2495 223b
00000210: 2104 e23c f2c5 6aba 4253 25bd 8384 343b
00000220: 04b3 b2bd a812 e9bd 8bc6 76bd bce8 f9bc
00000230: 1131 81bd 3948 18be 6e0d 16bd 1bff aabd
00000240: 8ab5 393d 74a8 913d aae6 983d f7b7 abbd
00000250: 1cb9 d7bb 22bd 403d ce08 0f3d 1b21 53bd
00000260: eb9c 8bbd 5b4b 82bd 6e45 08be 99c8 a4bd
00000270: e267 e7bc e8bb d9bd 1b9c a83c 6bde d3bd
00000280: 2795 e03c 040f eebd 3422 14bd e865 0ebe
00000290: 3483 a23c 3f30 093d 8f0a 81bd fa99 9f3c
000002a0: 0e4d 6f3c 4e20 c2bd 9f95 053e e5df acbd
000002b0: 2b0d bcbd 26e1 4b3c 32c7 343d 9454 3fbd
000002c0: 2dec 22bd 7db8 bbbc 4a74 34bd 1ea9 a9bc
000002d0: 6cb3 73bd 09d7 e6bb ba51 16bc 2233 643c
000002e0: b307 f2bd a791 a6bc abe0 553d 2803 7fbe
000002f0: fbc1 22bd 2ec1 94bd 0971 30be 2813 60bd
00000300: 0469 51be c929 62be fa8c 88bd f45e 1abd
00000310: fe95 1fbd 0034 9ebc ff7c 493d 1124 b7bc
00000320: c063 43bd 1668 77bd c168 353d a8e4 35bc
00000330: e186 1abe ae10 2e3d c78e 49bd 2339 1abe
00000340: 46e6 9fbd f102 2ebd f353 90bd 4a94 1b3d
00000350: 8fdf b6bb 7965 75bd c0d7 353d 4b2c 0f3d
00000360: 7b25 fcbc 1dbb 90bd dd62 81bd 7243 cdbd
00000370: e596 eb3d d651 26bc 4e11 9d3b cdfc 343d
00000380: e4ad 4e3d a4cb fbbb f2cb 8cbc d997 f9ba
00000390: 87a3 1bbd b290 a13e 8842 10bd 28fb 1fbd
000003a0: 2aff bdbc 4891 9cbd 916a 46bd c0aa d4bc
000003b0: 1320 d2bc 12ec fbbd 139d 2fbe 9b96 ff3d
000003c0: 7d1f d5bc 8125 98bc 65a2 bfbd 9180 393d
000003d0: be10 b3bb 9a99 1fbe 9162 5abe e64b 76bd
000003e0: 9552 fabc 7f47 96bc 2654 49bc 91de 973d
000003f0: a284 dabc 78c3 adbd 34e1 cbbd b0a1 d13d

bn1.running_mean f4 [256]
0.052515596 0.001559604 0.062003348 0.5815711 0.06589258 1.0865046 0.13849184 0.009761331
0.5119431 6e-45 0.022599822 0.12130596 3.2855263 0.1457117 0.043941833 6e-45
0.16613343 0.35815307 0.42367604 1.737371 0.16292998 0.32783327 0.05855345 0.6070229
0.51026994 0.4363672 0.03844658 0.25494486 0.25115237 0.9671424 0.7654931 0.08512154
1.7642702 0.47238034 0.4234173 1.1664568 2.0124078 2.1906424 0.0616513 0.53449166
0.38796777 5.039144 0.48156595 1.2126421 0.4133436 0.36345237 0.5739465 0.3339051
0.1615444 0.8221025 0.09380518 0.035269726 0.56448936 3.137074 0.19206426 0.25223225
0.35865304 0.015897855 0.10042665 4.0000143 0.501905 0.014392184 0.6142439 0.33521056
0.36548263 2.1300025 0.13500616 0.16572973 0.1886354 0.10291823 3.6837661 3.6173468
0.1009915 1.493396 0.73113626 6e-45 0.3300204 0.41692275 0.0131970225 0.49474633
0.18439302 0.14157544 0.4696127 6e-45 0.3021276 0.03271116 0.13079461 0.15340823
0.24871197 0.4305052 2.1390123 0.16194746 0.14401992 0.70463955 0.7069141 2.0127027
0.3275632 0.32025808 0.695543 0.042824447 0.101555996 0.04126448 0.38219863 0.6267682
0.35941702 0.98809224 0.38643485 0.014767894 0.15936461 0.12639701 0.44566768 1.5658765
2.4558458 0.04662557 0.015763493 0.7857307 0.20350415 1.1530961 0.06333394 0.1424437
0.24588251 0.8484187 2.5847714 0.0613661 0.36110553 0.17218813 0.09722781 0.08569685
0.24037686 0.14315762 2.0284173 1.7308177 1.1286602 1.1592696 0.98937535 4.8969517
0.022199947 1.3691107 0.006721966 2.2478318 0.16332221 4.502832 0.359667 0.59552324
0.16755244 1.2393835 0.9454763 0.63494873 3.3164096 6e-45 0.20940763 0.17092489
3.0024762 0.010023989 0.5549039 0.42562556 0.4450758 0.30177644 0.06785422 0.70447814
1.2914542 1.7775617 2.0686991 3.2496607 3.0474825 0.32393864 1.4766895 0.24219179
0.2360817 1.904486 0.093007244 0.02633532 0.18386738 1.6773286 0.17584963 0.022465745
0.7328426 0.24106127 0.07961289 0.42130572 1.3139383 0.3969323 0.24134366 0.24778354
0.12035823 6e-45 0.1299864 0.42594364 0.18196857 0.0029723952 0.5842912 0.19183227
0.19626395 0.46897262 1.2918 0.22168529 0.022661597 0.1746523 0.052536715 0.004376274
0.021265067 0.13917722 0.320968 0.9751472 1.3792238 0.24873412 0.0015301753 0.0013132606
6e-45 0.30423954 0.9986006 0.36396545 0.202648 1.1232644 0.19202602 1.3805753
0.512863 4.754495 0.1173698 0.22688267 0.031339474 1.0890539 0.16419834 0.47378397
0.33229607 4.9356556 0.15651764 0.03393957 0.6006464 0.13993436 0.090744786 0.33281952
0.09548689 0.40040198 0.2667049 0.6209423 0.15649244 1.4147074 2.3856804 0.14031598
0.34418437 1.1710848 0.08821643 0.2782518 2.846712 6e-45 1.3225837 2.6125486
0.07185693 6e-45 2.065179 0.36793765 1.94886 0.13624406 0.50004524 0.2516986
00000000: 981a 573d a06b cc3a 39f7 7d3d d8e1 143f
00000010: b0f2 863d 9512 8b3f ced0 0d3e fded 1f3c
00000020: b40e 033f 0400 0000 4323 b93c 426f f83d
00000030: 1046 5240 7335 153e 5afc 333d 0400 0000
00000040: e21e 2a3e d75f b73e 11ec d83e 2c62 de3f
00000050: 1ed7 263e c3d9 a73e bed5 6f3d da65 1b3f
00000060: 0da1 023f 866b df3e 297a 1d3d 2288 823e
00000070: 0b97 803e a596 773f 5bf7 433f 3454 ae3d
00000080: 9bd3 e13f d6db f13e 27ca d83e 754e 953f
00000090: 4acb 0040 7c33 0c40 1386 7c3d 72d4 083f
000000a0: b6a3 c63e ab40 a140 d08f f63e db37 9b3f
000000b0: c6a1 d33e 6e16 ba3e 28ee 123f 9cf5 aa3e
000000c0: e56b 253e 4f75 523f ee1c c03d fd76 103d
000000d0: 6082 103f d2c5 4840 7eac 443e 9624 813e
000000e0: 5fa1 b73e 383c 823c 7dac cd3d 1e00 8040
000000f0: d97c 003f 32cd 6b3c 173f 1d3f b8a0 ab3e
00000100: 8a20 bb3e f651 0840 0e3f 0a3e 0eb5 293e
00000110: a329 413e cbc6 d23d d3c2 6b40 9c82 6740
00000120: a2d4 ce3d 9a27 bf3f bf2b 3b3f 0400 0000
00000130: 6ff8 a83e e676 d53e 5338 583c 644f fd3e
00000140: 86d1 3c3e 27f9 103e 1371 f03e 0400 0000
00000150: 78b0 9a3e 23fc 053d 06ef 053e 0c17 1d3e
00000160: 5aae 7e3e 2d6b dc3e 94e5 0840 8ed5 253e
00000170: f579 133e 4263 343f 53f8 343f 1fd0 0040
00000180: 5db6 a73e def8 a33e 1b0f 323f b068 2f3d
00000190: 97fc cf3d f204 293d 8aaf c33e e173 203f
000001a0: 8205 b83e 9df3 7c3f cada c53e 09f5 713c
000001b0: 7a30 233e 386e 013e 8e2e e43e a46e c83f
000001c0: 942c 1d40 74fa 3e3d 7122 813c a625 493f
000001d0: 6463 503e a798 933f 3ab5 813d c3dc 113e
000001e0: a0c8 7b3e f831 593f e56c 2540 055b 7b3d
000001f0: d3e2 b83e 1652 303e 601f c73d d581 af3d
00000200: 5a25 763e e997 123e 97d1 0140 6f8b dd3f
00000210: f077 903f f262 943f b447 7d3f d4b3 9c40
00000220: aadc b53c 053f af3f f043 dc3b 7adc 0f40
00000230: f03d 273e 3317 9040 4626 b83e 3674 183f
00000240: de92 2b3e 1ea4 9e3f bc0a 723f 008c 223f
00000250: 0e40 5440 0400 0000 f46e 563e ef06 2f3e
00000260: 9228 4040 a83b 243c 2f0e 0e3f 98eb d93e
00000270: fae0 e33e 7182 9a3e 27f7 8a3d ae58 343f
00000280: 5f4e a53f 2487 e33f 9165 0440 71fa 4f40
00000290: f409 4340 49db a53e 2904 bd3f 2001 783e
000002a0: 67bf 713e 32c6 f33f 957a be3d 2bbd d73c
000002b0: bb47 3c3e b4b2 d63f ed11 343e 150a b83c
000002c0: 939b 3b3f c4d8 763e 150c a33d 62b5 d73e
000002d0: 212f a83f b63a cb3e cb22 773e f8ba 7d3e
000002e0: 607e f63d 0400 0000 281b 053e 4915 da3e
000002f0: f855 3a3e 84cc 423b 1c94 153f ae6f 443e
00000300: 6bf9 483e 2e1d f03e b459 a53f 7801 633e
00000310: d0a4 b93c 0dd8 323e bd30 573d d966 8f3b
00000320: 1434 ae3c 7984 0e3e eb55 a43e 3fa3 793f
00000330: 688a b03f 28b4 7e3e 2a90 c83a b721 ac3a
00000340: 0400 0000 49c5 9b3e 4aa4 7f3f ae59 ba3e
00000350: f582 4f3e 21c7 8f3f 78a2 443e b1b6 b03f
00000360: fd4a 033f d324 9840 945f f03d ee53 683e
00000370: d25d 003d 1e66 8b3f 9c23 283e d093 f23e
00000380: b622 aa3e e4f0 9d40 2946 203e 3804 0b3d
00000390: f6c3 193f f44a 0f3e 67d8 b93d 5267 aa3e
000003a0: a18e c33d 7d01 cd3e 8b8d 883e 13f6 1e3f
000003b0: 8e3f 203e 2215 b53f fdae 1840 feae 0f3e
000003c0: ef38 b03e 1be6 953f d1aa b43d 0577 8e3e
000003d0: 8830 3640 0400 0000 6c4a a93f ff33 2740
000003e0: ba29 933d 0400 0000 e52b 0440 5362 bc3e
000003f0: 3f74 f93f 9083 0b3e f702 003f a4de 803e

bn1.running_var f4 [256]
0.02872255 0.0004897808 0.07605186 0.33058557 0.06248818 0.5475517 0.14488344 0.00944105
0.71389896 6e-45 0.006438095 0.096955284 4.172278 0.1742446 0.05699625 6e-45
0.32026428 0.5820185 0.855406 2.9253256 0.13009979 0.5838168 0.046000615 0.965478
0.3426178 0.5353076 0.027664574 0.60013545 0.474595 0.8655731 3.9743423 0.17385052
2.27243 0.4276104 0.567895 1.6137342 2.6354754 2.7343135 0.086541705 0.5200458
0.75906783 12.999695 1.7235433 1.5552723 1.0782171 0.5852929 0.46083996 0.48638976
0.20377895 1.1052284 0.08735241 0.030427866 1.1183351 6.4579735 0.26666844 0.30341387
0.5451944 0.011016646 0.12183966 10.569267 0.79810965 0.010583551 0.54575586 0.21746838
0.21701866 4.5361586 0.044818886 0.30800503 0.20366307 0.14589757 5.462379 3.4659736
0.10459985 2.1279724 1.8757899 6e-45 0.36155066 0.6476806 0.010928847 0.8943577
0.27928975 0.123331144 0.7215216 6e-45 0.4259417 0.018579692 0.061047025 0.17289744
0.30916592 0.5888605 1.6202538 0.17607383 0.23480484 2.0473557 0.705354 1.1761708
0.7961912 0.40364036 0.7733477 0.04862238 0.15690173 0.054279916 0.49735293 1.179748
0.9404907 2.6988828 0.20255578 0.01096911 0.27405247 0.16989636 0.47124165 1.9295114
5.135616 0.052497894 0.0073140827 0.65167767 0.18288288 0.90843314 0.08346328 0.10266649
0.25060052 0.7795285 1.9294573 0.09339294 0.94296956 0.21771225 0.090526156 0.09810508
0.2814562 0.27889448 3.9078963 2.638607 1.0990255 0.8367275 2.0961566 16.42774
0.012122819 2.1613464 0.005472067 1.6757706 0.31111982 10.021074 0.40496442 0.6293854
0.31176144 1.7506058 2.4771938 1.4465743 8.122293 6e-45 0.24902284 0.22520955
2.0671954 0.006443966 0.7976232 0.8033439 0.70856136 0.556868 0.09160921 0.86893207
1.8125132 1.6627154 3.0523567 5.6243987 1.6997268 0.19606715 2.6662202 0.44557464
0.22655416 1.9201908 0.08482846 0.023155365 0.24682097 1.5853269 0.2201723 0.016580187
0.7353418 0.3186123 0.055685613 0.14115314 1.9146587 0.57061785 0.29891166 0.30210087
0.1460822 6e-45 0.09682134 0.4560699 0.3364228 0.0019115563 0.852398 0.41787288
0.19137013 0.1888484 2.275271 0.41217354 0.018133631 0.09605612 0.05620188 0.0042920904
0.017526638 0.17126136 0.6198765 1.2659247 1.8814646 0.4698982 0.0012431669 0.0006305979
6e-45 0.40565285 1.8649446 0.9179886 0.31181145 2.8283257 0.20571579 1.87229
0.61981165 13.478978 0.13726461 0.2636696 0.01876428 1.370884 0.17859305 0.41401747
0.24169274 12.504993 0.26439306 0.018835017 0.8439102 0.11605263 0.07683056 0.7456416
0.14635994 0.5626245 0.6469204 0.64840615 0.15695333 1.1347625 5.340788 0.16176175
0.5161439 1.5320609 0.13943127 0.39314252 5.268759 6e-45 2.0280743 3.7121823
0.087195486 6e-45 3.9911852 0.48133937 3.2859178 0.16612583 0.36947256 0.4169174
00000000: 8e4b eb3c a264 003a 14c1 9b3d 8342 a93e
00000010: 9bf3 7f3d 592c 0c3f 535c 143e a2ae 1a3c
00000020: 15c2 363f 0400 0000 a8f6 d23b 7e90 c63d
00000030: 4d83 8540 2d6d 323e e674 693d 0400 0000
00000040: aef9 a33e 2aff 143f e3fb 5a3f 8938 3b40
00000050: e138 053e 0575 153f 246b 3c3d 9129 773f
00000060: 9a6b af3e eb09 093f d1a0 e23c 7aa2 193f
00000070: 1efe f23e 3396 5d3f a05b 7e40 df05 323e
00000080: 7e6f 1140 c0ef da3e 9161 113f d88e ce3f
00000090: a1ab 2840 fefe 2e40 c73c b13d b921 053f
000000a0: 4552 423f c0fe 4f41 119d dc3f 2a13 c73f
000000b0: 0503 8a3f c1d5 153f 37f3 eb3e 1408 f93e
000000c0: 6eab 503e 2078 8d3f d2e5 b23d dc43 f93c
000000d0: 9b25 8f3f b8a7 ce40 c488 883e 1059 9b3e
000000e0: dc91 0b3f 2a7f 343c 1287 f93d b81b 2941
000000f0: ea50 4c3f a166 2d3c a8b6 0b3f 08b0 5e3e
00000100: 243a 5e3e 3628 9140 0294 373d d6b2 9d3e
00000110: 0d8d 503e 2c66 153e cfcb ae40 83d2 5d40
00000120: 7238 d63d b330 0840 e219 f03f 0400 0000
00000130: 2b1d b93e 65ce 253f e80e 333c a0f4 643f
00000140: 11ff 8e3e 0a95 fc3d a4b5 383f 0400 0000
00000150: 0815 da3e 7034 983c 720c 7a3d 070c 313e
00000160: ff4a 9e3e 90bf 163f 7a64 cf3f b34c 343e
00000170: ae70 703e e007 0340 1492 343f c48c 963f
00000180: 30d3 4b3f f3a9 ce3e 1dfa 453f 4328 473d
00000190: d9aa 203e 9e54 5e3d 0ba5 fe3e fc01 973f
000001a0: 00c4 703f 7fba 2c40 c86a 4f3e c8b7 333c
000001b0: 9b50 8c3e 50f9 2d3e 9646 f13e 3bfa f63f
000001c0: f756 a440 0808 573d f9aa ef3b 59d4 263f
000001d0: a645 3b3e 138f 683f ccee aa3d cf42 d23d
000001e0: b64e 803e 2e8f 473f 75f8 f63f cc44 bf3d
000001f0: 7466 713f f6ef 5e3e c765 b93d 51eb c83d
00000200: 071b 903e 42cb 8e3e f91a 7a40 f0de 2840
00000210: deac 8c3f c633 563f 6e27 0640 036c 8341
00000220: ca9e 463c 8053 0a40 064f b33b a77f d63f
00000230: 194b 9f3e 5256 2041 7f57 cf3e 671f 213f
00000240: 329f 9f3e da13 e03f 588a 1e40 5929 b93f
00000250: eaf4 0141 0400 0000 d8ff 7e3e 559d 663e
00000260: ee4c 0440 e827 d33b 0931 4c3f f2a7 4d3f
00000270: 4764 353f e78e 0e3f 9c9d bb3d 5572 5e3f
00000280: 6f00 e83f dcd3 d43f d059 4340 13fb b340
00000290: a690 d93f d4c5 483e 5aa3 2a40 5c22 e43e
000002a0: d0fd 673e d0c8 f53f 8bba ad3d 52b0 bd3c
000002b0: a3be 7c3e feeb ca3f d974 613e 2cd3 873c
000002c0: 5c3f 3c3f 2721 a33e 9916 643d 738a 103e
000002d0: 8913 f53f 0314 123f f30a 993e f7ac 9a3e
000002e0: 9296 153e 0400 0000 444a c63d fe81 e93e
000002f0: 9c3f ac3e 308d fa3a c136 5a3f 6ff3 d53e
00000300: 88f6 433e 7a61 413e 0a9e 1140 6908 d33e
00000310: fb8c 943c 12b9 c43d f133 663d aaa4 8c3b
00000320: 0694 8f3c 235f 2f3e 3ab0 1e3f d209 a23f
00000330: d5d3 f03f 7f96 f03e c2f1 a23a b54e 253a
00000340: 0400 0000 bbb1 cf3e 81b6 ee3f 4d01 6b3f
00000350: c0a5 9f3e 4a03 3540 29a7 523e 33a7 ef3f
00000360: faab 1e3f e5a9 5741 188f 0c3e b4ff 863e
00000370: 8cb7 993c 2079 af3f 19e1 363e 19fa d33e
00000380: 4d7e 773e 7414 4841 875e 873e e54b 9a3c
00000390: 800a 583f 00ad ed3d 5759 9d3d 5ee2 3e3f
000003a0: 61df 153e 2908 103f 939c 253f f2fd 253f
000003b0: 60b8 203e e63f 913f bce7 aa40 dfa4 253e
000003c0: 0222 043f 921a c43f 12c7 0e3e fa49 c93e
000003d0: ac99 a840 0400 0000 f8cb 0140 6594 6d40
000003e0: 8c93 b23d 0400 0000 946f 7f40 1d72 f63e
000003f0: 7a4c 5240 e41c 2a3e 822b bd3e 3376 d53e

fc1.weight f4 [256, 24]
0.20514822 -0.011980119 -0.035835784 0.0057103867 0.05915382 -0.07826249 0.044215824 -0.014125482
0.15778299 -0.048338484 -0.01708988 -0.036866527 -0.0056910473 0.02909991 -0.034928557 -0.03028276
0.03508934 -0.08807027 0.0325236 -0.00088462775 0.0005393861 0.13821982 -0.010360626 0.008794482
0.10830704 0.063756265 -0.053321075 0.05184798 -0.01441329 0.0150257265 0.032279897 0.017727813
0.06378982 0.059793003 0.008631614 0.0012306592 -0.023625685 -0.035690855 -0.018707007 0.03647245
0.15940817 0.08374786 0.013446359 0.005447794 -0.08020117 -0.0063598435 -0.019324895 -0.06661437
-0.073575005 -0.017591674 0.032471966 -0.045672994 0.0044358866 -0.09135482 -0.06464309 -0.031190744
0.010762669 0.021127824 -0.0026221352 0.005840814 0.01467494 -0.07460424 0.012764016 -0.089484386
0.020146282 0.08781846 -0.0075307246 0.087198235 0.072209165 -0.13141315 -0.039188404 -0.00404324
-0.077953175 0.10942473 -0.0005805789 0.11825213 -0.0065328307 0.016793577 0.022148112 0.027510716
-0.011322659 0.1441089 0.0033182579 -0.01597895 0.012727015 -0.009558872 -0.014977225 -0.05436275
0.040492237 0.06581131 -0.0039204196 0.03781124 0.046631984 0.15511614 -0.006029355 0.022738177
-0.06887404 -0.013610393 -0.004413886 -0.033147458 -0.06737178 -0.06219034 0.004831977 0.017217984
-0.011974542 0.067204826 -0.04251185 -0.05387029 0.0013250763 -0.12554964 0.03155713 0.035760984
0.031911172 0.09132903 -0.031406157 0.081147075 -0.02125415 -0.15313007 0.018527007 0.029667828
-0.061821695 0.053581003 0.014416005 -0.051638953 0.051179998 0.17689618 -0.01998833 -0.06545338
-0.03496839 0.09388233 -0.019922214 -0.025931686 -0.020054003 0.109288074 0.02858073 0.0006460982
0.08995696 0.019368913 0.012347014 0.068317965 -0.08040443 0.060478814 -0.017882705 0.043495364
0.012008081 0.17722332 -0.049667716 -0.055664692 0.024744304 0.006603174 0.048801906 -0.069312386
0.09481722 0.16768132 -0.023189418 0.008195649 0.086121775 -0.13890176 0.027235456 -0.050288774
0.04295045 0.028573198 -0.03228375 -0.064062 -0.0014301606 -0.029732954 0.039161183 -0.07068381
0.09657504 0.036587954 -0.08114798 -0.032987867 0.044446643 -0.15050788 0.021849979 -0.02722874
-0.006327434 0.1311635 -0.013314307 -0.006036579 0.016059479 -0.01375478 0.026499847 -0.01828662
0.08485384 0.040844705 -0.045468792 0.03222678 -0.032975398 -0.04421052 0.0032368125 0.0042293975
-0.09458767 -0.017899865 0.023813717 -0.042058535 0.0010962397 0.0026310163 -0.016797442 0.0015627326
-0.08443069 -0.023216996 -0.05827095 -0.119885445 0.03466245 -0.059566833 0.014243255 -0.05179094
0.07431626 -0.114650056 -0.02758848 -0.08254781 -0.0025517477 -0.018399762 0.058192514 -0.01905346
0.12533529 0.04197397 -0.03012046 -0.02244286 -0.025800986 0.018755315 0.014346921 -0.0052646194
0.11591788 0.05143188 -0.037921518 0.06362301 0.052889675 0.035021096 0.026751209 -0.033203065
0.18224378 0.087779276 -0.022511492 -0.026753198 -0.021959495 -0.010096154 0.015523941 0.060930483
0.23884882 0.046941813 0.010486746 0.007267529 0.053267956 0.009499269 -0.007676586 -0.005929602
0.15591398 0.012791694 -0.018101372 -0.0063985265 0.022475252 0.007920227 0.022961058 0.000110848065
00000000: 6012 523e 4348 44bc 8bc8 12bd 321e bb3b
00000010: 474b 723d 1648 a0bd a71b 353d 916e 67bc
00000020: dd91 213e 93fe 45bd 1300 8cbc 5b01 17bd
00000030: f77b babb ef62 ee3c 3f11 0fbd 8d13 f8bc
00000040: d7b9 0f3d 305e b4bd 7737 053d 5de6 67ba
00000050: 9765 0d3a 7f89 0d3e 9dbf 29bc bb16 103c
00000060: 15d0 dd3d a592 823d 3367 5abd 8c5e 543d
00000070: b825 6cbc 772e 763c ed37 043d eb39 913c
00000080: 3da4 823d 82e9 743d 9d6b 0d3c 124e a13a
00000090: a78a c1bc 9330 12bd 703f 99bc 2364 153d
000000a0: e53b 233e ff83 ab3d 1e4e 5c3c 6983 b23b
000000b0: 8340 a4bd 3c66 d0bb 3e4f 9ebc 1d6d 88bd
000000c0: 7eae 96bd 6a1c 90bc 5301 053d 9b13 3bbd
000000d0: ea5a 913b 3c18 bbbd 9963 84bd bb83 ffbc
000000e0: e855 303c 4214 ad3c 21d8 2bbb 4d64 bf3b
000000f0: 296f 703c 1cca 98bd 2a20 513c 9743 b7bd
00000100: d109 a53c 2ada b33d 4cc4 f6bb fd94 b23d
00000110: 66e2 933d 2b91 06be 0584 20bd 287d 84bb
00000120: eaa5 9fbd 131a e03d fe31 18ba 2c2e f23d
00000130: 5b11 d6bb af92 893c f56f b53c 275e e13c
00000140: ad82 39bc 4991 133e 2177 593b 49e6 82bc
00000150: f884 503c d19c 1cbc 0963 75bc 7aab 5ebd
00000160: 30db 253d 15c8 863d dd76 80bb f5df 1a3d
00000170: 2e01 3f3d c4d6 1e3e e591 c5bb 6a45 ba3c
00000180: d50d 8dbd 20fe 5ebc 5ca2 90bb a1c5 07bd
00000190: 37fa 89bd 4cbb 7ebd 9055 9e3b bb0c 8d3c
000001a0: df30 44bc afa2 893d e820 2ebd 18a7 5cbd
000001b0: 2fae ad3a 1690 00be 0d42 013d 1c7a 123d
000001c0: 4ab5 023d b70a bb3d bea3 00bd 7030 a63d
000001d0: 2f1d aebc 21ce 1cbe f3c5 973c f209 f33c
000001e0: bf38 7dbd c177 5b3d 1c31 6c3c 5e83 53bd
000001f0: 1ea2 513d 4624 353e 91be a3bc 6c0c 86bd
00000200: 043b 0fbd 6145 c03d e933 a3bc b06e d4bc
00000210: 4b48 a4bc 6dd2 df3d 2322 ea3c eb5e 293a
00000220: 5b3b b83d 8eab 9e3c 214b 4a3c 4aea 8b3d
00000230: 14ab a4bd a2b8 773d c07e 92bc 3228 323d
00000240: 8bbd 443c 087a 353e 6070 4bbd a900 64bd
00000250: 91b4 ca3c 705f d83b 82e4 473d a7f3 8dbd
00000260: 882f c23d a7b4 2b3e bcf7 bdbc 0b47 063c
00000270: 9d60 b03d 433c 0ebe e41c df3c 9afb 4dbd
00000280: d0ec 2f3d 5712 ea3c f73b 04bd f032 83bd
00000290: 3a74 bbba 8692 f3bc 7a67 203d acc2 90bd
000002a0: 22c9 c53d 40dd 153d ea30 a6bd 491e 07bd
000002b0: af0d 363d bd1e 1abe bafe b23c ce0e dfbc
000002c0: 5d56 cfbb b94f 063e 4024 5abc 7fce c5bb
000002d0: 2b8f 833c bb5b 61bc 3516 d93c d2cd 95bc
000002e0: dac7 ad3d c74c 273d 7c3d 3abd 3a00 043d
000002f0: 3611 07bd 1716 35bd b420 543b c296 8a3b
00000300: 2eb7 c1bd bda2 92bc fc14 c33c 9245 2cbd
00000310: b3af 8f3a 216d 2c3b ca9a 89bc 9bd4 cc3a
00000320: ffe9 acbd 9231 bebc 85ad 6ebd 8086 f5bd
00000330: 37fa 0d3d 5afc 73bd 8b5c 693c bd22 54bd
00000340: 2033 983d a6cd eabd 3c01 e2bc d40e a9bd
00000350: 393b 27bb 19bb 96bc 465b 6e3d 0016 9cbc
00000360: e557 003e e6ec 2b3d 2fbf f6bc 17da b7bc
00000370: 975c d3bc bfa4 993c 590f 6b3c d482 acbb
00000380: 5a66 ed3d 3caa 523d 9853 1bbd c84c 823d
00000390: d8a2 583d 4872 0f3d 5a25 db3c f0ff 07bd
000003a0: 1d9e 3a3e 9fc5 b33d 056a b8bc 8629 dbbc
000003b0: 66e4 b3bc 576a 25bc 2158 7e3c 3e92 793d
000003c0: c994 743e 0f46 403d 9ad0 2b3c 7424 ee3b
000003d0: 802f 5a3d d2a2 1b3c df8b fbbb 1b4d c2bb
000003e0: eaa7 1f3e 4194 513c 5449 94bc bbaa d1bb
000003f0: 051e b83c d7c3 013c d418 bc3c 1a77 e838

fc1.bias f4 [256]
0.01173763 -0.18288052 0.05264352 -0.13429761 0.09919172 -0.17531753 0.10876217 -0.20493093
-0.13943549 -0.085270494 -0.043181106 -0.22127485 0.24534006 -0.17363131 -0.033451576 -0.23317513
-0.0462995 -0.124626994 -0.16708636 0.09984608 -0.38219914 0.026853658 -0.0025353348 -0.1262395
0.13983613 0.10329147 -0.013711156 -0.10713321 0.11308563 -0.18239382 -0.19192101 0.19052327
-0.11591592 -0.0028718081 0.0016043414 0.15394351 0.2100226 -0.10561264 -0.05822998 -0.17825086
0.098556146 0.10708232 -0.18780392 -0.03824212 -0.025074206 -0.18419972 0.11992479 -0.21126334
-0.094562344 -0.07846907 -0.34432024 -0.0787168 0.075683944 -0.1596167 0.07748086 -0.09578055
0.11634993 -0.28429773 0.19801871 -0.11300994 0.25784132 -0.12416524 -0.09187368 0.006615942
0.054168735 -0.036812074 0.017658506 -0.13003102 -0.3430388 -0.051246483 0.3056857 0.24023326
-0.23131524 0.07340756 0.14451997 -0.08010659 -0.060710855 -0.09974131 -0.13091369 -0.2571474
-0.10025374 0.1784954 0.14248675 -0.19845411 -0.10026114 0.1198255 -0.13016853 -0.05692652
0.04068827 0.22427171 0.22366342 -0.18960756 -0.21598984 0.061941285 -0.11944975 0.20891844
0.08881793 -0.12519524 0.015816875 0.14037018 -0.18181284 0.09237565 -0.004082068 -0.12889105
-0.19391763 0.14345701 -0.31587532 -0.010498776 -0.09905711 -0.11635083 -0.01597902 0.1506583
-0.20751633 -0.18827312 0.20136257 -0.15021686 -0.24543567 0.08139451 -0.1027985 0.07708752
-0.1136409 0.18334407 0.30182147 0.07955316 -0.23856041 0.025195336 -0.024566252 -0.1065256
0.18639345 -0.040450167 0.17259778 -0.053868767 -0.09347877 -0.07207788 0.027839936 0.1192414
0.05430139 0.038741693 -0.2522289 0.35845044 0.12894866 0.067267545 0.0072806436 -0.12786043
-0.292368 -0.055254318 -0.13373657 0.031863444 -0.17909862 -0.30305815 -0.19060808 0.14340924
0.19138195 -0.2758854 -0.15596707 0.045761585 -0.050979614 -0.19757593 -0.031126771 -0.17172842
0.06002839 -0.0646033 0.19917043 -0.17853722 0.17286609 -0.031647306 0.18265139 0.1566966
-0.22448663 0.036072616 -0.11693818 0.022339536 -0.05085198 0.12771715 -0.04061064 0.060102563
0.00030785467 0.107935965 -0.24815573 -0.21483824 -0.25754744 0.15561575 -0.05329559 0.01788785
0.009664254 -0.058172498 0.074068315 -0.18291515 0.07021809 -0.30780295 -0.30369365 -0.059040774
0.11069306 -0.26151633 0.20025408 -0.124612786 -0.24307431 -0.11462376 0.021678803 -0.121480584
0.054317936 -0.14117369 0.00673291 -0.14604595 -0.21404114 0.1320685 -0.22803368 -0.25814015
-0.10579575 0.19816029 0.120653726 0.032780655 -0.27230757 0.15677142 0.056498293 0.14127344
0.0877286 0.08094056 0.016724821 -0.021249808 -0.32630426 0.05282258 -0.20869689 -0.079997204
-0.071535386 0.13384445 -0.16301313 -0.20212571 0.065527946 0.094340496 -0.042491872 -0.04393662
0.09001802 -0.02709281 -0.11393131 0.019720526 0.25806466 -0.091934934 0.10187683 0.04200733
-0.021594323 -0.1392374 -0.2140798 0.078394435 -0.07878241 -0.28582335 -0.10855043 0.011342739
-0.19210343 -0.11209586 -0.12418159 -0.013281195 0.06607069 -0.044771954 0.08581668 -0.12959452
00000000: 304f 403c 0845 3bbe bba0 573d 5085 09be
00000010: 0725 cb3d 7086 33be b3be de3d 6ad9 51be
00000020: 2dc8 0ebe 4ca2 aebd acde 30bd e095 62be
00000030: 6d3a 7b3e 68cc 31be 8504 09bd 76c5 6ebe
00000040: 8ba4 3dbd 703c ffbd b018 2bbe 1a7c cc3d
00000050: 9baf c3be 34fc db3c dc27 26bb ed44 01be
00000060: 3431 0f3e 7a8a d33d c2a4 60bc a868 dbbd
00000070: 7099 e73d 72c5 3abe f186 44be 8818 433e
00000080: 5365 edbd f234 3cbb c448 d23a 5ea3 1d3e
00000090: 2a10 573e 714b d8bd 8f82 6ebd 6587 36be
000000a0: ced7 c93d fa4d db3d ac4f 40be c5a3 1cbd
000000b0: 6c68 cdbc da9e 3cbe 219b f53d 6b55 58be
000000c0: e7a9 c1bd 64b4 a0bd be4a b0be 4636 a1bd
000000d0: 2f00 9b3d 8f72 23be 49ae 9e3d 9828 c4bd
000000e0: df48 ee3d 798f 91be 6bc5 4a3e c171 e7bd
000000f0: c703 843e 584a febd 4528 bcbd 8bca d83b
00000100: 09e0 5d3d 42c8 16bd 92a8 903c da26 05be
00000110: c8a2 afbe d5e7 51bd d682 9c3e b5ff 753e
00000120: e7dd 6cbe b456 963d 0bfd 133e ed0e a4bd
00000130: f2ab 78bd 2c45 ccbd 3d0e 06be d3a8 83be
00000140: d551 cdbd 80c7 363e 0ce8 113e 8e37 4bbe
00000150: b655 cdbd 1267 f53d e64a 05be c82b 69bd
00000160: bea8 263d 7ca7 653e 0608 653e 7c28 42be
00000170: 712c 5dbe 25b6 7d3d 12a2 f4bd b7ee 553e
00000180: 2de6 b53d 2e33 00be 6492 813c 33bd 0f3e
00000190: 252d 3abe 722f bd3d dec2 85bb 04fc 03be
000001a0: 5892 46be 65e6 123e 69ba a1be 0f03 2cbc
000001b0: 74de cabd 5849 eebd 6fe6 82bc 2b46 1a3e
000001c0: 297f 54be abca 40be fd31 4e3e 73d2 19be
000001d0: 7d53 7bbe 2ab2 a63d 0588 d2bd 10e0 9d3d
000001e0: 8fbc e8bd 8cbe 3b3e 5888 9a3e c4ec a23d
000001f0: 2e49 74be 7366 ce3c 2a3f c9bc 182a dabd
00000200: eddd 3e3e 13af 25bd 79bd 303e 7fa5 5cbd
00000210: cc71 bfbd 919d 93bd 9410 e43c d634 f43d
00000220: 226b 5e3d 9caf 1e3d 2524 81be d186 b73e
00000230: 1e0b 043e 91c3 893d 7792 ee3b d8ed 02be
00000240: 42b1 95be 5a52 62bd 3df2 08be 3e83 023d
00000250: a165 37be 702a 9bbe c42e 43be dfd9 123e
00000260: a1f9 433e da40 8dbe d5b5 1fbe 8070 3b3d
00000270: 00d0 50bd 5851 4abe 92fd febc 93d9 2fbe
00000280: 54e0 753d bc4e 84bd 55f3 4b3e 76d2 36be
00000290: cf03 313e 9ba0 01bd f708 3b3e 1375 203e
000002a0: d3df 65be e1c0 133d 497d efbd 6701 b73c
000002b0: 2a4a 50bd 49c8 023e 5857 26bd 1b2e 763d
000002c0: 8e67 a139 880d dd3d 891c 7ebe 8efe 5bbe
000002d0: 42dd 83be bc59 1f3e 7a4c 5abd 8a89 923c
000002e0: d256 1e3c 4946 6ebd 21b1 973d 1c4e 3bbe
000002f0: 81ce 8f3d 5998 9dbe bc7d 9bbe bdd4 71bd
00000300: 0bb3 e23d 78e5 85be 680f 4d3e fd34 ffbd
00000310: 79e8 78be ddbf eabd bf97 b13c d0ca f8bd
00000320: 7c7c 5e3d d68f 10be be9f dc3b 128d 15be
00000330: 9a2d 5bbe f73c 073e a981 69be f22a 84be
00000340: 71ab d8bd 88ea 4a3e 4d19 f73d 0245 063d
00000350: e66b 8bbe b088 203e c16a 673d fca9 103e
00000360: 0dab b33d 2ac4 a53d 7e02 893c 1414 aebc
00000370: 5a11 a7be 7d5c 583d a3b4 55be 93d5 a3bd
00000380: 2581 92bd 850e 093e eaec 26be 0bfa 4ebe
00000390: 8433 863d 9735 c13d f50b 2ebd e3f6 33bd
000003a0: 5e5b b83d bef1 ddbc d254 e9bd f18c a13c
000003b0: 0d21 843e 6248 bcbd cda4 d03d e10f 2c3d
000003c0: 94e6 b0bc 4094 0ebe bc37 5bbe 438d a03d
000003d0: ac58 a1bd 7057 92be b04f debd e5d6 393c
000003e0: c3b6 44be 8492 e5bd eb52 febd 5f99 59bc
000003f0: 1250 873d cc62 37bd a8c0 af3d 6db4 04be

fc2.weight f4 [128, 256]
0.01727977 -0.045002393 -0.03411577 -0.07799375 -0.04786506 0.021326441 0.10210951 -0.06467096
0.15646333 0.030435512 -0.009494738 0.03343565 -0.042152394 -0.23608111 0.11815344 -0.07297736
0.08240785 0.0014715956 0.07770425 -0.20485254 0.085285336 0.032421276 -0.04114392 -0.0032837337
0.01494896 -0.14245565 0.08211153 0.107159324 0.041013245 -0.00088354805 0.10210398 -0.13856716
-0.05390292 -0.05327282 0.0755876 0.08564691 -0.025108632 0.09110379 0.104715705 0.13386081
-0.02586641 0.0632785 -0.039134845 -0.13353427 0.00819112 0.022885844 0.08220253 0.014884849
0.028362215 -0.022587324 -0.011190129 -0.004642452 -0.006519609 0.03996631 -0.11911991 -0.10809878
-0.015306903 0.0013676808 -0.034236 -0.0575457 -0.17764677 0.17054869 0.08892574 0.058624946
0.1519455 0.009465424 0.01927147 -0.08487411 -0.04692606 -0.19090109 0.059219606 -0.086113825
-0.00022018407 -0.03824667 0.119805634 -0.077794835 -0.12121797 -0.009636978 0.16846876 0.0662498
0.018768094 -0.10529889 0.05198657 -0.1590549 0.13772878 -0.24009094 0.067256376 -0.12149296
-0.18158503 0.06351941 0.032876823 0.06432632 0.11207266 0.12187321 0.04947394 -0.13939604
-0.054995537 0.006150905 0.16752951 -0.0508608 0.0046702344 -0.12321584 -0.09479274 0.120220736
0.09243798 0.06561731 -0.028439494 -0.0915695 0.03458127 0.06509541 -0.034500193 -0.06399711
-0.13107161 0.07503315 -0.09201652 -0.14062136 -0.025610903 0.103398375 0.0040127817 -0.05168545
-0.2477973 -0.14109397 0.06003125 -0.03957017 -0.0021329424 -0.13450593 0.044936586 0.061167546
0.12553911 0.054257344 -0.079261504 -0.011253547 -0.118400075 0.11204481 -0.028325183 0.0057099997
-0.122662984 -0.13593096 0.044109043 0.0933215 -0.14050287 -0.070838474 -0.017471509 0.14064798
0.002170311 0.053836606 0.0011423207 0.018593272 0.06639761 0.0485989 0.16870072 0.04420482
-0.0021723534 0.21788576 0.030846437 -0.06326314 0.072586484 0.04496672 0.07513698 -0.06260626
-0.100017674 0.0617922 -0.05020731 -0.089253105 0.05059124 0.002668177 0.03176636 -0.09840779
0.049130198 -0.14568113 -0.1331936 0.067286976 0.033232514 -0.04157259 0.1449386 0.14826716
0.06786729 -0.087058246 0.102924235 -0.039967906 -0.02674649 -0.14802484 -0.018685842 -0.14136203
0.011043287 0.11948894 0.07114642 0.045097705 -0.16215922 0.15458667 0.026510429 -0.13937372
0.12862377 -0.005617463 0.08742808 -0.031985503 0.15834454 -0.0009546073 -0.017568104 0.054956555
-0.1109728 0.16135728 0.096567325 -0.107945815 -0.027476478 0.070417255 -0.11219833 0.13432641
-0.12287091 -0.034176573 0.011763996 -0.10306048 -0.06716975 0.0125617245 -0.024650892 0.038638335
-0.040771678 0.09666372 -0.0041783596 -0.019158173 0.21886517 -0.07520951 -0.019832928 0.018744629
0.11090236 -0.07257135 -0.03641458 -0.004588043 0.088935435 0.109045155 -0.0005415365 -0.1274151
0.15533501 -0.03301721 0.14526466 -0.10618905 -0.115364596 -0.0054713027 0.06734188 0.16328865
-0.054154072 0.012068022 -0.15394066 0.037075177 0.047372 -0.03952793 -0.044975087 -0.03527233
-0.012464511 -0.03084093 -0.1512327 -0.03056553 -0.01844638 0.11553002 -0.17619869 -0.0047106612
00000000: 4e8e 8d3c 6e54 38bd fabc 0bbd 30bb 9fbd
00000010: 270e 44bd cab4 ae3c ca1e d13d 3572 84bd
00000020: ec37 203e e553 f93c d18f 1bbc d2f3 083d
00000030: fda7 2cbd 3fbf 71be 6efa f13d 2775 95bd
00000040: 72c5 a83d 8ee2 c03a 6823 9f3d ddc4 51be
00000050: 14aa ae3d 2ccc 043d 8786 28bd e933 57bb
00000060: 7cec 743c e5df 11be 172a a83d 5976 db3d
00000070: 81fd 273d e89d 67ba e41b d13d 8de4 0dbe
00000080: 4fc9 5cbd 9a34 5abd accd 9a3d a667 af3d
00000090: 9eb0 cdbc a094 ba3d 3075 d63d cf12 093e
000000a0: cbe5 d3bc 2998 813d dc4b 20bd 35bd 08be
000000b0: 0c34 063c 187b bb3c cd59 a83d 95df 733c
000000c0: e057 e83c 0d09 b9bc ce56 37bc b61f 98bb
000000d0: 72a2 d5bb b7b3 233d 24f5 f3bd e562 ddbd
000000e0: cec9 7abc c143 b33a 0c3b 0cbd 0ab5 6bbd
000000f0: 09e9 35be 51a4 2e3e b31e b63d b620 703d
00000100: 9a97 1b3e de14 1b3c 34df 9d3c 7ad2 adbd
00000110: 8a35 40bd 937b 43be 4290 723d 725c b0bd
00000120: 36e1 66b9 8aa8 1cbd a85c f53d e652 9fbd
00000130: 2141 f8bd 6ae4 1dbc 1383 2c3e faad 873d
00000140: 8cbf 993c f2a6 d7bd dfef 543d 4adf 22be
00000150: c608 0d3e 66da 75be b6bd 893d 4dd1 f8bd
00000160: 6df1 39be 7716 823d d9a9 063d 85bd 833d
00000170: 5a86 e53d a998 f93d 30a5 4a3d d6bd 0ebe
00000180: 0043 61bd 888d c93b db8c 2b3e 6a53 50bd
00000190: c408 993b 9658 fcbd b222 c2bd 4a36 f63d
000001a0: 2050 bd3d 5e62 863d f1f9 e8bc ca88 bbbd
000001b0: 17a5 0d3d be50 853d 1350 0dbd eb10 83bd
000001c0: a337 06be fbaa 993d 2873 bcbd 0cff 0fbe
000001d0: f5cd d1bc 87c2 d33d a77d 833b 1fb4 53bd
000001e0: 93be 7dbe f07a 10be 54e3 753d 5514 22bd
000001f0: d6c8 0bbb ecbb 09be 6d0f 383d d28a 7a3d
00000200: 538d 003e f33c 5e3d db53 a2bd cc60 38bc
00000210: bd7b f2bd c077 e53d 370a e8bc f31a bb3b
00000220: bb36 fbbd 7c31 0bbe afab 343d 581f bf3d
00000230: fcdf 0fbe c313 91bd 6920 8fbc 0606 103e
00000240: c73b 0e3b c683 5c3d ecb9 953a eb50 983c
00000250: 78fb 873d a40f 473d e2bf 2c3e 1d10 353d
00000260: 0b5e 0ebb 721d 5f3e abb1 fc3c 1b90 81bd
00000270: 39a8 943d 062f 383d 6be1 993d b637 80bd
00000280: 11d6 ccbd d119 7d3d 2ea6 4dbd 55ca b6bd
00000290: c338 4f3d 95dc 2e3b 711d 023d 068a c9bd
000002a0: bf3c 493d 6f2d 15be e763 08be c1cd 893d
000002b0: d11e 083d 0548 2abd c96a 143e 59d3 173e
000002c0: 01fe 8a3d 984b b2bd f1c9 d23d 63b5 23bd
000002d0: 741b dbbc d393 17be 0d13 99bc 35c1 10be
000002e0: e7ee 343c 9eb6 f43d 37b5 913d 5fb8 383d
000002f0: 110d 26be f84b 1e3e 662c d93c fcb7 0ebe
00000300: f3b5 033e b212 b8bb 7e0d b33d 3b03 03bd
00000310: 1225 223e 9d3e 7aba fcea 8fbc 201a 613d
00000320: b545 e3bd d83a 253e 17c5 c53d b212 ddbd
00000330: 5a16 e1bc ec36 903d 3dc8 e5bd dd8c 093e
00000340: bea3 fbbd bcfc 0bbd c7bd 403c 5f11 d3bd
00000350: 4b90 89bd b1cf 4d3c abf0 c9bc 3b43 1e3d
00000360: 3400 27bd a1f7 c53d 9fea 88bb 9af1 9cbc
00000370: 311e 603e 7207 9abd aa78 a2bc 568e 993c
00000380: c720 e33d 4aa0 94bd 7427 15bd 4b57 96bb
00000390: c823 b63d 1153 df3d e6f5 0dba 1b79 02be
000003a0: 2410 1f3e 0e3d 07bd 42c0 143e a579 d9bd
000003b0: 4644 ecbd 9d48 b3bb 8aea 893d 2435 273e
000003c0: a9d0 5dbd f4b8 453c 9fa2 1dbe 24dc 173d
000003d0: 2409 423d 0ae8 21bd cc37 38bd b879 10bd
000003e0: f337 4cbc 1ea6 fcbc bfdc 1abe 9064 fabc
000003f0: dd1c 97bc 019b ec3d 6e6d 34be e45b 9abb

fc2.bias f4 [128]
0.004788446 0.17257823 0.11172665 0.030755403 0.0923014 0.025102545 -0.010876466 -0.0058540674
-0.028634617 -0.09078922 -0.0059800707 0.08675633 -0.036601994 0.14807847 -0.040019955 -0.0012254724
-0.058905635 0.05817143 0.03032606 0.04671867 0.027220959 0.01880335 0.034884438 0.01876241
0.07042177 0.090894334 -0.013197475 0.06572857 0.01143326 -0.017904894 0.05521168 0.16104008
0.037290357 0.013928092 0.19240865 -0.00980829 0.12908916 0.03659223 -0.022189343 0.125536
0.011802088 0.06422265 0.042696048 -0.06878421 0.025596738 0.08019875 0.11560369 -0.03643778
0.078038335 0.00043984567 -0.047345553 -0.0016349636 -0.017993769 0.0058888267 0.06878007 0.09187122
0.07388794 -0.04594869 0.026662221 0.12604485 -0.0050786766 0.11979156 -0.0599749 0.26095647
0.03577193 0.053521816 -0.0065164454 0.1138726 -0.041739207 0.19817543 0.02641063 0.034915168
0.031121014 0.07305488 -0.014797253 0.02125475 0.012657817 0.015196501 0.02784105 0.0032429602
0.020390384 0.002590173 0.024350774 0.032955997 0.06500871 0.06631777 0.050730135 0.0070366976
0.033514347 0.03383028 -0.011577237 -0.037153244 0.0050720065 -0.05280716 0.061597914 -0.025202382
0.05037763 0.08309693 0.06703192 0.09742676 0.23431979 0.051400624 0.051962327 0.11202909
-0.018160518 -0.019243265 -0.052956272 -0.127657 0.026023332 0.03784895 -0.014996261 0.16570637
-0.06968821 0.016892876 -0.0020020106 -0.031539388 0.028207842 0.05245746 0.08565863 -0.03554764
0.02580553 0.0998322 -0.017059514 -0.009946336 0.06769927 -0.0031392304 -0.023974124 0.040554345
00000000: 65e8 9c3b 59b8 303e f1d0 e43d c1f2 fb3c
00000010: 8408 bd3d daa3 cd3c 3433 32bc 7ad3 bfbb
00000020: 2593 eabc b3ef b9bd 78f4 c3bb 4ead b13d
00000030: f9eb 15bd e2a1 173e f7eb 23bd 08a0 a0ba
00000040: 0947 71bd 2a45 6e3d 5b6e f83c 135c 3f3d
00000050: 7dfe de3c 7c09 9a3c fce2 0e3d a0b3 993c
00000060: 4a39 903d cf26 ba3d 393a 58bc b39c 863d
00000070: 9152 3b3c 49ad 92bc a425 623d b1e7 243e
00000080: c6bd 183d a732 643c c606 453e f3b2 20bc
00000090: f32f 043e bce1 153d 6dc6 b5bc 828c 003e
000000a0: 8b5d 413c 2a87 833d 0de2 2e3d bcde 8cbd
000000b0: 40b0 d13c 3e3f a43d a1c1 ec3d c83f 15bd
000000c0: 90d2 9f3d 169b e639 69ed 41bd 464c d6ba
000000d0: ab67 93bc 0ff7 c03b 91dc 8c3d fa26 bc3d
000000e0: 8f52 973d b234 3cbd bb6a da3c e711 013e
000000f0: 076b a6bb 4755 f53d 3ea8 75bd 169c 853e
00000100: 9685 123d b139 5b3d e887 d5bb 0a36 e93d
00000110: bbf6 2abd 80ee 4a3e 1b5b d83c 3503 0f3d
00000120: 7ff1 fe3c cc9d 953d 2d70 72bc 711e ae3c
00000130: bc62 4f3c bffa 783c ea12 e43c d887 543b
00000140: bc09 a73c e4bf 293b 467b c73c defc 063d
00000150: 4923 853d 9cd1 873d 67ca 4f3d 1994 e63b
00000160: 5746 093d 9f91 0a3d 74ae 3dbc 002e 18bd
00000170: 1333 a63b 524c 58bd 184e 7c3d 3a75 cebc
00000180: c658 4e3d b92e aa3d 0848 893d ae87 c73d
00000190: 87f1 6f3e 7689 523d 73d6 543d 826f e53d
000001a0: 5ec5 94bc 0da4 9dbc ade8 58bd 84b8 02be
000001b0: e22e d53c 8007 1b3d e1b2 75bc eeae 293e
000001c0: b1b8 8ebd ee62 8a3c 2a34 03bb 722f 01bd
000001d0: 2214 e73c a2dd 563d cb6d af3d 679a 11bd
000001e0: 1e66 d33c d374 cc3d 65c0 8bbc f5f5 22bc
000001f0: eaa5 8a3d 8cbb 4dbb 6265 c4bc 501c 263d
