weights/checkpoint_critic_1.pth (torch_old, 101409 bytes, 17 tensors)

bn0.weight f4 [48]
00000000: 6e0e 313f f8b9 643f f3a7 cb3e c0df 173f
00000010: 2d47 053f d4c9 4a3f 6165 c23e 63ce 073f
00000020: f0a1 1b3f eb12 493e 4205 1e3f 8683 eb3e
00000030: a306 493f f71f d53e 803b 013f 67bd b13e
00000040: 1498 5f3f 5228 1e3f 3071 883e 93c8 f43e
00000050: 4efc 003f 14c4 4d3f d294 ea3e 5621 2b3f
00000060: baa7 353e e261 f63e 9971 4b3e 3dee 9a3e
00000070: cba6 293f 3714 813e c831 363f 46ab 123e
00000080: ac24 3e3f 7f1e 173f 3898 a13e 23b0 2b3f
00000090: 7799 dd3e c0d5 5b3f c7ac 073f 1c1e 1f3e
000000a0: 0324 483f f1c6 ca3e 0f7d 0d3f ab46 3e3f
000000b0: 4cbb 8a3f d89a 303f 0813 1d3f 12e6 013f
0.6916264 0.89346266 0.39776573 0.5932579 0.5206173 0.79214215 0.3796797 0.53049296
0.6079397 0.19636123 0.6172677 0.45998782 0.7852575 0.4162595 0.50481415 0.34714815
0.8734143 0.61780274 0.26648855 0.47809276 0.50384986 0.80377316 0.45816666 0.6684774
0.17739764 0.48121554 0.19867553 0.30259886 0.6627013 0.25210735 0.7116971 0.14323148
0.74274707 0.5903091 0.31561446 0.6706564 0.43281147 0.8587303 0.5299801 0.1553883
0.7817995 0.39604905 0.5526895 0.7432658 1.0838408 0.6898627 0.61357164 0.50741684

bn0.bias f4 [48]
00000000: 38fd 00b7 082f 5f37 5823 8c33 695f 1337
00000010: 335d 01b8 f5da 17b6 4c98 55b5 d2f3 50b6
00000020: 66d5 fd36 631c 0c36 2b9d 38b6 2f79 7fb6
00000030: fddf 5436 944e f1b6 c6b7 7635 059a c9b6
00000040: dab0 e0b5 25a4 ba36 3229 66b6 5ad0 4e35
00000050: b877 8837 da44 9f37 4c7c 89b7 ddc3 ffb6
00000060: aa9e d8b6 a8e4 93b7 546c da35 1ca9 0337
00000070: 3479 dbb7 70de f036 2763 ac36 3233 5ab7
00000080: 59a8 d036 dd1f db36 35bd a1b6 8fa3 8c36
00000090: 627f 6e35 a6fb 60b6 33ef 6536 ee8a 08b7
000000a0: 93bb 3336 33d4 9336 30fe 04b5 bf5b 03b5
000000b0: 0379 cdb6 fbd5 46b6 0a7c 2136 8024 9235
-7.688352e-06 1.3302786e-05 6.525687e-08 8.784097e-06 -3.0842795e-05 -2.2628203e-06 -7.9570304e-07 -3.1136337e-06
7.5648304e-06 2.087815e-06 -2.750962e-06 -3.80685e-06 3.172084e-06 -7.1915074e-06 9.1909567e-07 -6.008197e-06
-1.6740771e-06 5.562341e-06 -3.429665e-06 7.704417e-07 1.6268212e-05 1.8986339e-05 -1.6389553e-05 -7.6223937e-06
-6.4557726e-06 -1.7630242e-05 1.6273793e-06 7.847582e-06 -2.6163274e-05 7.1784525e-06 5.1375423e-06 -1.3005732e-05
6.2184813e-06 6.530418e-06 -4.8202005e-06 4.191366e-06 8.8847275e-07 -3.352508e-06 3.4262891e-06 -8.138579e-06
2.678226e-06 4.4056446e-06 -4.9543723e-07 -4.893481e-07 -6.1235637e-06 -2.9628852e-06 2.406307e-06 1.0888471e-06

bn0.running_mean f4 [48]
00000000: 2a66 a9c0 0c73 e8be c5ec 8040 46f1 483f
00000010: 9581 803e 0949 4540 c5ec 8040 46f1 483f
00000020: 35bc b7c0 d3cf eebe 1e3a 8240 e7fe 273f
00000030: 0a03 463e 2ca3 4140 1e3a 8240 e7fe 273f
00000040: 810e c3c0 5f14 f5be a34c 9840 c88e 073f
00000050: 6f18 773e 3199 3740 a34c 9840 c88e 073f
00000060: f4d6 9ac0 7934 efbe cd59 b040 4e6e 583f
00000070: 9581 80be 0949 4540 cd59 b040 4e6e 583f
00000080: 9d8b a6c0 e0e3 f0be 336e b540 f9d2 3f3f
00000090: 0a03 46be 2ca3 4140 336e b540 f9d2 3f3f
000000a0: 583b b0c0 2119 efbe 54ef cc40 0882 293f
000000b0: 6f18 77be 3199 3740 54ef cc40 0882 293f
-5.293721 -0.45400274 4.0289025 0.78493154 0.25098863 3.0825827 4.0289025 0.78493154
-5.7417245 -0.46642932 4.0695944 0.65623325 0.19337097 3.0255842 4.0695944 0.65623325
-6.0955205 -0.47867104 4.759355 0.5295224 0.24130414 2.868725 4.759355 0.5295224
-4.8387394 -0.4671972 5.510962 0.8454331 -0.25098863 3.0825827 5.510962 0.8454331
-5.2045426 -0.47048855 5.669702 0.74931294 -0.19337097 3.0255842 5.669702 0.74931294
-5.507244 -0.4669886 6.404215 0.66214037 -0.24130414 2.868725 6.404215 0.66214037

bn0.running_var f4 [48]
00000000: 6f13 8841 702d 833f 17d4 a543 7ae6 ea40
00000010: 995e 2342 15c7 a140 17d4 a543 7ae6 ea40
00000020: 5c95 7941 58b9 873f 6ed4 b743 2d6e 0241
00000030: 84f2 3142 fd24 b540 6ed4 b743 2d6e 0241
00000040: 1064 6d41 2953 8b3f 5f73 c243 503c 1541
00000050: 43f3 3e42 1e98 d840 5f73 c243 503c 1541
00000060: e5e7 8941 2d2c 833f ca1a 8443 f953 ef40
00000070: 995e 2342 15c7 a140 ca1a 8443 f953 ef40
00000080: 51c3 8441 9975 873f 6d07 9043 a109 0341
00000090: 84f2 3142 fd24 b540 6d07 9043 a109 0341
000000a0: a05f 8241 6257 883f b87c 9643 53f7 1941
000000b0: 43f3 3e42 1e98 d840 b87c 9643 53f7 1941
17.00949 1.0248241 331.65695 7.3406343 40.84238 5.055552 331.65695 7.3406343
15.598965 1.0603437 367.6596 8.151898 44.48683 5.660765 367.6596 8.151898
14.836929 1.0884753 388.90134 9.327225 47.73756 6.768569 388.90134 9.327225
17.23823 1.0247856 264.2093 7.4790006 40.84238 5.055552 264.2093 7.4790006
16.59537 1.0582763 288.058 8.189851 44.48683 5.660765 288.058 8.189851
16.296692 1.0651667 300.97437 9.622882 47.73756 6.768569 300.97437 9.622882

bn1.weight f4 [128]
00000000: 0a4b 153f 7870 963e 22cc cb3a 6971 123f
00000010: 76b5 8b3e c4fc 4f3f 7c57 173f 928d 163f
00000020: 2e06 063f e725 e83e 67fc 453f 1212 8e3e
00000030: 8179 143f b143 b83e a57e 2f3f 5e5c d43e
00000040: 7ba0 113f ffa2 e33e c3e5 533f 3110 b93e
00000050: e371 d93e c549 8a3e ba1b 5b3f e4b4 323f
00000060: 1548 663f a05f bb3e 7cd1 d3ba 9276 6c3e
00000070: 2720 a33e be21 1c3f 0332 263f 3dd2 5f3f
00000080: d834 c83e b681 773e 00ac 203f 556f c93e
00000090: a3f5 2e3f e6ac e43e 727f 0c3f 7e04 8a3e
000000a0: 9d5f fd3e 2a55 0e3f 050c 163f cbd2 ed3e
000000b0: e8ff 3b3f 09a9 2c3f ff0c a53e 9ae9 a13e
000000c0: b2da 533f da8b df3e d30c d33e 6530 6fbe
000000d0: 702e d43e d9c1 1a3f 886c fe3e 9282 743e
000000e0: 7874 013f 4723 c93e 23b3 393e b0e5 c93e
000000f0: 30a9 963e 7fff b93e 3d8d 513f 5064 003f
00000100: c3e1 0e3f 5753 803e 1eea 923e 2a1b f63e
00000110: 2352 1e3f 6566 9b3e 4b1c c53e 9b26 ac3e
00000120: f791 ee3e ca68 013f 6c71 f23e d201 973e
00000130: ded3 8c3e e82f b33e 712b e73e dcb9 843e
00000140: bdc9 323f 9d03 e03e 343c 2c3f 26df 1b3f
00000150: de55 833e f970 503f 0b6f b53e 3052 c63e
00000160: 8aee ac3e 932d e93e 213e 0d3f 86a2 ed3e
00000170: bcb2 fa3e e6c6 8b3e bb15 5a3f cfa8 893e
00000180: ba66 093f 0fe8 803f b95a 273f acac 393f
00000190: d831 303f b4aa 703e a860 e13e 311c 7f3e
000001a0: fbb6 013f 2d1f 813e 29bb 243f 2ec1 9f3e
000001b0: 3b0d 3b3f 9878 1d3f 3b48 1c3f acc0 ad3e
000001c0: 7a92 423f 88b9 173f f0a3 f83e d097 8e3e
000001d0: ec9a 173f 9ded d03e d746 d03e 784b 413f
000001e0: e351 1d3f 2f6d 8c3e 1441 bd3e e8c5 033f
000001f0: 0d15 433f d41a d53e f4f0 ba3e 9984 dd3e
0.58317626 0.29382682 0.0015548507 0.572043 0.2728688 0.81245065 0.59117866 0.5880977
0.5235318 0.45341417 0.7733826 0.27748162 0.579979 0.35989144 0.6855262 0.4147672
0.568855 0.44460294 0.82772464 0.36145166 0.424697 0.27009407 0.8558918 0.6980727
0.8995374 0.36596394 -0.0016160454 0.23092106 0.31860468 0.60988986 0.6492006 0.87430173
0.39102817 0.24170575 0.6276245 0.39342752 0.6834356 0.4466316 0.54881966 0.26956552
0.4948701 0.555987 0.5861209 0.46449885 0.73437357 0.6744543 0.32236478 0.31623536
0.8275558 0.43661386 0.41220722 -0.23358305 0.4144168 0.6045204 0.49692178 0.23877934
0.5056834 0.39284727 0.18134741 0.3943305 0.29425955 0.3632774 0.8185614 0.50153065
0.55813235 0.25063583 0.28694242 0.480676 0.6184408 0.30351558 0.38498148 0.33623204
0.46595737 0.5055052 0.4735216 0.29493576 0.27505392 0.34997487 0.4515033 0.2592305
0.6983908 0.43752757 0.6727936 0.6088737 0.2565145 0.8142238 0.35436282 0.3873458
0.3377574 0.45542583 0.55172926 0.46413058 0.48964489 0.27300185 0.8518941 0.26886603
0.53672373 1.0070819 0.65372807 0.725291 0.68826056 0.23502618 0.44019055 0.24913098
0.5066983 0.25219098 0.64348084 0.31202072 0.73067063 0.61512136 0.61047715 0.3393606
0.76004755 0.59267473 0.48562574 0.278502 0.5922077 0.40806285 0.40679047 0.7550578
0.61453074 0.2742705 0.36963713 0.51473856 0.76203996 0.4162203 0.36511958 0.43265226

bn1.bias f4 [128]
00000000: 6529 dbbd d825 64be e424 24bc a0f6 74be
00000010: 07a6 97bc b1ac bfbd 5483 2abe 0718 63be
00000020: 080d e63d 1ee8 63be a01f 0fbe eb02 aebd
00000030: 062d 49bd 1601 1bbe ef7f adbd 9b3b 52be
00000040: 1a0a 80bd 495e 44be 05a2 6cbe 5f2d 35be
00000050: d61b 9bbd 51c5 adbd ff2b 44be 613a 2fbe
00000060: 6c97 99be 078a 15be 5d25 0abc b202 6cbe
00000070: 862e 89bd 7f9e 37be 6c9e cdbd 2483 47be
00000080: 535b 14be 21bb 34be 78f5 92be 2413 36be
00000090: b032 9ebd d494 4fbe 789d 25be a922 56be
000000a0: 2974 52be 9dd8 8cbe 75b1 9abe 4ce4 90bd
000000b0: d5eb 1cbe 9f72 40be 5559 49bc 0b61 41be
000000c0: ec43 a7be dc2a 27be 532b 55be 586f d2bd
000000d0: 905d 0fbe 12eb 63bd 8354 87be 0a0b 63bd
000000e0: 4741 9dbe 1425 55bc e081 31be 51b0 dcbd
000000f0: bda4 07be 038e b8be a42d 06be ffe5 d9be
00000100: d181 eebd f498 4bbd f51f 00be edb0 89be
00000110: 7a67 69be f910 1cbd fa85 4cbe 07ea e03c
00000120: ba2a 5cbe e5f7 913d b9a4 31be 7f49 afbd
00000130: 120c 52bd cb44 61bc 3b8b 4cbe 7e39 0fbe
00000140: 83f6 16bd f691 14be fe6d 09bf 40e6 6cbe
00000150: c1fd efbd c0e9 0fbe e676 babd ae89 08be
00000160: 850d 33be cd5b 0cbd 522b c8be c7bf a1be
00000170: 8e9e 5dbd 9f24 4ebe 3407 93be 02f0 dcbd
00000180: 36b2 bbbc 5f20 31be 84d6 7ebe ec1f 37be
00000190: b250 8dbe ba7b e7bd a2c3 6cbe e11f 8dbd
000001a0: 4375 48be 0f8a b5bd 02d4 7fbe 19c9 14be
000001b0: 5dcc 32be ff47 91bd ad47 82bd 0731 bdbd
000001c0: b80c b9be ff1f 96be a0a1 b8bd ca0b 28bd
000001d0: 41af 3abd adce 81be aba0 2dbe e5a9 80be
000001e0: d4fe 82be 1585 0dbe ed9f 39be 2a73 69be
000001f0: 4dd3 aebe a089 53be 8885 4abe d6b0 de3c
-0.10701255 -0.22280061 -0.010018561 -0.23922205 -0.018511785 -0.0935911 -0.1665166 -0.22177134
0.11232954 -0.22256514 -0.13976908 -0.0849665 -0.049115203 -0.15137133 -0.08471667 -0.2053055
-0.06251927 -0.19176592 -0.2310868 -0.17693089 -0.07573669 -0.08484901 -0.19157408 -0.17112114
-0.29998338 -0.14603435 -0.00843176 -0.23047903 -0.06698327 -0.17931555 -0.10039982 -0.1948362
-0.14487962 -0.17649509 -0.28702903 -0.17780739 -0.077245116 -0.20271617 -0.16173351 -0.2091166
-0.20552124 -0.27509013 -0.30213514 -0.07074794 -0.15324338 -0.18793724 -0.012289365 -0.18884675
-0.32669008 -0.16324943 -0.20817308 -0.102751434 -0.14000535 -0.055644102 -0.26431665 -0.05543045
-0.30713865 -0.013009328 -0.173347 -0.10775817 -0.13246436 -0.36045846 -0.13103348 -0.42558286
-0.11645854 -0.049706414 -0.1251219 -0.26892796 -0.2279338 -0.038102124 -0.19972983 0.027455343
-0.21500674 0.0712736 -0.17347993 -0.0855894 -0.051281042 -0.013749312 -0.19974987 -0.13986775
-0.036856186 -0.14508805 -0.5368346 -0.23134708 -0.117183216 -0.14054012 -0.09104709 -0.1333377
-0.17485626 -0.034267236 -0.3909555 -0.31591627 -0.054106288 -0.20131157 -0.28716433 -0.10787965
-0.022912126 -0.17297505 -0.24886519 -0.17883271 -0.27600628 -0.11302896 -0.23121503 -0.06890846
-0.19575982 -0.08864223 -0.24983218 -0.14529838 -0.17460771 -0.0709381 -0.06361327 -0.09237867
-0.36142516 -0.29321286 -0.090152025 -0.041026868 -0.04557729 -0.25352994 -0.16955821 -0.2512962
-0.25585043 -0.13820298 -0.18127413 -0.22797838 -0.34145585 -0.20657969 -0.197775 0.027183931

bn1.running_mean f4 [128]
00000000: ec08 a2bc 773f 1bba 3c5c 02be dc24 733d
00000010: e51b c53d dfcd eabd 8dac 643d eadb 18bc
00000020: a47b 0a3e 2249 0bbe bd01 fb3d 00ab 5bbd
00000030: ca35 f93d c5cb 96bd e629 c83c 2df0 093d
00000040: 525f b73d 6889 8a3d 243a a53d 9be3 f8bc
00000050: a6dc e9bd 62f0 db3a a8cb 063e 62ab ff3d
00000060: 69fa adbd f057 cb3d 97f1 843d e5ff d5bc
00000070: fc58 a13d f3cb c4bb 2cfa 8f3c 9db0 c1bd
00000080: 7c8e 91bc 56b1 103e 1a25 b73d 99ea eebd
00000090: f107 06bc 4e51 bc3d b505 7dbd 6c16 94bc
000000a0: a774 933d 526c f83d 7b1f 063e 7c87 d5bd
000000b0: 9640 0bbe f6ed d03d 7946 37bc 2071 053e
000000c0: 26d0 d13d 9ac4 66bd 8862 293d 8aed 463d
000000d0: 7a98 53bd 57cd 043e 6e0b 423c 0e3a 41bd
000000e0: 17fd 06be ff97 ec3d d392 12be e2fb e03d
000000f0: d00a 4fbd fc73 d8bc e0b3 9f3c 1448 113e
00000100: 1299 c2bd 33ee d1bd 50ad b13d dc94 8fbd
00000110: 8f8e 59bd 5ce5 aa3d 611d 75bd 2310 b03d
00000120: f89c 66bd 0b5d e33d da3b 133e 6fa5 a33c
00000130: d3d5 44bd f53f a63d 2a3f 253d 8950 243a
00000140: 23dd 033e 3400 09bc 91cf 4f3d 581a 30bd
00000150: eb85 d6bc ced1 cbbb d64b 1f3c d44c 813d
00000160: d200 df3d 943c b53d 83a4 78bd e97b 043e
00000170: 6eb3 c73d a920 553d 58fa 803c 0a46 a7bd
00000180: b077 b0bd 9847 403a c6dc dbbd a156 4f3d
00000190: 312d 06be 54ce 03be b6ca 84bd a316 aa3d
000001a0: 2776 e73d 3e78 f8bd 5db5 babd 752d 033d
000001b0: 8d7e d7bc 443a f2bd 4050 243d 3f0a f6bd
000001c0: e91c 143c 21ed 703d f453 083e 0445 fcbd
000001d0: fbbc dc3d ae93 a43c a5ae 003e 7c7b 113e
000001e0: b56f 13bd 6f1f b8bc 08d0 0ebd 387f e83d
000001f0: d8f6 7fbd 3432 c33d 2c29 733d 78f9 0a3e
-0.019779645 -0.0005922238 -0.12730497 0.059361324 0.09624461 -0.11465048 0.05582862 -0.009329775
0.13523728 -0.13602117 0.12256191 -0.053629875 0.121684626 -0.07363085 0.024434041 0.033676315
0.08953728 0.067644894 0.0806773 -0.030381968 -0.114190385 0.0016780014 0.13163626 0.124838606
-0.084950276 0.09928882 0.06491392 -0.026122997 0.078783005 -0.006005758 0.017575346 -0.094575144
-0.017768137 0.14130148 0.089426234 -0.1166584 -0.008180604 0.09195195 -0.06177302 -0.018077098
0.07199984 0.121300355 0.13097946 -0.10426232 -0.13598856 0.102016374 -0.011186236 0.13031435
0.10244779 -0.056339838 0.041353732 0.04856638 -0.051659085 0.12968956 0.011843545 -0.047174506
-0.13182484 0.115524285 -0.14313821 0.10985543 -0.05054742 -0.026422493 0.01949495 0.14187652
-0.09501852 -0.10250511 0.08675635 -0.070108145 -0.05311447 0.08344528 -0.05984247 0.08596828
-0.05630204 0.11101731 0.143783 0.019976346 -0.04805548 0.081176676 0.04034344 0.0006268104
0.12877326 -0.008361865 0.05073506 -0.042993873 -0.026186904 -0.006220079 0.009722671 0.06313482
0.10888828 0.08849445 -0.060703766 0.12937893 0.0975102 0.0520331 0.015744373 -0.08167656
-0.086165786 0.0007334887 -0.107354686 0.050619725 -0.13103177 -0.12871677 -0.064839765 0.08305099
0.11301833 -0.121323094 -0.091166236 0.032025773 -0.026305461 -0.118275195 0.040115595 -0.12013673
0.009040096 0.058819894 0.13313276 -0.12317851 0.10778233 0.02008995 0.12566622 0.14207262
-0.035995204 -0.022475926 -0.034866363 0.1135239 -0.062491268 0.0953106 0.059365436 0.13571727

bn1.running_var f4 [128]
00000000: 0478 573e 3498 dc3e 1756 1c3d 6d9f af3f
00000010: d516 ac3e cbc9 e33e 934b 873e cb93 6a3e
00000020: abc2 7d3e 7888 a93e 5608 9c3e 10f1 9e3e
00000030: 7ae7 f73e 300b ed3e ec2a 033f 82f5 ec3e
00000040: 05a0 193f 2764 693e a81b c53e 3381 843e
00000050: 9948 bb3e 4589 ec3d ffcb 953e 265b 013f
00000060: 0195 873e 762c d23e a2e3 a33d 9ed3 333e
00000070: 529a ae3e d2fa f43e cf01 433e 5176 233f
00000080: a745 7e3e 3b20 b23e 3da2 493e 4fe9 5b3e
00000090: 68f1 633e 8eb9 113e 021d 083e 4288 3d3e
000000a0: 90ec 1f3f b9cc 733e 0231 253e 2112 b03e
000000b0: 14ff c03e 5e71 113f 42a6 c63d 8278 6d3e
000000c0: 0929 3f3e e3af 113f 4d4f 913e c3a5 a43e
000000d0: 9127 ac3e 0b2d d83e 9a69 b03e 3e28 8b3e
000000e0: 90d3 783e cfbf c23e fced 243e 56cc bc3e
000000f0: 100e 993e 1bcd 823e 9c0e f13e 0826 893e
00000100: 06b1 283e 96c0 cd3e bcf2 6b3e f3ca 143f
00000110: 9594 c63e 166a d53e 08c9 983e ac88 b93e
00000120: 3c57 dd3e 2eb6 563e 3e11 8c3e 09cd 223f
00000130: 0c7d 583e 5745 183e d74f b93e a184 123f
00000140: 6a7c 643e 31f7 a43e 90e7 373e e629 a23e
00000150: 52e3 7b3e 5f90 fc3e 5cfd 8b3e d680 1e3f
00000160: 85dc 273f 0555 503f 9f80 833e b2d6 4f3e
00000170: f481 663e cd63 5c3e 3b62 033f b30b 5f3e
00000180: bae1 343f 03d7 1840 bbd0 d33e aa6e 9d3e
00000190: 0f39 8f3e 979c cf3e 448b 823e 19e6 893e
000001a0: b763 943e 2b43 303f a595 ad3e cf4b 773e
000001b0: 9b86 d23e fccc 483e 55b4 883e 5820 4a3e
000001c0: e59b a43e e329 ce3e 6074 573e 6244 5b3e
000001d0: 5c0f 8f3e 2bd3 163e 3c19 b73e ef6d ca3e
000001e0: fa31 e43e efc9 3e3e 61cd 323f 07c2 8c3e
000001f0: 5c11 c13e 28a2 683e e905 c33e 7222 6c3e
0.21041876 0.43084872 0.03816804 1.3720528 0.3361117 0.44489893 0.26424846 0.22907941
0.24781291 0.3311193 0.3047511 0.3104329 0.4841879 0.46297598 0.5123737 0.46281058
0.60009795 0.22792111 0.38497663 0.2587982 0.36578825 0.115496196 0.292572 0.50529706
0.26480868 0.41049546 0.08002402 0.17561194 0.34102112 0.4784761 0.19043659 0.6385241
0.24831258 0.34790215 0.19690795 0.21475719 0.22260058 0.1423094 0.13292316 0.1850901
0.6247034 0.23808564 0.16131976 0.3438883 0.3769461 0.5681361 0.0969968 0.23190501
0.18667997 0.56909007 0.28380814 0.32157716 0.33623937 0.42221865 0.34455568 0.2717914
0.24299455 0.38036963 0.16106409 0.36874646 0.2989354 0.25547108 0.4708146 0.26786828
0.16473779 0.40185994 0.23041815 0.58122176 0.38785234 0.416825 0.29840875 0.36237085
0.43230617 0.20967934 0.27356905 0.6359411 0.21141452 0.14870201 0.36193725 0.57233626
0.22313085 0.32219842 0.17959428 0.3167259 0.24598435 0.49328896 0.27341735 0.6191534
0.6557086 0.8137973 0.25684068 0.20296744 0.2251051 0.21522446 0.5132176 0.21781807
0.7065693 2.3881233 0.41370186 0.30748492 0.2797322 0.40549156 0.25496876 0.26933363
0.28982326 0.6885249 0.33903232 0.24150012 0.4111832 0.19609445 0.26700082 0.197389
0.32150188 0.40266332 0.21040487 0.21412805 0.27941406 0.14728992 0.3576144 0.39536998
0.4456938 0.18631719 0.69844633 0.2749178 0.37708557 0.22718108 0.38090447 0.23060015

bn2.weight f4 [128]
00000000: 4856 b83d 6dfc 033f d2d7 283f 1966 083e
00000010: d672 b43e 8764 103f 647d bd3e a364 643e
00000020: 1ffc f33e ef0d f73e 78a3 093f 5f27 7f3e
00000030: 0bdb 853e 4c1c cd3e 2668 5c3e 741c 513e
00000040: 9a33 cc3e acd4 1a3f dd68 743e ab01 5d3e
00000050: 7e17 a03e bda3 7b3e d354 cb3e 230f e43e
00000060: 9bb3 a63d 2c82 403e 1f37 113f 37f6 063f
00000070: 9cf7 8f3e 84a5 0e3e 4a93 1a3e ab7c a63d
00000080: d452 453e 29f1 f03e 88a4 033f 409c fb3e
00000090: 9cc9 a83d 0ea2 023e 76d7 823e b0d3 143f
000000a0: e7bc a63e 53b8 703e e397 f83e ba6e 703e
000000b0: eca8 023e 05b1 063f 6e13 433e 3e88 983e
000000c0: f9ac 2d3a 92cb 003f d68a f23e bc52 ed3e
000000d0: 45fd d33d 6d26 8bba bb86 e43d b7f4 1d3f
000000e0: cc84 cd3e 9b45 083f b0a8 1a3f 4b2b cc3e
000000f0: e607 a43e e7c8 b03d e343 ae3d f259 9c3d
00000100: 4e51 ed3e 4df6 213e 8879 873e 669e 123e
00000110: 6bab 7e3e be4a c43d 4373 0e3e 9ebf f23e
00000120: 3d8b 803e f0a2 ef3e 1a92 1c3e c69d d03d
00000130: b274 523e cdd6 023e 01b3 6a3e 94ed 033c
00000140: 31f8 d13e bfc4 f73d 4e3f 013f aca5 e43e
00000150: 9e77 043f 3352 d13d 19cb 0d3f d851 2a3e
00000160: b6fe d73e 9092 0c3f ca75 a23e ba32 b43e
00000170: 3343 603e 2939 a63d 0ce4 ec3e 80b5 1e39
00000180: 212f 0a3f d6c7 eb3e bc7e 3a3f b10c 7b3e
00000190: 7dd4 023e 2ca9 b03e abc6 123f f921 63ba
000001a0: da25 813e fd69 d63d 22b6 ac3e c003 0a3e
000001b0: ccc5 763e c3df 783e d1ec 8e3d 166c 063f
000001c0: a3c6 0a3f 2e89 8f3e 5b38 913e ddef 3f3e
000001d0: 9922 933d e518 51ba 5990 fa3e 616e 223e
000001e0: 2da5 f63d 8187 883e 69bf 813e 682e 3e3e
000001f0: fca8 bf3e c743 793e aff2 4d3e 817f 113e
0.09000832 0.51557046 0.65954316 0.13320197 0.35243863 0.5640339 0.37009728 0.22304015
0.4765329 0.48252818 0.5376506 0.24917363 0.2614368 0.4006065 0.21524104 0.2042101
0.3988312 0.6048076 0.23868127 0.21582668 0.31267923 0.2457418 0.39713153 0.44542798
0.08139726 0.18799657 0.56724733 0.52719444 0.28118598 0.13930327 0.15095249 0.08129247
0.19269878 0.4705899 0.5142293 0.49142647 0.08241579 0.12757131 0.2555501 0.5813551
0.32565996 0.23507814 0.4855338 0.23479739 0.12759751 0.5261386 0.1905038 0.29791445
0.0006625201 0.50310624 0.47371548 0.46352184 0.10351042 -0.001061631 0.1115851 0.6170153
0.40140378 0.5323121 0.60413647 0.3987678 0.32037276 0.08632069 0.08509042 0.07634343
0.46351093 0.15816613 0.26459908 0.14318237 0.24870078 0.095845684 0.13911156 0.47411817
0.2510623 0.46804 0.15290108 0.10186343 0.20552328 0.12777252 0.22919847 0.0080522485
0.41009668 0.12098073 0.5048722 0.44657648 0.5174502 0.102207564 0.5538803 0.16632783
0.42186517 0.54911137 0.3173049 0.3519495 0.21900634 0.08116371 0.46267736 0.00015135668
0.53978163 0.460509 0.7284963 0.2451656 0.1277637 0.34504068 0.57334393 -0.0008664425
0.2522419 0.104694344 0.33732706 0.13477993 0.24098891 0.24304108 0.06978763 0.52508676
0.54209346 0.28034347 0.28363308 0.18743844 0.07184333 -0.0007976427 0.48938254 0.15862419
0.120432235 0.2666588 0.25341347 0.1857239 0.37433612 0.24342261 0.20112108 0.14208795

bn2.bias f4 [128]
00000000: 5a23 c8bd 7a14 85be ea36 16be 9be2 85be
00000010: 6005 8ebe 00d9 40be 579c 8cbe 1436 02be
00000020: c903 8ebe e1d7 8fbe af1e bdbd 590e 5bbe
00000030: f418 99bd 4f72 5dbe 2eaa 49be c53e 4fbe
00000040: 6c77 e5be 7a92 b0be 9855 76be 5da9 50be
00000050: fabe 88be 2492 5fbe 445b 7fbe dd38 73be
00000060: d84f 00be 6f99 efbd 364c c2be 0d1b 11be
00000070: ee8b 19be 3954 46be 7ea1 88bd cb67 48bd
00000080: 73ec 0ebe 379f 8abe aa39 a0be 9538 96be
00000090: 245c 1abe 3ca2 0ebe 47f3 62be 04f2 d2be
000000a0: 046a a1be 7eef 29be 654b 9cbe 5253 f5bc
000000b0: 6afd babd 4ca0 aabe 4669 24be bcaf 8bbd
000000c0: b569 56bb 9a77 b2be 9fe3 c2be 2228 93be
000000d0: 2593 a1bd c2eb f2bb ebb9 dfbd a4a6 9fbe
000000e0: 7993 a7be 5d97 b4be a020 5bbe 31d4 93be
000000f0: 7acd 6ebe 4841 fbbd 7e1c 78bd ed51 fcbd
00000100: 7cc0 94be 6399 21be 6337 09be c00a f2bd
00000110: a5b2 59be f044 1bbe 60d8 cebd 3a02 61be
00000120: 5ed0 17be f410 b5be 892e 87be 0d3a c6bd
00000130: 37a4 49be 1d77 3fbe dbe6 31be 5079 0abd
00000140: 8860 b7be a7e3 55be 4d0d 6abe 3958 b1be
00000150: 1a37 afbe 0b15 81bd 3b72 9abe 8b49 4ebe
00000160: 6a69 4dbe caf4 dabe 32d4 0ebe d288 19be
00000170: 47a4 12be d6e1 e5bd 9e05 92be 4b77 8fbb
00000180: 4829 babe 3273 d1be 3f1f 88be 1865 33be
00000190: 4c3b 5fbe c6b5 6ebe 79ed dbbd 69df dbbb
000001a0: 5f30 27be 7138 25be 1d04 14be 2145 44be
000001b0: fb0e 813b ebf5 fabd bc37 8fbd 16d4 debe
000001c0: 9a62 d0be 6ec6 39be 9e48 3fbe a9f8 33be
000001d0: c8bd 21be 9a7c 46bc d295 08be 4227 10be
000001e0: 63ae 7abd f0b6 65be 0d35 e6bd 4a4d 3fbe
000001f0: db4a f7bd 59f3 3bbe 4ec9 32be 2bbb 44be
-0.09772368 -0.25992185 -0.14669386 -0.2614945 -0.27738476 -0.18832779 -0.27463028 -0.12715942
-0.27737263 -0.2809439 -0.09234368 -0.21392192 -0.074754626 -0.21625637 -0.19693825 -0.20238788
-0.44817674 -0.34486753 -0.24056089 -0.20377107 -0.26708204 -0.21833092 -0.24937159 -0.2375216
-0.12530458 -0.11699187 -0.3794877 -0.14170475 -0.14994785 -0.19368066 -0.06671427 -0.04892711
-0.13957386 -0.27074596 -0.31293994 -0.29340044 -0.15074211 -0.13929075 -0.22163115 -0.41200268
-0.31526196 -0.16595265 -0.3052627 -0.029946957 -0.09130366 -0.33325422 -0.16055784 -0.06820628
-0.0032716815 -0.34856874 -0.38064286 -0.28741556 -0.07889394 -0.0074133584 -0.10924133 -0.31181824
-0.327297 -0.3527173 -0.21399164 -0.28872827 -0.2332057 -0.12268311 -0.060574047 -0.123203136
-0.29053104 -0.15781169 -0.13400035 -0.11818457 -0.21259554 -0.15163016 -0.10099864 -0.21973506
-0.1482558 -0.35364497 -0.2640269 -0.09679041 -0.19691549 -0.18697782 -0.1737322 -0.0338071
-0.35815835 -0.20887624 -0.22856636 -0.3463762 -0.34221727 -0.06302842 -0.30165276 -0.20145242
-0.20059744 -0.42764884 -0.13948134 -0.14993599 -0.1432048 -0.112247154 -0.2851991 -0.0043782345
-0.3635962 -0.409082 -0.2658634 -0.17519033 -0.21799964 -0.23311529 -0.10738654 -0.006709982
-0.16327046 -0.16134812 -0.14454694 -0.19166996 0.0039385534 -0.122539364 -0.06993052 -0.43521184
-0.40700227 -0.18142101 -0.18680045 -0.17575325 -0.15795052 -0.012114668 -0.13338402 -0.14077476
-0.061201464 -0.22433066 -0.112405874 -0.18681827 -0.120748244 -0.18354549 -0.17459604 -0.19212024

bn2.running_mean f4 [128]
00000000: dc39 583d e533 5fbf 9322 b2bd cbb9 7abf
00000010: e6ae 2cbe e59b 50bd fb60 cebe 8831 c0be
00000020: 7b6c 90be 7a54 0abe 612d e63d 4e4e 4fbd
00000030: 8320 18be 88d6 e2be 6326 e2be 0349 0bbf
00000040: 4d38 2ebf 37c3 9dbe 9895 e4bd 9a4d 98be
00000050: 009b dcbe f407 98be 9c2f 4dbe fe55 90be
00000060: 659f 8bbe 30ae 14bf 7dda babe b80c 58be
00000070: c089 1fbe 56d8 30bf eb39 2fbe d10d 983c
00000080: 9bbd f7bd fed8 14bf 9ef5 b5be c070 a5be
00000090: 6fa4 ffba 9a2d 83be 9186 d7be 1a47 37bf
000000a0: f85c dfbe 2213 2fbe d383 a2be c809 3dbe
000000b0: 511a 8abd 521a a8be 09d9 00bf 261e a2be
000000c0: 09e0 71bd f7c2 0cbf 7638 8abd 2dca 3bbf
000000d0: 56ab cb3d 80b6 c33b bc3f bb3e 5d6e 11bf
000000e0: 0c55 76be bb1b 80be c980 09be 0239 f7be
000000f0: d60d 0ebe 40ce 353c 6ae8 f43c 4c5c 65be
00000100: 1aab 08bf 5ef3 f0be 2e33 70be 7936 26bd
00000110: cdd5 b0bd 488b 9bbe 767b 0abd da32 25be
00000120: 4a38 44bf 3f50 d1be 6f90 10bf 7e38 0e3d
00000130: ccbc 7cbe aa13 0ebf 62d9 09bf 30ee f43c
00000140: 1a5b a2be ca6e c4be 59a9 8abd a683 d4be
00000150: 344b b0be 5bcb 89be b82d f2bd 64a8 5dbe
00000160: c706 20be b97b 9cbe 0c0a f7be ec12 04bf
00000170: 6a6f 58be 8246 64be 0767 6bbe 0bc7 be3c
00000180: bd0e 26bf 986b 1dbf 2264 8a3e b895 b4be
00000190: a97f 29bf c7e4 6abe b84d 21bf 5f4a 883c
000001a0: 0a71 37be 2665 babe 3066 85be 3366 59be
000001b0: 38b4 90be e292 42bd d82c a1be 108e 48bf
000001c0: ccb9 c0be 7c52 bbbe 8a9e 02bf 204f 33be
000001d0: 8420 c6be 5596 003c e019 eebe 9c7b f9be
000001e0: 1557 0dbf 2ae5 19bf 0b54 09be 02cb 12bf
000001f0: 8a16 5cb8 bbdf 39be 76af 13bf 36da 95be
0.052789554 -0.8718856 -0.08698001 -0.9793975 -0.16863593 -0.050929923 -0.40308365 -0.3753779
-0.28207764 -0.13508788 0.11239124 -0.050611787 -0.14856152 -0.443043 -0.44169912 -0.5440828
-0.6805466 -0.30813 -0.11161345 -0.29746705 -0.43087006 -0.29693568 -0.20037693 -0.28190607
-0.27270046 -0.5807829 -0.36494818 -0.21098602 -0.15579891 -0.690801 -0.17111938 0.018561276
-0.12096711 -0.58143604 -0.35538954 -0.32312584 -0.0019503961 -0.2562073 -0.42094854 -0.7159287
-0.43625617 -0.17097142 -0.317412 -0.18460763 -0.06743301 -0.3283258 -0.5033117 -0.31663626
-0.059051547 -0.5498499 -0.0674905 -0.7335537 0.09944789 0.0059726834 0.36572063 -0.56809026
-0.2405588 -0.25021157 -0.13428034 -0.4828568 -0.13872465 0.011096537 0.02989598 -0.2239849
-0.5338608 -0.47060674 -0.23457024 -0.040579293 -0.08634529 -0.303797 -0.033809148 -0.1613268
-0.7664839 -0.40881535 -0.5647039 0.034721844 -0.24681395 -0.55498755 -0.53847325 0.029898733
-0.3171013 -0.38365775 -0.06770582 -0.4150669 -0.34432375 -0.2691296 -0.118251264 -0.21646267
-0.15627585 -0.30563143 -0.48249853 -0.5159137 -0.21136251 -0.22292522 -0.2298852 0.02328827
-0.6486624 -0.614923 0.2702952 -0.35270476 -0.6621042 -0.22938834 -0.63009214 0.016637025
-0.17914215 -0.36405295 -0.26054525 -0.21230392 -0.28262496 -0.04750336 -0.31479526 -0.7834177
-0.37641752 -0.36586368 -0.5102316 -0.17510653 -0.38696682 0.007848342 -0.46504116 -0.4872712
-0.55211 -0.601153 -0.13410966 -0.57341015 -5.247308e-05 -0.18151753 -0.5768961 -0.29268044

bn2.running_var f4 [128]
00000000: aebc 093e 039a 1a3e 6542 793e 1278 263e
00000010: dbfd 2d3e 3006 ce3e 9198 683e 322a 003e
00000020: 145a ba3d 9c18 563d 4b39 4e3e 82c7 b03d
00000030: 0312 f23d 538d 3a3e 3d2f d43d 52b2 1e3e
00000040: 5d3f dc3d a05c 133e dcf4 d53d c00d 5c3e
00000050: 3b7d 0d3e 8586 ca3d 4b5b 033e 9775 fd3d
00000060: e875 983d 5698 d03d a15f ab3d fe59 113e
00000070: c17b bc3d a4fb ea3d 1dc1 c93d 0dd7 353e
00000080: e7e6 403e d2cd f43d ff48 013e cc0d 663e
00000090: d9f8 bd3d 7b2d 983d bdd6 e33d 01c3 123e
000000a0: 3f15 903d ce7d fc3d 1f74 a63e afc9 f93d
000000b0: a39d 233e 8a24 373e 9f03 d83d d4a0 353e
000000c0: 3d5c 093d 5627 023e 43cc d33d 5e84 173e
000000d0: 08df fb3d 2375 c03c 85e7 8f3e 93d2 0f3e
000000e0: ebdf d73d 72ea a33d 3ee5 483e 3ce7 053e
000000f0: f9eb e93d e43e 863d 12db 7f3e 8d6a 233e
00000100: f221 153e 2dd4 ec3d 5c73 143e 4447 113e
00000110: 2d2c fe3d 9a34 9f3d 06df f73d 6ffe 5d3e
00000120: 59eb 043e be95 2c3e 353b 913d abed 203e
00000130: 3d73 133e a370 c63d da7b 513e e0dc 7d3d
00000140: a8b5 f93d 7165 a03d f072 7d3e 663f 783d
00000150: 8926 d63d df9f f53d 6392 bc3e aedc c93d
00000160: 1c61 b83d f6a2 d73d 595f a43d c363 193e
00000170: 0d66 6d3d 712b 023e 6c03 1a3e e8ba c53c
00000180: 3330 353e 631a 273e 4d61 013e 1598 4d3e
00000190: 2a38 c73d 4351 3b3e c75c d83d aed9 a83c
000001a0: b905 843e dbb0 803d cdd3 193e 0971 873d
000001b0: ec5b 003e 8e1c c73d cee4 023e f7ea 243e
000001c0: d2fc 053e 7ae3 dd3d 25e6 823e 80d9 e73d
000001d0: 9d7e bd3d 48a1 e03c 9da1 ef3d fca9 573e
000001e0: 02ee 113e fefc 203e 6490 913e da2f 223e
000001f0: 7770 8a3e ee81 083e 3c38 d23d bcbe f83d
0.13450882 0.15097813 0.24341734 0.1625674 0.1699137 0.40239096 0.2271445 0.12516096
0.09099212 0.052269563 0.20139043 0.08631803 0.11819842 0.18217973 0.103605725 0.15497711
0.10754273 0.14390802 0.10447094 0.2148962 0.13817303 0.09888939 0.12827794 0.12375944
0.07444364 0.10185306 0.08367849 0.14194486 0.09203292 0.11473778 0.098512866 0.17757817
0.18838082 0.119533196 0.12625502 0.224662 0.092759795 0.0743055 0.111249425 0.143322
0.07035302 0.12328683 0.32510468 0.12196671 0.15978102 0.17885032 0.10547566 0.17737132
0.03353523 0.12710318 0.10341694 0.14796588 0.12298399 0.023493355 0.28106323 0.14045171
0.10540756 0.08003701 0.19618699 0.1307649 0.11421961 0.06554964 0.24985912 0.15958615
0.1456373 0.11563907 0.14497131 0.14187342 0.124107696 0.07773705 0.12103085 0.2167909
0.12980403 0.16853997 0.07091371 0.15715663 0.14399429 0.096894525 0.20457402 0.06197822
0.12192851 0.078318484 0.24750876 0.060607336 0.10456569 0.119933836 0.36830434 0.098565444
0.09002897 0.10529129 0.080259986 0.14979462 0.05795865 0.12711884 0.15040368 0.024136975
0.17694168 0.1631866 0.12634774 0.20077546 0.09727509 0.18292718 0.10564571 0.02061161
0.25785616 0.062837325 0.15022202 0.066133566 0.12535065 0.09722243 0.12782595 0.16105257
0.13084725 0.10834403 0.2556621 0.11320782 0.09252665 0.027420655 0.11700747 0.21060938
0.14250949 0.15721509 0.28430474 0.15838566 0.2703893 0.13330814 0.10264632 0.12145755

fcs1.weight f4 [128, 48]
00000000: 9d58 00be 5e8b f3bd 9302 9bbd 0a2d 633d
00000010: 252f b3bd e5ba 74bd d04b babd 5402 a53d
00000020: 7e39 05bb d870 dbbd 84a3 b3bc 26ac 2c3e
00000030: 5da5 92bd c6f1 a8b9 1c1e bdbc 50ca 673e
00000040: 7587 c83d 533d b43c e25b 613e 79fa 333d
00000050: bd94 8abd fde4 893d 3800 7b3e 99e8 b33d
00000060: ea3f 1b3e 8ddd bf3d 53d7 813d 616a 22bd
00000070: 368c 253c e91f 95bd 6589 e43d 4d1c 12bd
00000080: 847f a03b 30cb 903d 150e d1bc b188 34be
00000090: d17f 893d 5192 1dbe 4abd 44bd cbb9 bebd
000000a0: c398 9fbd 63db 453d 2640 e7bd afa4 033d
000000b0: c03a c13d 7e55 f2bc 56ed 1bbe ff72 1f3d
000000c0: bba7 81bd 4e87 383d 09c9 4bbe e781 5d3d
000000d0: 346f a7bd 33f9 3cbd 2b92 35be 4456 613d
000000e0: 0243 ed3b e678 3f3d 0557 083e cc1f 073d
000000f0: d269 e43c 5570 ec3c 631e 2b3e 24d9 5b3c
00000100: a507 6e3c 4002 22bd fcbb dc3d 89fd 173d
00000110: 9b78 893d 6a74 8bbd d113 153d 60b9 083e
00000120: 1df7 35be 5641 99bc 556a 8cba e98b 81bd
00000130: 1b0f e63d cce5 aa3d 67c3 003c 4f4e 86bc
00000140: 9591 39be d7cf 563d 59fa 003e 957a 44bc
00000150: d15b b5bd 918c 28bd db20 893c 7797 f3bd
00000160: 45b6 afbe 57b4 293d da23 59be 59e4 e3bd
00000170: b135 03be d86d 3fbc efea d5bd 84a7 14be
00000180: 3793 1bbd 570d 90bc aeb7 b03c 7864 02bd
00000190: d7a5 e6bc 7e3d 46bd 3e9b b5bc 7766 7d3d
000001a0: 5966 fcbc e81e 31bc 5899 7cbd 12d6 173d
000001b0: 7829 77bd b1ec 763c 8949 bbbd ae86 383d
000001c0: bdfb 0e3d df34 87bd 858b 3abc 8ed0 4bbd
000001d0: ea40 37bd a1f2 163d 586d 4fbd 7e83 5b3d
000001e0: f0fd 363d 2b5e a43d d7fc 11bd 813c a2bd
000001f0: 3ad9 7d3d c3c8 aabc 8a6f 1fbd 3321 2dbd
00000200: 59ab ae3d b419 85bd dfcc 663c b7f6 393c
00000210: 0993 ffbc e27a 343d f9a6 353d 2258 633d
00000220: c7ee c13c 305b d73c 5ca5 ba3c 1a7b b8bc
00000230: 8036 89bd ec8b 1aba 0c2f c23b d1bb 713d
00000240: ed14 c9bc 734e 9f3d 9426 09bc 9d43 f13c
00000250: d481 6b3d b832 f83d 6e4f 403c bb3a b4bd
00000260: 9964 dfbd 406c 12bc 257a d83c f869 f53b
00000270: 254b 043d 8403 c03d 70b0 8f3d 95dc 8b3d
00000280: 2210 adbd 1e2b 2f3c 4e1e 8dbd 6186 b6bd
00000290: c1a9 bfbd 57b5 263f 0bd8 2abb a8aa 9fbd
000002a0: 7946 343e 2465 b53d 190b babd e5b2 b03c
000002b0: af0a 63bd f882 a23d 6902 bcbd 3833 a63d
000002c0: 4da2 e33b 6464 d13d a926 84bd 5e5c 14be
000002d0: 762c 0538 efaf 573e 4cf9 24bd 9da0 f1bc
000002e0: 5e6f 053d 59fa 29bd b939 fdbc c134 0e3d
000002f0: c8fc 6dbc 07ea 323f e1a2 55bb 4da9 c33c
00000300: 887b 893d 0548 b63d c661 8ebd d940 8bbd
00000310: 3a19 683d 1db8 f63d caf8 973d a0e3 83bd
00000320: df03 98bd e8c6 0b3e f479 ee3b c00a 183e
00000330: 15e4 f2bd 7ca2 d23d ce09 acbd f4fd 4a3e
00000340: 9ce5 96bc ce83 853d 3b57 023c a9cf a83d
00000350: 3346 49bd b6d1 84be 66b8 de3d 6562 403d
00000360: e323 563c 55ac 9fbd ec7e 80bd 7e06 a93d
00000370: d379 dabc fdb7 373e f762 b4bb 1c66 d23d
00000380: 64b4 8abd 91cf 41bd 062b 983d 3c18 333d
00000390: a5e0 a63d 05f2 933d b738 493d 78ef 18bd
000003a0: 2175 f43d 8c69 44bc b3ef d13d fcd1 f63d
000003b0: 0111 0d3e 3819 56be b5b3 283e 576b 023e
000003c0: 1120 eb3c 2bb2 693d caf4 d63d 47a1 3e3d
000003d0: ec5b 79bd 6b87 36bc 3371 453d 4cbd 333b
000003e0: dcbc e83d d1e5 033b 5e41 843c bd8c 803d
000003f0: 60be 95b7 db81 83bd 319c f2bc 23a7 913d
-0.12533803 -0.118918166 -0.0756885 0.055462874 -0.087492265 -0.05974855 -0.09096491 0.08057085
-0.0020328457 -0.107148826 -0.021928556 0.16862544 -0.07160447 -0.00032223592 -0.023085646 0.2263577
0.097914614 0.022001898 0.22007707 0.04394004 -0.06766651 0.06733129 0.24511802 0.08784599
0.151611 0.09368429 0.06339898 -0.039652232 0.01010423 -0.07281477 0.111590184 -0.03567152
0.0048980135 0.07070005 -0.02551941 -0.17630269 0.06713832 -0.15387847 -0.048032083 -0.09312781
-0.07792809 0.048304927 -0.11291532 0.032139476 0.09435034 -0.029581781 -0.15227255 0.03892803
-0.0633082 0.04505091 -0.19900908 0.054078963 -0.08175507 -0.046136092 -0.1773154 0.05501391
0.007240654 0.046746157 0.13314445 0.03298931 0.02788249 0.028862158 0.1671081 0.01341847
0.01452819 -0.039552927 0.10778043 0.037107024 0.06712457 -0.068093136 0.03639585 0.13351965
-0.17770047 -0.018707912 -0.0010712842 -0.06325514 0.1123335 0.083446115 0.007859088 -0.016394762
-0.18121941 0.052444305 0.125955 -0.011992116 -0.08855403 -0.04114968 0.0167393 -0.11894124
-0.34318748 0.04143175 -0.21205083 -0.11127538 -0.1281345 -0.011683904 -0.10445201 -0.14517027
-0.037982192 -0.017584486 0.02157196 -0.031834096 -0.02815525 -0.048398487 -0.022168752 0.061865296
-0.030810522 -0.010810591 -0.061669677 0.037069388 -0.060342282 0.01507108 -0.09144885 0.045050316
0.034908045 -0.06601881 -0.011385803 -0.04975944 -0.04473964 0.036852483 -0.050641388 0.053592198
0.044675767 0.080257736 -0.035641517 -0.079216965 0.06197474 -0.020847684 -0.03892473 -0.04226799
0.08528776 -0.06499043 0.014086931 0.011350325 -0.031198042 0.044062503 0.04434869 0.055503972
0.023673428 0.026288599 0.022783928 -0.022519637 -0.06699848 -0.0005895484 0.0059260186 0.059017006
-0.024546111 0.07778635 -0.008371014 0.029451186 0.05749686 0.12119049 0.0117376875 -0.088002644
-0.10907859 -0.008936942 0.02642543 0.007489439 0.032298226 0.093756706 0.07016075 0.06829182
-0.08450343 0.010691432 -0.06890546 -0.089123495 -0.0935855 0.6512045 -0.0026068713 -0.07796222
0.17605008 0.08857182 -0.09084148 0.021569679 -0.05543011 0.079351366 -0.09180147 0.08115238
0.006946838 0.10224226 -0.06452686 -0.1448836 3.175108e-05 0.21063207 -0.04027681 -0.029495532
0.03257691 -0.041498516 -0.030911313 0.03471828 -0.0145256 0.6988835 -0.0032598304 0.02388444
0.06713015 0.089004554 -0.069522426 -0.06799478 0.056664683 0.120468356 0.074204996 -0.064399004
-0.07422613 0.13650095 0.0072777215 0.14847851 -0.118599094 0.10284898 -0.084003076 0.19823438
-0.018420033 0.065192804 0.007955368 0.08242733 -0.049139213 -0.25941247 0.10875015 0.046968836
0.0130700795 -0.077965416 -0.062742084 0.082531914 -0.026669418 0.1794128 -0.0055049616 0.10273382
-0.06772688 -0.04731709 0.07430081 0.043724284 0.08148316 0.07223896 0.049126353 -0.03733775
0.11936403 -0.011988055 0.10250797 0.1205177 0.13776018 -0.20908058 0.16474803 0.1273626
0.028701814 0.05705468 0.104959086 0.046540525 -0.06087868 -0.011140685 0.04820366 0.0027426062
0.11364147 0.0020125995 0.01614445 0.06276844 -1.7850834e-05 -0.06421252 -0.029615493 0.07111957

fcs1.bias f4 [128]
00000000: 42f9 a1bc ac31 1bba 3d5b 02be 6f1f 733d
00000010: 4321 c53d a3ce eabd edb2 643d 1cdf 18bc
00000020: 257b 0a3e 504a 0bbe dafb fa3d d6a8 5bbd
00000030: 2235 f93d edcc 96bd 4b34 c83c 89e8 093d
00000040: bd5e b73d 658e 8a3d a134 a53d 59ed f8bc
00000050: badc e9bd 644b dc3a 25cd 063e f8a8 ff3d
00000060: 0efa adbd 3955 cb3d 0af3 843d 38ff d5bc
00000070: 9b5c a13d ab12 c5bb def5 8f3c 41b5 c1bd
00000080: 989c 91bc f8af 103e be25 b73d 2bea eebd
00000090: a703 06bc e94f bc3d ca05 7dbd 2222 94bc
000000a0: 4672 933d c96d f83d cb1f 063e 058c d5bd
000000b0: d941 0bbe a7e9 d03d 415f 37bc e472 053e
000000c0: 53ce d13d d7c0 66bd 815e 293d 9de4 463d
000000d0: a696 53bd bfcb 043e 310e 423c 2e33 41bd
000000e0: 4100 07be 2395 ec3d 7890 12be 35fd e03d
000000f0: d60a 4fbd d47a d8bc 00c0 9f3c 2f48 113e
00000100: db94 c2bd 56f4 d1bd a4ae b13d 9994 8fbd
00000110: 1d89 59bd 2ee5 aa3d 9214 75bd a00f b03d
00000120: f997 66bd 8c5f e33d 693b 133e 9a8b a33c
00000130: 3ad5 44bd d944 a63d 0943 253d 0a63 233a
00000140: b0db 033e ddf3 08bc d7c7 4f3d f914 30bd
00000150: b082 d6bc 8b8d cbbb da42 1f3c d147 813d
00000160: fa00 df3d a135 b53d c5a3 78bd c17a 043e
00000170: 39b0 c73d 711c 553d d709 813c 7a4c a7bd
00000180: 816f b0bd 43c0 3c3a 7ee1 dbbd d65d 4f3d
00000190: c32b 06be 05cd 03be 66c8 84bd e613 aa3d
000001a0: 1477 e73d f176 f8bd fcb2 babd d221 033d
000001b0: f087 d7bc 383b f2bd 584c 243d 310a f6bd
000001c0: 8515 143c 37f0 703d 1754 083e 3447 fcbd
000001d0: f3bb dc3d e286 a43c a1b0 003e 0c7b 113e
000001e0: a973 13bd 7625 b8bc 83e3 0ebd d076 e83d
000001f0: 3102 80bd a736 c33d 6625 733d faf8 0a3e
-0.019772176 -0.00059201824 -0.12730117 0.05935615 0.09625485 -0.11465194 0.0558347 -0.009330537
0.13523538 -0.13602567 0.12255068 -0.05362781 0.121683374 -0.07363305 0.024438998 0.03366903
0.08953617 0.06765441 0.08066679 -0.030386614 -0.114190534 0.0016807136 0.13164194 0.124834
-0.0849496 0.09928364 0.064916685 -0.026122674 0.07878991 -0.0060141883 0.017573293 -0.094583996
-0.017774865 0.14129627 0.089427456 -0.11665758 -0.008179582 0.09194929 -0.0617731 -0.018082682
0.0719953 0.12130315 0.13098066 -0.10427097 -0.13599338 0.10200816 -0.011192144 0.13032109
0.10244431 -0.05633625 0.04134989 0.048557866 -0.05165734 0.12968348 0.011844204 -0.04716795
-0.1318369 0.11551883 -0.14312923 0.109857954 -0.050547443 -0.026425757 0.019500732 0.14187692
-0.09501048 -0.102516815 0.08675888 -0.07010765 -0.053109277 0.08344494 -0.05983407 0.0859673
-0.056297276 0.111022085 0.14378132 0.019964028 -0.04805491 0.081186004 0.040347133 0.00062327145
0.12876773 -0.008358923 0.05072769 -0.04298875 -0.026185364 -0.0062119416 0.0097205285 0.06312526
0.10888858 0.088481195 -0.060703058 0.12937452 0.09750409 0.052029077 0.015751762 -0.081688836
-0.08615018 0.000720028 -0.107363686 0.0506266 -0.13102631 -0.12871177 -0.064835355 0.083045766
0.11302009 -0.12132061 -0.0911617 0.032014675 -0.026309937 -0.11827701 0.04011187 -0.120136626
0.009038334 0.058822837 0.13313328 -0.123182684 0.10778036 0.020083848 0.12567379 0.14207095
-0.035998974 -0.0224788 -0.03488494 0.11350787 -0.06250418 0.095319085 0.059361838 0.1357154

fc2.weight f4 [128, 132]
00000000: f2a0 4abd bbf6 e2bd f3bc acbd 3dc4 873e
00000010: ccce ecbd 4b3b 0d3e 9d71 b8bc 25c5 8abc
00000020: 9ecc 80bd 19e1 b4bd 0c50 fd3c be90 d73d
00000030: 32a0 1dbe 5416 01be d89c fbbd ebf5 13bd
00000040: 9700 23bd 3fbc acbd 9935 883b 3093 be3d
00000050: 0b2f be3d 8f46 dbbd ce77 e5bd 7aa5 0e3c
00000060: 866b 933c 43d0 273e e9c5 84bd cd1b e4bc
00000070: 2bce 22bd cc1d b73c f341 1bbe fe78 f4bc
00000080: d871 023d f602 b8bd b32a 343e d814 4cbd
00000090: 92e3 123c 80cc 15bd 6bd9 bfbc 043c 013d
000000a0: 2c2e 5c3d 0226 e83d 4b74 f23d 9b1b 01be
000000b0: f9f6 063c a93c b13d 14bd 473d f964 023e
000000c0: 8e3e 1b3d a870 dbbc 5f06 753e db1c 8e3c
000000d0: 97ed 2e3e f72c 7cbd 1884 39be 5420 103d
000000e0: c25b 9a3d ed2b 32be 8e7d a73d bd7d 523e
000000f0: 77df 8d3e ffc7 c1bd 0905 5d3d 27eb 433d
00000100: 9dd5 35bc 19a5 15be 22d0 673e b883 cc3d
00000110: c6c3 1b3d 66ef 453c a44d 36be 023c 9e3d
00000120: fb7b b13d 1099 e1bd e438 a33d 6407 853d
00000130: f9db 03be b36a e8bd e219 60be 94fc 183e
00000140: b80b fabd 4b9b edbd 5261 503d e2f9 3dbe
00000150: e96e 033d a12f ae3b 59f8 82bc 55ec c3bd
00000160: b2c6 08bd 7ed8 3ebe f63d 57bd 3be7 ee3d
00000170: c037 0b3e 250c 91bd 5bb4 0d3e 1037 d4bd
00000180: 4cdd c8bd 061a f53d e345 243e 612c 51bd
00000190: cf5f d83d 6e33 903c 8d29 3d3d c75f 373e
000001a0: 0648 073e 675a 5b3e a2f9 cdbc 3a41 8abc
000001b0: b925 c9bd 598c f2bb 1cf8 b7bd 9234 923d
000001c0: 660e 463d e942 54be a8cb cd3c b4bb 8a3d
000001d0: b513 533e fd97 30bc 955e 633e ceec 11be
000001e0: 6e90 34bd b321 65bd 6f05 843d c763 d33d
000001f0: e122 d0bc b1c5 c93c 21e9 0e3d 9c6b 0c3e
00000200: 6a56 afbb 26dd a4bd 4da6 2f3d 4bba d7bd
00000210: 90bb 283d 7fcd 33be a4f4 87bd a13e 80bc
00000220: b260 05be f2a8 b4bd 15ce 33be c215 b33d
00000230: 6738 583d 80ce 983d 78ae 163b cb20 adbd
00000240: 7700 0cbe a18b 4ebe 5b7a 90be 2d59 39be
00000250: c752 18bd 2471 59bd cd5b 38bd 687b cabd
00000260: aa2d 4c3e cce8 903d 5ebd fd3d dbc0 863d
00000270: 0cc6 ecbd ee1e f3bc 6e99 9a3d 5bfb 2bbd
00000280: d914 96bd 429c 9dba 9b85 15bc 6804 463d
00000290: a4d9 073e ade8 823d b384 c7bd 6ca7 f53b
000002a0: 89ac 3bbd cbed acbc 7a35 a4bc f640 8c3d
000002b0: 4c32 dabd 0653 30bd 0a93 d63c 8d6c d33d
000002c0: 3384 11be 1d81 8c3a a318 0a3e 512e c03c
000002d0: 7b90 64bd 2afb fabc 5024 0e3d 56c9 a53d
000002e0: 2562 d2bd 46b0 9ebc 19c4 fe3d dd56 f6bd
000002f0: e4fd 303e af75 6f3d c59a 003e 7909 2c3e
00000300: 0825 4fbe 2d35 823d ba1d 973c d734 ea3d
00000310: fcd1 c7bc 454c f1bc 246c 8dbe f828 2bbd
00000320: 3f1c 9f3c 2d27 ebbd 1c3d d6bd 82b7 eabd
00000330: e2ef 933d 4f09 3abe 1c9d a53b 2ee6 63bc
00000340: 3927 9fbc 952a 2fbe 5fab 023e 290f 37ba
00000350: ce6d c3bd 5413 47be 8d58 83bd 31db 80bc
00000360: 92a3 d6bd f52a 78bd a761 09bd f7ad 2abe
00000370: 8cfc 333e 41ca 88be f604 a9bd 5aeb 4a3d
00000380: e699 bfbc cff2 083e 5d8f 17be 379d da3d
00000390: 6b08 0bbe 8156 75be 8d31 7bbd 9b70 2fbe
000003a0: a34c 0b3c ba8f 37bd eb81 f7bc 0e96 903d
000003b0: 1ea8 97bb be3b b43c 0648 9dbd db14 453d
000003c0: 2479 08be 7bad 62be 2525 85bd 62a4 1f3d
000003d0: 3d1d a6bc 21c0 abbd 079f 01bd 4594 12be
000003e0: 02e3 2abd 37db f93d 9b71 6fbd b256 2f3b
000003f0: 5a2d 67bd 7115 b43c f68b f33b 0018 55bd
-0.049469896 -0.11082216 -0.08434477 0.26516905 -0.11562881 0.1379215 -0.022515113 -0.016939709
-0.06289028 -0.088319965 0.030921958 0.10525654 -0.15393141 -0.12606174 -0.12285775 -0.036123198
-0.039795484 -0.084343426 0.00415678 0.093054175 0.092863165 -0.10706817 -0.112044916 0.008706445
0.017995607 0.1638804 -0.06483061 -0.027845288 -0.0397474 0.022353075 -0.15161876 -0.02984285
0.03184685 -0.0898494 0.17594413 -0.049824566 0.00896539 -0.03657198 -0.023419103 0.031551376
0.05375497 0.113353744 0.118385874 -0.12608187 0.008237594 0.08654148 0.048764303 0.1273383
0.037901454 -0.026787117 0.23928212 0.017347744 0.17082821 -0.06156632 -0.18116796 0.03518708
0.07537033 -0.17399569 0.081782445 0.20555778 0.27709553 -0.09461974 0.05395988 0.04783168
-0.011098293 -0.14613761 0.2263799 0.09986061 0.0380285 0.012081003 -0.17803055 0.07726289
0.086662255 -0.110155225 0.079698354 0.0649555 -0.12876882 -0.11348476 -0.21884874 0.14940101
-0.122092664 -0.116018854 0.050874062 -0.18552354 0.032088194 0.0053157364 -0.015987562 -0.09566561
-0.033392616 -0.18637273 -0.052549325 0.116651975 0.13595486 -0.070823945 0.13838331 -0.10362065
-0.09807834 0.11967854 0.16042285 -0.051067714 0.10565149 0.017602649 0.046182204 0.1790763
0.13211069 0.21421205 -0.025143448 -0.016876806 -0.09821648 -0.0074019847 -0.0898287 0.07138933
0.048353575 -0.20728649 0.025121525 0.06774083 0.20612986 -0.010778424 0.22204049 -0.1425049
-0.04408305 -0.05594034 0.06446349 0.103217654 -0.025407257 0.0246304 0.034890298 0.13712925
-0.0053508775 -0.08049993 0.042883206 -0.105335794 0.0411945 -0.1755886 -0.06638458 -0.015654864
-0.13025168 -0.08821286 -0.17559083 0.08744384 0.052788164 0.07461262 0.0022992175 -0.084535204
-0.13672052 -0.20170452 -0.2821835 -0.18100424 -0.037188318 -0.053086415 -0.045009423 -0.09886819
0.19939294 0.070756525 0.123896345 0.06579753 -0.11561212 -0.029677834 0.07548796 -0.041987758
-0.07328195 -0.0012024718 -0.009126092 0.048344046 0.13266617 0.06392036 -0.09742107 0.007496765
-0.04581884 -0.021109482 -0.02004503 0.06848328 -0.106541246 -0.043047927 0.02619316 0.10323439
-0.14210586 0.0010719631 0.1348596 0.023459585 -0.05580185 -0.030637342 0.0347026 0.080950424
-0.10272626 -0.019371163 0.124397464 -0.120282866 0.17284352 0.05846184 0.1255904 0.16800489
-0.2022897 0.06357799 0.018446792 0.1143586 -0.02439212 -0.029455313 -0.27621567 -0.041787118
0.019422648 -0.114820816 -0.104608744 -0.114607826 0.072234884 -0.18167613 0.0050541293 -0.01390986
-0.019427883 -0.17106088 0.12760685 -0.0006983155 -0.09542428 -0.19440967 -0.06413374 -0.015729519
-0.10480417 -0.060587842 -0.033540394 -0.16667925 0.17576808 -0.26716807 -0.08252899 0.049540855
-0.023388814 0.13373874 -0.14800783 0.106745176 -0.1357743 -0.2395878 -0.061326552 -0.171328
0.008502158 -0.044814803 -0.030213317 0.07059871 -0.0046281954 0.022001144 -0.07679753 0.048115592
-0.13327461 -0.2213649 -0.065012254 0.038975127 -0.020277614 -0.08386255 -0.0316458 -0.14314373
-0.041720398 0.12200015 -0.058457952 0.0026754555 -0.056439735 0.02198288 0.007432456 -0.05202484

fc2.bias f4 [128]
00000000: 8063 8c3c 90c6 afbd adf1 a53d 0991 d8bc
00000010: f072 543d 25dc 7f3d 05c6 913d 34da 6bbc
00000020: 5ba7 453b bf00 363d 15d4 84bd 86d5 cabb
00000030: 73f1 153d fe98 00bb 44c7 7dbd 2bc3 533c
00000040: ee9f 92bc 5db5 5a3d 6765 78bd 3c4e ee3b
00000050: 7f91 41bc b1d4 cfba 204d a13d 6757 393a
00000060: 6ac0 60bb 8cec a8bd 131b 2cbd 71cd 8fbd
00000070: 650a c53b bc01 9bbc 8344 d13c bdb3 903d
00000080: 8915 9a3c e364 7dbd f5d8 58bd 585c 21bd
00000090: 8531 47bd 57a0 6c3c 35cc aabd 7094 88bd
000000a0: 3803 79bc 6601 74bd f5a7 603d e0bb ea3c
000000b0: 2e4c 8a3d 80e5 233d 752d bebc 33fb 54bc
000000c0: 2416 273d 95e8 a1bd 0662 ac3c 9dd2 a2bd
000000d0: 208b 183d 4482 e7bc 3b6b eb3c c162 093d
000000e0: 987e 5e3b 9bac 313c 3b7e 02bd 48d9 393b
000000f0: 62b5 4d3d ad87 923d 2081 c8bc 73e4 a43c
00000100: dbe1 aa3c 65fe 0e3d 6681 f63c daed ec3c
00000110: a63c 81bd 60a2 73bc 6ea1 31bd 8bc8 933d
00000120: 9e10 08bd 16a6 1b3d aa3a bd3c 11cf fb3c
00000130: 370f ab3c 6730 01bc 1bac e7bc 72ae ae3d
00000140: e1b1 aa3c 0587 853d feea e93c fdcb ac3d
00000150: 2c9a c33c 879b edbc 3ad1 6d3c 3a30 83bd
00000160: afc4 533d 142c 7dbd 2430 433d 26e7 f93c
00000170: a822 b1bd a7a0 f5bc 4e1f 96bc 2e25 ffbc
00000180: 9adf be3c b2d4 39bd 3773 983d 8d17 6cbc
00000190: 0342 303d 827a 22bd ee63 50bd 48b9 8c3d
000001a0: aed4 a2bd b241 67bb 92ff 37bd 1b96 10bd
000001b0: 1185 d7bb 973b d13c b358 17bc d759 4c3c
000001c0: 2ede a03d 8857 7d3c 73b9 643d f773 bcbc
000001d0: 08d4 a5bc 07af 90bd 98a3 39bd 094c 02bd
000001e0: cc61 9d3c d65f 9ebc 4804 9dbd 7ab5 f3bc
000001f0: 2b3b 9d3d 3dc3 19bd 8d88 80bd 4763 233d
0.017137289 -0.08582795 0.081027366 -0.026436346 0.051867425 0.062465806 0.07117847 -0.014395285
0.0030159566 0.044434305 -0.06485764 -0.0061900048 0.036607217 -0.001962244 -0.061957613 0.01292495
-0.017898526 0.053395618 -0.06064358 0.00727251 -0.011814474 -0.0015856234 0.078760386 0.0007070214
-0.0034294375 -0.08248243 -0.042018007 -0.07021607 0.006013202 -0.018921725 0.025545364 0.07065532
0.018809097 -0.06186379 -0.05294128 -0.039394706 -0.04863121 0.014442525 -0.08339731 -0.06668937
-0.015198521 -0.059571646 0.054847676 0.028654039 0.06752811 0.04001379 -0.023215035 -0.012999344
0.0407926 -0.079056896 0.021042835 -0.079503275 0.037242055 -0.028260358 0.028737655 0.033541445
0.0033949967 0.010844375 -0.031858664 0.002835827 0.05022181 0.07154784 -0.024475634 0.020128464
0.02085965 0.03491058 0.030090999 0.02892201 -0.06310396 -0.014870256 -0.043366842 0.07215985
-0.033218972 0.03800019 0.023099262 0.030738385 0.020881278 -0.007885075 -0.028280308 0.085293666
0.020836772 0.065198936 0.028554436 0.08437345 0.023877226 -0.029004825 0.0145152155 -0.06405683
0.051701244 -0.061809614 0.047653332 0.030505728 -0.08649188 -0.029983832 -0.018325474 -0.031145658
0.02329998 -0.045368858 0.074438505 -0.014409912 0.043031704 -0.039667614 -0.05087655 0.06871277
-0.07950722 -0.003528696 -0.044921465 -0.0352994 -0.006577142 0.02554111 -0.009237456 0.012472591
0.078548774 0.015462764 0.05584092 -0.023004515 -0.020242706 -0.07064634 -0.04532203 -0.031810794
0.019211672 -0.019332808 -0.07666832 -0.02974962 0.07677301 -0.03753971 -0.06276045 0.0398896
